agent_checkpoints_0/actor_local.pth (torch_old, 324434 bytes, 6 tensors)

weight f4 [512, 24]
000000 c7 79 d1 3c 31 7b 42 be 4e 83 bd bd 34 18 ee 3e
       0.025570763 -0.18992306 -0.0925356 0.4650284
000010 23 08 66 3d 47 94 53 be 10 45 26 3d 72 ed d4 3e
       0.056160104 -0.20662032 0.040593207 0.41587406
000020 8d e3 61 3e 4b d7 98 bc 88 a3 8d bc 53 e1 22 bd
       0.2205946 -0.018657347 -0.017289892 -0.039765667
000030 c9 24 3e be 61 1a 71 bc cd 7f 19 3c 1b a2 81 3d
       -0.1856872 -0.014715762 0.009368849 0.06329747
000040 9f ed 1a bc 71 52 af 3b 7b f7 c0 3c 4c 94 3e 3c
       -0.009456067 0.005350404 0.023555508 0.011632036
000050 6f 73 41 be 0d f6 0b 3f 73 06 d4 bc 4b bc 32 bd
       -0.1889169 0.5467232 -0.025881981 -0.0436366
000060 d0 bd 89 3d a7 fc 9b be ab d6 cb bd 9c 69 ee 3d
       0.06725657 -0.30466196 -0.09953054 0.11641237
000070 58 33 a6 be 1b 8e bb 3d 51 ca 78 3d 47 e3 dc bd
       -0.32461047 0.09157964 0.06073982 -0.10785537
000080 b7 59 cf bd 9c c0 64 be ab fa 82 3d 4d de d3 3c
       -0.101245336 -0.223391 0.06395467 0.025862837
000090 52 67 ca be 58 ae 01 bd 24 06 a9 3d 36 95 ba bd
       -0.39531952 -0.031660408 0.08253124 -0.09110491
0000a0 05 91 9b 3e 20 e6 c2 be 01 01 41 3e be 09 46 3e
       0.3038408 -0.38066196 0.18848039 0.19339654
0000b0 ba 44 df be f0 66 e0 bd 5f 7a 06 be 50 72 5d 3e
       -0.43607122 -0.10957134 -0.13132618 0.21625638
0000c0 72 95 2b be c2 24 ed 3b 1d f7 e1 bd 1d cd e2 bd
       -0.16756228 0.007237048 -0.11033461 -0.110742785
0000d0 30 5d f1 bd 9c f8 79 3e fb 44 74 3e 39 31 3c 3e
       -0.11785352 0.24411243 0.23854439 0.18378152
0000e0 9e c3 18 be aa d6 a8 bc 29 b3 31 3e 92 5a 52 be
       -0.14918372 -0.020610172 0.173535 -0.20542362
0000f0 c7 29 5f be cc 0a 75 be bf 03 88 bd 0d 64 94 be
       -0.2179328 -0.239299 -0.066413395 -0.28982583
000100 80 86 8b be a7 c7 a5 3e 4a ff ea bd e6 2b 19 3e
       -0.27251053 0.32378885 -0.11474474 0.14958152
000110 81 68 d7 3c 6c 82 66 bf 6a 21 9e 3a ce c7 55 3e
       0.026294949 -0.9004276 0.0012064402 0.20877
000120 37 76 e7 bc fe 8b 10 be 59 ba 24 3e 85 29 d9 3a
       -0.028254611 -0.14115903 0.16086711 0.001656816
000130 7c 8f 76 be 0e 0c 34 be 44 38 b6 bd 53 a6 70 3e
       -0.24078172 -0.17582723 -0.088974506 0.23500948
000140 5d 40 2c be 0a b4 60 be 3a f2 e4 3d 38 48 9d bd
       -0.16821428 -0.2194368 0.111790136 -0.0767979
000150 42 6f 28 3e 3a a1 9a be 63 4c 19 bd 4b 63 0a 3e
       0.16448691 -0.3020113 -0.037426364 0.1351444
000160 33 d8 4e be 9a c4 20 bd 70 15 21 be 9d b4 b2 3e
       -0.20199661 -0.039249994 -0.15730834 0.34903422
000170 63 9e 96 3e 07 f4 17 bf 54 e7 12 3e ab d9 a3 3e
       0.29417714 -0.5935673 0.14346057 0.32002005
000180 a0 54 d5 bd 17 a3 2d be 69 95 a7 bd 67 3a 47 be
       -0.104165316 -0.16956745 -0.081827946 -0.19455872
000190 f9 00 5f 3d 06 45 40 3d 14 33 2b be e9 9c b5 bc
       0.054444287 0.046940826 -0.16718704 -0.022169547
0001a0 77 e4 8d bc 4c 53 db bd 25 7a 40 bd 11 82 17 be
       -0.017320855 -0.10709247 -0.046991486 -0.1479571
0001b0 4e 91 e3 3d dc d3 05 be c6 d8 02 3e fb de e2 3c
       0.11111699 -0.13069099 0.12778005 0.027694216
0001c0 0d 39 b4 3d 27 ba 3e be 64 ec e6 bd df 42 34 3d
       0.08799944 -0.18625699 -0.11275557 0.044009086
0001d0 a9 78 d2 be fd d9 a1 be 78 b0 67 bd b9 37 53 3e
       -0.4110768 -0.31611624 -0.056564778 0.20626725
0001e0 7a ac 76 be 98 2f 0b 3e 63 db 97 3c 0f ee 23 3e
       -0.24089232 0.13592374 0.018537229 0.16008781
0001f0 07 cf 4c 3e d4 46 af be d0 bd 07 bd 19 dd dd 3c
       0.2000085 -0.34233725 -0.033140004 0.027082967
000200 b4 4b 0f 3d 29 68 31 3e 1c 47 1a 3e c0 88 9e be
       0.034984306 0.1732489 0.15066189 -0.30963707
000210 c6 1c da 3d 6f 4d e5 3d 9e d9 18 3e 28 3a 9a be
       0.10650019 0.1119641 0.14926764 -0.30122495
000220 f5 a2 06 3e 68 b0 32 3e 56 b7 14 bd d3 8a c3 3c
       0.131481 0.17450106 -0.036307655 0.023869907
000230 88 cd 6d be 89 f5 d0 3e e8 2e 15 be ee 00 2d 3e
       -0.23222935 0.40812328 -0.14568675 0.16894886
000240 05 52 26 bd 5f 01 f4 3e 08 8f 0f be f7 90 f5 bd
       -0.040605564 0.47657296 -0.14019406 -0.119905405
000250 1d 79 7b be b7 c2 8c bc 92 5c 26 3e a4 9a 79 3d
       -0.2455792 -0.017182691 0.1624625 0.060938492
000260 04 dc 69 be 8e c7 23 3e 8c 79 07 be c5 8f af be
       -0.22837836 0.15994093 -0.1322996 -0.34289375
000270 20 57 da 3d 2c 0d a2 be 82 da 27 be cc de 53 be
       0.10661149 -0.31650674 -0.16391948 -0.20690459
000280 32 d4 94 be 10 0a aa bd 48 47 9a 3d 32 96 73 be
       -0.29068142 -0.083027005 0.07533127 -0.23787764
000290 54 b9 66 3e 69 d6 98 be 20 a6 1e be 6a cf 8b be
       0.22531635 -0.29851082 -0.15493059 -0.27306682
0002a0 56 20 b8 bc 21 bd 20 3e f6 e1 94 bd 3a 5e 0d 3e
       -0.022476356 0.15697147 -0.07269661 0.13805476
0002b0 87 4d 06 be 8d 85 54 be c4 e9 61 bc 2f 9d f2 bd
       -0.13115512 -0.2075407 -0.013788644 -0.11846387
0002c0 b5 0e c3 3c 9f 64 08 bd fb e4 84 bd e0 97 dd 3d
       0.023810724 -0.033299085 -0.06488987 0.108199835
0002d0 0f e4 1b be 25 a2 b8 be ed 92 eb 3d 9a 39 28 3e
       -0.15223716 -0.36061206 0.11502633 0.16428223
0002e0 22 9a 12 be 43 50 84 3e c3 6a 16 bd 7b 9a 0e be
       -0.1431661 0.25842485 -0.03672291 -0.13926117
0002f0 37 6f 99 3d 87 a0 39 bf 3b 61 10 be af a9 74 3d
       0.07491916 -0.7251057 -0.1409959 0.059732135
000300 d1 9b ad bd 99 6d fb bd 56 f8 7c bd 47 69 1e 3e
       -0.08476985 -0.122767635 -0.06176027 0.15469848
000310 49 94 de bc 80 8d fc be 11 db 2c 3e d0 75 c0 3d
       -0.027170317 -0.49326706 0.16880442 0.09397471
000320 07 6f c1 bd 0a 78 f1 3d bd 7f e5 3d 2d f3 26 3e
       -0.09445005 0.11790474 0.11206005 0.16303702
000330 d0 3c 8f be b4 86 08 bc be 33 10 3d 1e 42 89 3d
       -0.27976084 -0.008332897 0.035205595 0.06702064
000340 5d 75 52 3c d6 57 93 3e a6 4a d5 bd 6a 50 6e 3a
       0.012845364 0.2877795 -0.10414629 0.0009090962
000350 f5 30 e2 bd 78 90 e4 3d ba a3 f3 bd 6f f0 0c 3e
       -0.11044494 0.11160368 -0.11896463 0.13763593
000360 db 70 e1 bd ee 31 7b be e6 51 37 be 46 9f dd 3d
       -0.110078536 -0.24530765 -0.17902336 0.108213946
000370 9e 06 41 bd 00 aa fb 3e de c8 53 3e ae c7 ae 3d
       -0.04712545 0.49153137 0.20682094 0.0853418
000380 99 39 60 be ed 85 f8 bb 1d 03 71 bd 14 3e 21 3d
       -0.21896972 -0.0075843246 -0.05884086 0.039365843
000390 d6 df b2 be ad 4c 2e 3e 24 34 d6 3c b2 a0 c8 3c
       -0.34936398 0.17021437 0.02614791 0.024490688
0003a0 a7 31 71 be 08 2c 2b 3d cb 98 84 3a 22 be 15 be
       -0.23554097 0.04179004 0.0010116337 -0.14623311
0003b0 16 7e 2a bf d3 3b 3e be 92 a7 e1 3d 17 c4 6b 3a
       -0.6659864 -0.18577509 0.110182896 0.0008993758
0003c0 50 7c a9 3d 81 c2 8e be cb 7d 1f 3d 37 b7 8d bd
       0.08275664 -0.2788277 0.038938325 -0.06919711
0003d0 84 df fd bd d2 16 b8 be 0b dc c3 bb 3d 98 dd 3d
       -0.12396148 -0.3595491 -0.005977159 0.10820053
0003e0 13 78 fc bd 3e 51 51 3b 6e 25 08 3e eb ad 98 bd
       -0.1232759 0.0031939293 0.13295528 -0.07455047
0003f0 65 73 4b 3b 9b 03 00 3f 51 f8 ec bd c7 81 1a be
       0.0031044122 0.500055 -0.115708 -0.15088569

bias f4 [512]
000000 65 80 31 be 30 85 82 be 31 3c 0a 3e 5b e9 90 bd
       -0.17334135 -0.2549224 0.13499524 -0.07075759
000010 df f3 d4 3d 55 75 1d be a4 e8 3d bd 10 57 0b be
       0.10398077 -0.1537679 -0.04636444 -0.1360743
000020 e2 c8 63 bd 36 a7 ce bd ae 37 4b 3b 56 3b 2e 3c
       -0.0556115 -0.10090487 0.003100853 0.010634264
000030 d8 5b 07 3e 90 ea 2e bc 24 6b 8c bd 05 ee 1e 3e
       0.1321863 -0.010676041 -0.06856373 0.15520485
000040 55 36 6d bd ea 2a dc 3d ff 0f 15 3e 7c a9 f2 3d
       -0.057913143 0.10750373 0.14556883 0.11848733
000050 2a 9d e7 3d 01 01 d1 3d 0b 4a 1d 3e b0 dc 63 3e
       0.113092735 0.102052696 0.15360276 0.22252154
000060 00 81 8b 3e 22 9b 14 3e 41 56 1c bb 39 9b 1d be
       0.27246857 0.14512303 -0.0023855122 -0.15391244
000070 b8 b3 45 3e 36 b8 d9 3c 25 22 26 be 49 5c 26 be
       0.19306839 0.026577096 -0.16223963 -0.16246141
000080 46 d8 01 3e c0 5f 05 3e 48 13 82 be c7 73 80 be
       0.12680158 0.13024807 -0.25405335 -0.2508833
000090 aa b8 30 3e 2f e8 ad 3e c6 94 35 3d eb 54 89 be
       0.17257944 0.33966205 0.044331335 -0.268226
0000a0 c5 4d 82 3e 98 66 07 be 28 52 0a 3d 6e 2e 92 3e
       0.25449958 -0.1322273 0.033769757 0.28551048
0000b0 a4 80 32 3e 47 e1 73 bc 07 23 a8 3d cd a3 be 3b
       0.17431885 -0.014885253 0.08209806 0.0058178664
0000c0 ac 0a af 3d 66 80 15 be db c5 70 3b 5d 73 8a be
       0.085469574 -0.14599761 0.0036739025 -0.2704114
0000d0 9c 78 0c bc d7 61 2d 3e 60 af 4d be b7 21 53 3e
       -0.008573677 0.16931854 -0.20086432 0.2061833
0000e0 17 0e 06 bd 34 a4 c6 bd a8 3e 73 bc 50 b9 4a be
       -0.03272828 -0.09699288 -0.014846481 -0.19797254
0000f0 a7 6f 74 3e 04 23 ef 3d 83 91 f5 bd 3c 6e a3 bd
       0.23870717 0.116766006 -0.11990645 -0.0798001
000100 57 13 a4 bd 20 e6 04 3e 4c 6e f5 3c 66 50 0b be
       -0.08011501 0.1297841 0.02995982 -0.13604888
000110 63 99 33 be 71 f7 58 bc 03 6b fc 3d 38 7c bc bb
       -0.17538981 -0.013242588 0.12325098 -0.0057521127
000120 9a c1 ce 3d 0b a7 66 be 16 b6 e9 bd 92 d2 16 3e
       0.1009552 -0.2252466 -0.11411683 0.14728764
000130 fc e5 fc bd 9b e7 a6 bd 22 ca a6 bd 94 fe 0c be
       -0.123485535 -0.08149644 -0.081440225 -0.13768989
000140 67 89 25 bd 2a 21 ea 3d 0a 57 99 be ae dd 23 bd
       -0.04041424 0.11432107 -0.29949218 -0.040006332
000150 c7 27 51 3e 5d ef 93 be 8b 89 12 3c fc fb b2 3d
       0.2042533 -0.28893557 0.008943926 0.087394685
000160 7f 70 8d be bd 8f e3 3c 32 fa 8b 3e 3c 3c 03 3e
       -0.2762489 0.0277785 0.2733932 0.12815946
000170 a0 23 59 bd 6b 92 2c 3d 24 1b a7 bd ec ea dc bd
       -0.05301249 0.042131823 -0.081594735 -0.10786995
000180 80 c8 0c 3d 80 25 12 3e 15 d6 d7 bd e9 2e d3 bc
       0.0343709 0.14272118 -0.1053888 -0.025779204
000190 53 c8 48 bd 9c 0b cd bd 77 97 08 be ab b0 46 bd
       -0.04901917 -0.1001198 -0.13339029 -0.048508327
0001a0 f9 9d 64 bd 8d 18 a5 bd f6 c0 3e 3e 4c ed 8b be
       -0.055814717 -0.08061323 0.18628296 -0.2732948
0001b0 9b 93 07 3e b3 9d e5 bd 2d dc 47 3e 58 25 cc 3d
       0.13239901 -0.11211719 0.19517584 0.0996806
0001c0 86 21 0e be 3c 2f 8e bd 78 c7 df 3d 5c 99 18 3e
       -0.13879976 -0.06942603 0.109267175 0.14902252
0001d0 eb 81 48 be d9 4a 53 3e dd 34 ff bc 13 13 0d 3d
       -0.1958081 0.20634021 -0.031153137 0.03444202
0001e0 c9 13 45 bd 46 15 46 3e 26 93 d8 bc 71 b9 f6 bd
       -0.04811457 0.19344053 -0.026437353 -0.12047089
0001f0 9c e3 c6 3d 31 ef 8b 3c 32 b6 52 bd 12 00 c5 bd
       0.09711382 0.017081829 -0.051443286 -0.09619154
000200 68 05 57 3e f4 58 8d 3e 5e f1 ed bd d5 6c d2 bd
       0.20998156 0.27606928 -0.11618303 -0.10274664
000210 20 34 55 3d dc f0 2f be 40 2f 17 3d 4a 69 3f be
       0.052051663 -0.17181724 0.036910295 -0.18692508
000220 20 09 d0 bc ce 67 22 be e4 7c 00 3e 15 e1 7b bd
       -0.025394976 -0.15859911 0.12547642 -0.06149395
000230 47 89 61 bd 45 35 2a be f3 ea 88 bd 69 b3 73 3d
       -0.05506256 -0.16621883 -0.06685438 0.05949727
000240 e2 67 23 3c 35 ee 3f 3e de 6b 8d be 9c a5 2f 3e
       0.009973498 0.18743213 -0.2762136 0.17153019
000250 87 3a 0c be c0 5a 1b 3e f4 40 0e 3e 36 d4 28 3c
       -0.13694201 0.15171337 0.13891965 0.010304501
000260 85 be 09 be 34 4f 3a be 69 55 a4 3d 2c 72 7f bd
       -0.13451584 -0.18194276 0.08024103 -0.062364742
000270 91 e2 5c 3d f5 56 8c be d7 9b c5 bd c7 da a3 bd
       0.053927008 -0.27410093 -0.09648865 -0.08000713
000280 3c 5d 24 3e 76 cf 88 be 30 d8 ae 3b cb 48 0b 3e
       0.16051191 -0.2672078 0.00533583 0.13601987
000290 f0 1a 09 3e d1 9a d2 3d 18 35 cb bd ce fd e6 bc
       0.13389182 0.10283435 -0.09922236 -0.028197195
0002a0 84 76 76 3e d6 7d 28 bb 4d c4 1b be 5a 8d fe 3c
       0.24068648 -0.002570977 -0.15211602 0.031073261
0002b0 30 f9 1a 3e 61 fe 5c be b1 83 0a be 57 e9 82 3d
       0.1513412 -0.21581413 -0.13526799 0.06392162
0002c0 13 ba 80 bb 4c fa 1d bd 32 f3 78 be f7 70 d4 bd
       -0.003928432 -0.03856878 -0.24311522 -0.10373109
0002d0 00 25 6c 3e c1 bf 54 3d 17 1b ef bd 1c 8e 71 3d
       0.2306099 0.051940683 -0.11675089 0.058973417
0002e0 43 ca e2 bd 23 52 c4 3d 81 9d 84 3d cf 91 81 be
       -0.110737346 0.09585979 0.06475354 -0.25306556
0002f0 61 09 9e bc 43 2d 87 bc 33 af 23 3e b8 f3 82 bc
       -0.019291582 -0.016501075 0.15984802 -0.015985355
000300 28 1a 79 bd ad 95 c1 3d c7 1e 7a be 89 b4 e9 bd
       -0.06081596 0.094523765 -0.24425803 -0.114113875
000310 7f 4d 5b be 45 75 04 3e 0e 35 06 bd d1 69 02 be
       -0.21416281 0.1293536 -0.03276544 -0.12735678
000320 7b ac 3f be 3b ed 64 bd c6 66 92 bd f8 8e 14 bd
       -0.1871814 -0.055890303 -0.07148509 -0.036269158
000330 29 3d 9b 3b 1f 39 d1 bd 1f 05 4d 3e 9e 04 1a bd
       0.0047375155 -0.10215973 0.20021485 -0.03760206
000340 c2 51 d4 39 56 f9 39 3e d0 7e b3 bd 69 5a fb 3d
       0.00040496705 0.1816152 -0.08764422 0.12273104
000350 4c f3 bd 3d 81 59 f1 3d 9b 88 24 3c 13 f4 61 bd
       0.09274921 0.1178465 0.010042335 -0.055164408
000360 50 b2 cb 3b 33 23 89 3e 8d 23 85 be 7d 42 63 bd
       0.006216325 0.26784667 -0.26003686 -0.05548333
000370 ea c2 fe 3c 6b 13 51 be 32 07 73 3d 0b cc bd bd
       0.031098802 -0.20417564 0.059333034 -0.09267434
000380 82 7e 0f be f4 4f 54 3e f7 54 72 3d 18 c6 43 be
       -0.14013103 0.20733625 0.05916306 -0.19118536
000390 cf f9 5e be c8 b6 5c 3d 2c bb b3 bd 31 09 46 3e
       -0.21774982 0.05388525 -0.087759346 0.19339444
0003a0 4a ca fb 3c 62 69 44 bd ea 6d d7 3d 76 6d 9a bd
       0.030736107 -0.047952063 0.10519011 -0.07540409
0003b0 93 f2 93 3d a9 52 ad bd 20 57 60 3e a4 03 58 3d
       0.07224002 -0.08463032 0.21908236 0.052737847
0003c0 67 10 a1 3d b3 10 a9 be 7a 42 aa bd dc 89 1b be
       0.078644566 -0.33020553 -0.08313461 -0.15189308
0003d0 05 8b 5d bd 6c 0b 2a be 79 7b 19 be af 9f 9d bd
       -0.054087657 -0.1660592 -0.14988507 -0.07696473
0003e0 f2 29 a5 3d 70 67 cd bc f7 0c 91 bd bd db 2b 3e
       0.08064641 -0.025073737 -0.07082551 0.16783042
0003f0 6a 65 c1 3d 94 38 80 3d 48 3d 48 3e 40 1c 83 3d
       0.09443171 0.062607914 0.19554627 0.06401873

weight f4 [128, 512]
000000 6e 8b 1b 3d ab d2 04 3d 24 37 f6 bc e4 4b 85 bd
       0.037974767 0.03242747 -0.03005559 -0.065086156
000010 d9 cc 30 3d fc ea 69 3c 58 bd 1d be 7c 70 cb bd
       0.043164108 0.014277216 -0.1540426 -0.09933564
000020 b1 7f 2f 3d 6b 0b 8d 3b 4f cc b8 3b e7 6a 1b 3b
       0.042846385 0.0043043396 0.00563959 0.0023714842
000030 23 96 60 bb 98 0e 0f 3d be 31 a7 bd c6 35 b4 3c
       -0.0034269176 0.034926027 -0.081637844 0.021998297
000040 2d a0 2d 3c 65 a1 9c bc d8 61 9c 3c 30 0e 07 bd
       0.010597271 -0.019119928 0.019089624 -0.032972515
000050 65 f0 05 be 71 9d 01 3d e7 69 bf 3d cd 1e 71 be
       -0.13079984 0.03164429 0.09346371 -0.23546906
000060 06 4f d7 bc 68 2d df bc fd b0 af ba 15 0c 97 ba
       -0.026282798 -0.027243331 -0.0013404187 -0.0011523986
000070 b4 45 26 bd 38 df 0d bc 18 40 0f be f0 95 30 bd
       -0.040593818 -0.0086591765 -0.13989294 -0.04311174
000080 17 df 28 bd 7b ed bf 3b 53 25 71 bd af 3e 2f 3d
       -0.04122838 0.0058571673 -0.058873486 0.04278439
000090 8f 0a 2b 3d d8 96 f0 bc 67 3f a3 ba cb be 3f bd
       0.041758116 -0.029368803 -0.0012454808 -0.046812814
0000a0 91 12 ac 3c 2d 05 ff bd 56 fe 30 bd df cf 56 bd
       0.021004947 -0.12452159 -0.043211304 -0.052444335
0000b0 37 2b e7 3a c2 eb 1c be b0 69 68 3d 93 72 c4 3a
       0.001763678 -0.1532431 0.056741416 0.0014987759
0000c0 75 b9 02 be 71 bd c7 bc 34 89 50 3d e1 01 a6 bc
       -0.12766059 -0.024382325 0.050912097 -0.020264568
0000d0 ac 07 87 bd ee 92 2f bd 1d 74 c1 bd bb 6c 1e 3c
       -0.0659326 -0.042864732 -0.09445975 0.009669478
0000e0 2e c6 76 bd c4 32 75 bc 1d 17 4d 3d 66 ed d4 bc
       -0.060247593 -0.014965717 0.05007087 -0.025992107
0000f0 98 cd d7 bd fa 5f e5 ba 11 05 d4 3c 97 0e 03 bd
       -0.10537261 -0.0017499917 0.025881322 -0.031996336
000100 ff db 0a bd 1c 9e 08 bd a3 73 88 3c ae 5e b3 bd
       -0.03390121 -0.03335391 0.016656702 -0.08758293
000110 72 51 e8 bd 26 03 21 bd ae fb 86 bd 49 b9 df 3c
       -0.113436595 -0.039309643 -0.06590973 0.02731003
000120 33 7b a4 3c 04 30 4c bd a2 a1 53 3c 52 88 04 be
       0.020078277 -0.04985048 0.012916954 -0.12942627
000130 86 b9 d1 bc ef fb a2 bd 3c e7 0e 3d e3 3c b2 3d
       -0.02560116 -0.07958209 0.03488849 0.087030195
000140 e0 c9 a0 3d d7 7d 85 bc 86 f7 c8 3c ae 30 90 3c
       0.078510046 -0.016295357 0.02453209 0.017601337
000150 ec 18 d0 3d 73 37 0c be ef 0c 36 bd cd 53 18 3c
       0.101610035 -0.13693027 -0.04444593 0.009297323
000160 43 53 9f 3d 45 75 b1 bc f6 f2 84 bd 3f 41 a3 bd
       0.07779553 -0.021662364 -0.064916536 -0.07971429
000170 97 32 6b bd be 85 68 3d 3f 6b 04 bc ae 3c 81 3d
       -0.057421293 0.05676817 -0.00808221 0.06310402
000180 96 a1 20 3d 02 c1 b4 bc 38 19 15 be 0b 2c dd ba
       0.0392166 -0.02206469 -0.14560401 -0.0016874088
000190 e2 57 25 bd fa d9 f8 bd 2c f9 0b be 07 36 58 3c
       -0.040367015 -0.12150951 -0.1366927 0.013196475
0001a0 21 3b 00 be 11 3a b9 3d 34 c3 a8 3c f9 7c 06 bd
       -0.12522556 0.090442784 0.020600893 -0.032834027
0001b0 fd e8 9b 3d 8c 14 ec bd 36 8f a5 bd 86 d3 32 bd
       0.07612798 -0.115273565 -0.08083956 -0.043658756
0001c0 48 6a 8c 3c 37 28 5a 3d 3c eb 06 bd 46 cd 0e ba
       0.017140523 0.053261008 -0.03293918 -0.0005447458
0001d0 0a 2b 29 be 99 92 32 bd fb 8a 31 ba 72 e7 03 be
       -0.16520324 -0.043596838 -0.0006772724 -0.12881258
0001e0 c9 0f 12 bb 63 a5 5f be 7d 98 99 3d 28 58 7f bd
       -0.002228724 -0.21840434 0.07499788 -0.06233993
0001f0 7a 87 fa 3b 98 8d d7 bd fb 1f b9 bc 5a f6 cc bd
       0.0076455446 -0.10525054 -0.022598257 -0.10007925
000200 6c c5 24 bc 12 50 1c bc 15 d6 2c be 05 c6 2a bd
       -0.010056835 -0.009540575 -0.16878541 -0.041692752
000210 df 8b eb 3c 48 1b ff 3c 4b 6c ef bc 45 e3 44 bb
       0.02875322 0.031140938 -0.029226443 -0.003004269
000220 ae 9e e5 bd 0f d6 33 be 6e bb 58 3d 00 bc f7 bd
       -0.112119064 -0.17562126 0.052913122 -0.12096405
000230 75 11 06 3c ec e0 e6 3d 73 e1 7e 3c 4a 83 46 bc
       0.008182873 0.11273369 0.015556681 -0.012116263
000240 1a b5 16 3c a9 ae 86 be 20 da e6 bd 3e 4b 35 bd
       0.009198451 -0.2630513 -0.11272073 -0.04426121
000250 8d 66 3e 3d 20 eb 11 3d 62 f3 87 be 5f 9e c5 39
       0.04648452 0.035624623 -0.26552874 0.00037692764
000260 82 b4 6d 3b e1 51 1d 3d 94 0c d8 3c 1e 2b a9 3c
       0.003627092 0.038408164 0.026373185 0.020650443
000270 e1 92 0e 3e 3b ec c1 bc ed 75 2f bd 94 6f a5 bd
       0.13923217 -0.023672214 -0.042837072 -0.080779225
000280 f9 73 c5 bd ee bc 5f 3d 02 70 d3 3c a1 1e a7 3d
       -0.09641261 0.054623537 0.025810245 0.08160139
000290 d5 e3 06 be d9 ce 90 bc 43 8d bb bc c3 eb a9 3d
       -0.13172849 -0.017676758 -0.022894507 0.08296921
0002a0 89 f2 2d bd 5a 60 05 be e5 fd db bd fc 1b 8f 3d
       -0.042467628 -0.13025036 -0.10741786 0.069877595
0002b0 41 02 40 3d 50 3f 44 be 3d 61 62 3a 96 fd 9b bd
       0.04687715 -0.19164777 0.00086357055 -0.07616727
0002c0 23 d5 dd ba d4 03 b4 3d cb 28 72 bd 5f 8a 8b 3d
       -0.0016924482 0.08789793 -0.059120934 0.068135016
0002d0 25 c7 a5 bd e4 12 12 bd 21 cb 4d bb 63 89 be 3b
       -0.080946244 -0.035662547 -0.0031401592 0.0058147176
0002e0 97 3d c2 bc 1f ed b6 bb 3b e9 23 3d 4f 87 69 bc
       -0.023711009 -0.0055824663 0.040017348 -0.0142534515
0002f0 43 a7 05 bd 0d c3 9f 3d b8 ce 07 3d ef 03 5f bd
       -0.032630216 0.07800875 0.033156127 -0.05444711
000300 ad d1 85 bd 37 eb 33 be 13 ca ae bd a9 1a c8 bc
       -0.06534133 -0.17570196 -0.08534636 -0.024426775
000310 f5 eb 0f 3c 2c 2f 0b bc df b4 7d 3d 8a f4 f4 3d
       0.008784284 -0.008495133 0.06194007 0.119607046
000320 dc b4 c8 3b 9f b3 35 3a c5 43 9e 3d 22 e7 d1 bc
       0.0061250757 0.00069313677 0.0772777 -0.025622908
000330 2e 3e 51 3c c2 a0 56 3d 72 9c d9 3d 7e 35 3b 3d
       0.012771172 0.052399404 0.10625543 0.04570531
000340 82 f3 5c be a6 0a 84 3d 7c 74 07 be db 49 09 bd
       -0.21577266 0.064473435 -0.13228029 -0.0335177
000350 2b b1 10 3e 57 33 a4 bd d0 fb 60 3d c4 81 e4 3c
       0.14130084 -0.08017605 0.054927647 0.027893908
000360 22 9e f5 bd 68 b0 ba bd d4 ef 96 3b 1c 94 40 3d
       -0.11993052 -0.09115678 0.0046062265 0.047016248
000370 d6 2e 60 bd f8 60 d7 3c ce d4 d8 3d 50 88 59 3d
       -0.054732166 0.026291355 0.10587464 0.053108513
000380 12 cf 4d 3d 41 0a ce bd 32 e2 2a 3d d1 29 ce 3d
       0.050246306 -0.100605495 0.041719623 0.100665696
000390 c4 7c c1 bd 9a 48 a1 bc e1 42 b8 bd b3 9a 4c bd
       -0.09447625 -0.01968794 -0.08997131 -0.04995222
0003a0 1c 63 d6 bd 0e 09 b1 3b d4 94 0c bd e7 7b 17 be
       -0.10468122 0.0054026907 -0.03432162 -0.14793359
0003b0 cf 77 ba 3d 95 52 6a bd de db ae 3c 51 59 82 bd
       0.09104883 -0.057207663 0.021345075 -0.06364692
0003c0 37 4b 9b bd 28 f7 aa bc 01 d3 4b be 4b fc 4f bd
       -0.075827055 -0.020869806 -0.1990471 -0.050777715
0003d0 04 61 42 3d d1 5b bf bc 46 33 03 3d d0 51 3c be
       0.047455803 -0.023359211 0.03203132 -0.18390584
0003e0 44 a6 89 3d 83 c1 08 3c 33 44 f0 bc f4 a9 85 bd
       0.06721166 0.008346918 -0.029329395 -0.065265566
0003f0 13 ef 71 bc f3 4c 0e bd 08 60 24 3d 2c de 24 bc
       -0.014766472 -0.034741353 0.040130645 -0.0100627355

bias f4 [128]
000000 80 56 ad 3c a7 9a 50 3d 70 49 b0 3d 8f 05 06 be
       0.02115941 0.050928738 0.08607757 -0.13088058
000010 cc 82 07 bb 62 20 ec bd a2 6e 5f bd ad 7f 4e bd
       -0.0020677326 -0.11529614 -0.054548867 -0.05041473
000020 71 cd 0d bd 7e 28 36 bd 7d 67 dc bd 2f c4 25 bd
       -0.034619752 -0.04447221 -0.10761926 -0.0404703
000030 cf ff d9 3c 09 99 83 bd bd 9b cf bd 22 49 a1 3b
       0.026611237 -0.064256735 -0.101371266 0.004922048
000040 52 a0 86 3c 01 f4 8b bb fa 8f 09 be be bd e3 3c
       0.016433869 -0.004271031 -0.13433829 0.027800437
000050 59 03 74 bd 64 00 88 bc 84 a3 8e bd c4 27 dc ba
       -0.059573505 -0.016601749 -0.06964782 -0.0016796519
000060 9b bd 79 bd 0f b0 0a 3d 3c 29 23 3d eb 29 de bc
       -0.060971837 0.03385931 0.039834246 -0.027119597
000070 40 4e 4c 3d 49 3d 49 39 38 40 d9 bc 66 af 81 bd
       0.049879313 0.00019191684 -0.02651988 -0.06332283
000080 88 de 5c bd d5 6c 99 bc 5b 27 45 bd c7 2c b4 3c
       -0.05392316 -0.018728653 -0.048133235 0.021994008
000090 5d df be bc 2b 71 04 3e 82 e9 3b 3d c4 22 b8 bc
       -0.023299867 0.12933795 0.045876987 -0.022477515
0000a0 aa af 36 3c 00 9e 2a bd 80 bf 50 bc be 70 ca bc
       0.01115028 -0.041654587 -0.01274097 -0.024711963
0000b0 0d c8 cb ba cb 08 74 bc 0b 41 1e bc b9 80 5a 3c
       -0.0015547291 -0.0148946745 -0.009659062 0.013336354
0000c0 4e 3c a7 bc 8b ed a2 bb 32 27 1d 3d 92 48 9e 3c
       -0.020414498 -0.004972165 0.038367458 0.019321714
0000d0 77 5b be bd 70 48 cb 3d 7b 9a 8e bc e3 2a 87 3b
       -0.09294789 0.09925926 -0.017407646 0.0041249855
0000e0 99 a0 dc bc 67 20 49 3d 3f 94 f7 bc 4e 4b b0 3d
       -0.026932048 0.049103167 -0.030222056 0.08608113
0000f0 6e 28 30 bd 8b db bf 3c 44 3f a4 3d 48 8b fb bd
       -0.043007307 0.023420116 0.080198795 -0.12282425
000100 c3 53 27 3c 26 5a 3a 3b 36 d9 4d bd 7e af 72 bb
       0.010212841 0.002843508 -0.050255977 -0.003703087
000110 56 78 55 bb 1c 4b 1a bc ac 87 69 3d e1 36 ee bb
       -0.0032572947 -0.0094173215 0.057014152 -0.0072697257
000120 c0 92 a6 bc 6a da 3e bd b9 4c 2a be f8 37 32 bd
       -0.020333648 -0.046595015 -0.1663083 -0.043510407
000130 12 f6 93 bd 1e 27 9e bd 61 9c 99 bc 8c 55 9d 3c
       -0.072246686 -0.07722305 -0.018751325 0.019205831
000140 cf 45 ed bd 9c f3 1d bd 1e ef f7 bd 8d d9 9f bc
       -0.115855806 -0.038562402 -0.12106155 -0.019512916
000150 74 40 7c 3c 86 50 3b bc aa 27 d5 39 b4 82 54 3d
       0.015396226 -0.0114327725 0.00040656078 0.05188246
000160 df f6 45 bc 4b e6 e0 3d ed fb d1 3c f7 ea 4c bd
       -0.012082784 0.10981425 0.025632823 -0.050028767
000170 b7 08 bf bc 88 25 07 be 78 3a 9b bc d4 f8 42 bd
       -0.023319585 -0.13197911 -0.018948779 -0.047600582
000180 09 5d b4 bb 42 a1 6b 3d ce 0c 00 3b 18 b7 0f bb
       -0.0055042547 0.057526834 0.0019538882 -0.00219292
000190 23 1b 6a bd 34 0b 8e bc 35 b6 b5 3c f0 9b 85 bd
       -0.057154786 -0.017339326 0.02218161 -0.06523883
0001a0 6b fd 07 bc af 58 90 3c 45 1b 86 3d 61 92 2e 3d
       -0.008300166 0.017620413 0.0654817 0.042620067
0001b0 7a 94 88 bd 69 2f 35 bd 80 30 de bc 14 9a 69 bc
       -0.06668945 -0.044234667 -0.027122736 -0.0142579265
0001c0 45 7a 1d bc e8 e1 7d 3b 2d 12 b1 bc 25 ed d0 3d
       -0.009611671 0.0038739387 -0.021615112 0.10201482
0001d0 82 e8 6a bd 22 0d a9 3b 33 d3 8f bd 42 85 c1 bc
       -0.057350643 0.0051590363 -0.07022705 -0.023623113
0001e0 32 77 45 bc 50 c7 a4 bd ea 92 b0 bd ab 10 a0 3b
       -0.012052344 -0.08045828 -0.08621772 0.0048847995
0001f0 f6 68 f0 3c 73 b8 5a bc 1b 99 e4 bd 56 78 d9 3c
       0.029346924 -0.01334964 -0.11162015 0.026546638

weight f4 [2, 128]
000000 8f 80 05 be 49 80 f2 3d 76 cc 00 3e 90 c2 58 3e
       -0.13037322 0.11840875 0.12577996 0.2116797
000010 12 b3 09 be 53 5f 95 3e c6 b2 b3 3e dd 7d 99 3d
       -0.13447216 0.2917429 0.3509733 0.0749471
000020 ab c0 dd 3e 22 29 0a be 42 02 a6 3e 2b 4b 3a be
       0.43311056 -0.13492253 0.32423598 -0.18192737
000030 7a 5b 7a bb 7e 89 4d be 34 3a 85 3e d8 85 4c 3c
       -0.0038201497 -0.2007198 0.26020968 0.012483083
000040 fa 29 5c 3e e9 37 8c bc 3c e4 23 be bb 94 20 3e
       0.21500388 -0.017116504 -0.16005033 0.15681736
000050 3e 30 6c 3b b1 97 1d 3e 28 87 a2 be f5 03 80 3d
       0.0036039497 0.15389897 -0.3174374 0.06250755
000060 d3 c8 4a 3e 90 19 04 be 48 5f c7 38 7b 52 57 3e
       0.19803171 -0.12900376 9.506807e-05 0.21027558
000070 43 29 8d 3d 75 01 74 3c 3a 1d 67 bc 8f dd ff bc
       0.06892636 0.0148929255 -0.014106089 -0.031233577
000080 67 19 65 3e b6 46 e6 3d f3 92 fd 3d 67 45 8e bb
       0.22372971 0.11243956 0.12381544 -0.0043417695
000090 db 8a dc 3e 9c 7a 2f bb 7a bf 89 be ff 94 8c be
       0.43074688 -0.0026775962 -0.26903898 -0.27457425
0000a0 d8 20 3c 3e 43 04 08 3e 7c e1 41 be 51 66 9a be
       0.18371904 0.13282876 -0.18933672 -0.30156186
0000b0 7e d0 74 be c8 27 69 3b eb f0 8f 3e fe f1 ca bd
       -0.23907658 0.003557669 0.28113493 -0.099094376
0000c0 05 5d 0f be 0f 30 11 3e 60 41 01 3e 3d 97 c8 3c
       -0.14000328 0.14178489 0.12622595 0.024486179
0000d0 06 15 3d 3e b4 3a 39 be 7c 04 61 3e 3f 8c 12 be
       0.18465051 -0.180888 0.21974367 -0.14311312
0000e0 5c 85 68 bd aa bb 4e 3d 13 7d 1d be b2 d2 11 3e
       -0.056767806 0.05047194 -0.15379743 0.1424053
0000f0 9b d0 a2 be 89 32 36 be e6 53 15 ba d4 d3 bb be
       -0.31799778 -0.17792715 -0.0005696401 -0.3668505
000100 dc 35 81 3e df f6 07 bc e7 cb 37 3d b2 79 62 bd
       0.25236404 -0.008298605 0.04487219 -0.05529184
000110 1c 4c 76 3e 43 c2 ab bc 6b 85 59 be 0a 79 88 3e
       0.24052471 -0.020966655 -0.21242301 0.26654845
000120 4e e2 0d be 35 5e 4f bc 02 17 04 3f 6a d7 8a bd
       -0.1385586 -0.012656738 0.5159761 -0.06779368
000130 ec 28 72 be 6d 29 ac 3e 11 e6 16 3e 62 9f dc bd
       -0.23648423 0.33625355 0.14736201 -0.10772587
000140 12 01 65 3e 68 88 ea bd b6 53 03 bf 49 7b 8a 3d
       0.2236369 -0.11451799 -0.5129961 0.06761796
000150 1d 41 b3 3d eb 36 06 be aa a3 17 3e 4a c1 e9 3d
       0.08752654 -0.13106887 0.14808527 0.1141382
000160 b5 8f 96 bd 28 59 37 3e 9c 67 9d be bc b7 46 be
       -0.07351629 0.17905104 -0.3074311 -0.19406027
000170 ce a2 94 3e ad 91 b0 be 3f 02 73 3e 98 46 49 be
       0.2903046 -0.34486142 0.23731326 -0.19655836
000180 e1 15 c5 be 5a ae 4f be ba ec 03 3e d6 cb 4a 3e
       -0.38493255 -0.20281354 0.12883273 0.1980432
000190 f0 05 6b bd f2 27 38 be 61 70 5d ba fc 14 96 3c
       -0.05737871 -0.17983988 -0.0008447227 0.018320553
0001a0 45 4f 4a be 29 e8 a9 be 6f a5 28 3e ab 3a 5d be
       -0.19756801 -0.33184937 0.16469358 -0.21604411
0001b0 d5 b5 fc bc 27 5e 93 bd 35 9f 11 3e f8 6f 27 bd
       -0.030848423 -0.071956925 0.14220889 -0.040878266
0001c0 ff 61 5d be 29 9c 09 3e 43 3d 38 3e 14 93 71 bc
       -0.21619414 0.13438477 0.1799212 -0.014744539
0001d0 54 40 39 be 38 c7 3d bd a3 34 98 be 7d 09 26 3e
       -0.18090945 -0.046332568 -0.2972766 0.16214557
0001e0 39 ac 16 3e 48 44 f6 bd e0 46 14 3f a8 2d 5b bd
       0.14714135 -0.12024742 0.57920647 -0.053510338
0001f0 d5 8c b9 be f6 d5 91 3c 51 ce 71 3e 7b 8c 1e 3d
       -0.3624026 0.01780222 0.2361386 0.03870819
000200 17 61 db bd 40 90 07 be f5 2f 11 bf cf 5c 3f 3e
       -0.10711878 -0.13238621 -0.567138 0.18687747
000210 46 07 1e 3d 51 1b a3 bd d6 09 01 3e 3d 5f df 3e
       0.038581155 -0.079641946 0.12601408 0.4362735
000220 1c 48 c6 bd 65 27 61 3e 7f 6d a0 3e cb 86 89 bd
       -0.096817225 0.21987684 0.3133354 -0.06715163
000230 86 6f 97 3e 36 27 c6 3d 64 81 e3 bd e6 67 92 be
       0.29577273 0.09675448 -0.11108664 -0.28594893
000240 3d bd 25 3e b6 34 d1 3e 32 42 21 3e cf 01 02 be
       0.1618547 0.40860528 0.15747908 -0.12696002
000250 56 30 11 3e 59 01 85 bc f5 7f 09 be 70 d1 bf 3e
       0.14178595 -0.016235994 -0.13427718 0.37464476
000260 13 9a c1 3e b8 2f 87 3e 9b 37 17 3f 31 55 05 3f
       0.37812862 0.26403594 0.5906922 0.52083117
000270 ad c2 19 be 3c 37 3c 3e f7 d4 b1 be 20 75 c0 3e
       -0.15015669 0.18380445 -0.34732792 0.3758936
000280 ed e2 c4 3d d2 9c 8c be e6 27 06 3d 1d fa 85 be
       0.09613595 -0.27463394 0.032752894 -0.26167384
000290 5b b6 c4 be 80 f1 5d be 87 a9 54 be f0 d2 e0 bd
       -0.38420376 -0.21674156 -0.20767795 -0.10977733
0002a0 73 70 68 3d 82 52 03 be 00 48 82 bd f2 f7 71 3e
       0.056747865 -0.12824443 -0.06361389 0.2362974
0002b0 f4 39 fc be 56 1d 6d 3e 86 40 a0 3e f4 87 04 be
       -0.49262965 0.23155722 0.31299227 -0.12942487
0002c0 64 f7 de 3d 18 17 f1 be d9 02 2b be d5 d4 c8 be
       0.1088703 -0.47087932 -0.16700305 -0.39224878
0002d0 21 d5 40 3e 5b 2d c5 be b5 76 d7 3d ae 1e 38 3e
       0.18831302 -0.38511166 0.105206884 0.17980453
0002e0 0f 6a e7 be 7f 6d 74 be a9 3a 5f 3d fc 05 2b 3e
       -0.45198104 -0.23869894 0.054499302 0.16701502
0002f0 44 78 30 be 8d 8b d1 3e d4 ea 93 be cb 59 b6 38
       -0.17233378 0.4092678 -0.28890097 8.6951615e-05
000300 01 64 12 3e dc a9 f0 be 57 e3 b9 3e b5 01 05 3e
       0.14295961 -0.47004592 0.3630626 0.12988932
000310 31 1e 57 3e 0c 46 77 3e bc f0 f8 3d fd 71 5c be
       0.21007611 0.24147815 0.121552914 -0.21527858
000320 4a a5 32 be fb 04 40 3f ca 9d 18 3e 4d 95 92 be
       -0.17445865 0.750076 0.14903942 -0.28629532
000330 ca 80 da 3e d1 d9 01 3e 37 ba e1 3d 5b c6 f4 3e
       0.42676383 0.12680747 0.11021846 0.47807583
000340 98 b9 92 3e 19 28 66 3d 23 d0 47 3c aa a1 6f be
       0.28657222 0.056190584 0.01219562 -0.23401514
000350 9d b2 c1 3e eb 18 a3 be ab fd 3c be 7f c6 41 be
       0.37831584 -0.31854948 -0.18456142 -0.18923377
000360 c8 1b 5c bd a8 0c 0f 3d 9c 83 0b 3e 53 83 02 3e
       -0.05373743 0.03492418 0.13624424 0.12745409
000370 55 79 cc be e6 06 a6 3d df 53 0c 3d f6 71 a9 3e
       -0.3993632 0.081067845 0.034259673 0.33094758
000380 96 5e fb 3d ad 90 d6 3d 88 57 97 3e e3 8a 8e be
       0.122739 0.104768135 0.2955897 -0.27840337
000390 2c f3 b2 3e 23 fb 73 be f5 55 48 be 1a d6 d1 3e
       0.3495115 -0.2382627 -0.1956404 0.4098366
0003a0 b9 16 e8 3d c9 db 05 be d3 a3 43 3c 45 e8 a4 3c
       0.11332459 -0.13072123 0.011940914 0.020130286
0003b0 8b bb fd 3e 10 8d 4b 3b 1b 22 77 be 83 76 24 3d
       0.49557146 0.0031059422 -0.24134104 0.040152084
0003c0 a8 20 a6 3d 1a 9f 38 be 79 78 95 be d4 aa 75 be
       0.081116974 -0.18029442 -0.29193476 -0.23990947
0003d0 3f 52 da 3c d1 b8 c1 3e a4 c6 94 3d 35 09 b8 3e
       0.026650546 0.37836316 0.0726445 0.35944524
0003e0 0d 8d ca bd 70 8d 45 3e bf 7a a2 be 8f d7 9e bd
       -0.098901846 0.19292235 -0.31734273 -0.07755958
0003f0 1d 42 17 be e7 42 43 be 38 21 b2 3d de 74 45 bd
       -0.14771314 -0.1906849 0.08697742 -0.048207156

bias f4 [2]
000000 5d 11 57 3d 91 18 ec bc
       0.052506793 -0.028820308
