agent_checkpoints_0/actor_target.pth (torch_old, 324434 bytes, 6 tensors)

weight f4 [512, 24]
0	0x3cd435f0	0.025904626
1	0xbe436950	-0.19083142
2	0xbdbeec98	-0.093224704
3	0x3eef34e1	0.4672003
4	0x3d64250c	0.055699393
5	0xbe550ca0	-0.20805597
6	0x3d23760a	0.039907493
7	0x3ed609ee	0.4180445
8	0x3e621d98	0.22081602
9	0xbc9baf50	-0.019004494
10	0xbc95bb15	-0.018277684
11	0xbd2268c3	-0.03965069
12	0xbe3ed285	-0.18634994
13	0xbc716da9	-0.014735618
14	0x3c095448	0.008381911
15	0x3d81e016	0.06341569
16	0xbc1182a6	-0.008881247
17	0x3bb58cc7	0.0055404636
18	0x3ccf50c2	0.025307063
19	0x3c1fbd6f	0.009749754
20	0xbe4292eb	-0.19001357
21	0x3f0c2ffa	0.54760706
22	0xbcc5b0c8	-0.024132147
23	0xbd3a73d7	-0.04552063
24	0x3d8b6b79	0.06807608
25	0xbe9c2d30	-0.30503225
26	0xbdcfa10a	-0.10138138
27	0x3df7f6f2	0.12107648
28	0xbea650fa	-0.32483655
29	0x3da53009	0.080658026
30	0x3d713bd1	0.058894936
31	0xbdd359b4	-0.10319844
32	0xbdd004f4	-0.10157195
33	0xbe647e5b	-0.22313826
34	0x3d710a09	0.05884746
35	0x3cee811a	0.029114295
36	0xbeca8a4a	-0.3955863
37	0xbd256e84	-0.0403886
38	0x3d9e90cf	0.07742464
39	0xbdb3eea3	-0.08785751
40	0x3e9b5ba5	0.30343357
41	0xbec37b5c	-0.38180053
42	0x3e44273f	0.19155596
43	0x3e42340a	0.18965164
44	0xbedf8c70	-0.43661833
45	0xbdeecb68	-0.116598904
46	0xbe0356c3	-0.12826066
47	0x3e599cb6	0.21251187
48	0xbe28b5e8	-0.16475642
49	0xbad748ad	-0.0016424857
50	0xbdee2d58	-0.116297424
51	0xbde700c2	-0.112794414
52	0xbe033a5c	-0.12815231
53	0x3e67e53c	0.2264604
54	0x3e6e2cc2	0.23259261
55	0x3e3a1a09	0.18173994
56	0xbe17ba11	-0.14817072
57	0xbd09bef0	-0.033629358
58	0x3e275de7	0.16344415
59	0xbe5c2e2c	-0.21501988
60	0xbe6608cc	-0.22464293
61	0xbe7eb5c7	-0.2487403
62	0xbd9cb292	-0.07651247
63	0xbe994e76	-0.29942673
64	0xbe8a2ade	-0.2698583
65	0x3e9d46ba	0.30718023
66	0xbdf18e2e	-0.11794697
67	0x3e137b81	0.14402582
68	0x3cc513b2	0.024057243
69	0xbf6689b5	-0.90053874
70	0xbb02895b	-0.0019918296
71	0x3e5017d8	0.20321596
72	0xbcde6390	-0.027147084
73	0xbe138dcb	-0.14409558
74	0x3e2964db	0.1654238
75	0x3a4ded2c	0.0007855471
76	0xbe751479	-0.23933591
77	0xbe2f0982	-0.1709347
78	0xbdace7d2	-0.08442654
79	0x3e6fc3fc	0.23414606
80	0xbe2a312c	-0.1662032
81	0xbe664542	-0.22487357
82	0x3dee4ae5	0.11635379
83	0xbda61e77	-0.081112795
84	0x3e29438a	0.1652967
85	0xbe991e0a	-0.2990573
86	0xbd06a04c	-0.032867715
87	0x3e05fa0e	0.1308367
88	0xbe4bd98a	-0.19907203
89	0xbd3733a8	-0.044726998
90	0xbe1f0816	-0.15530428
91	0x3eb32edb	0.34996685
92	0x3e972784	0.29522336
93	0xbf173217	-0.59060806
94	0x3e14f752	0.1454747
95	0x3ea453bc	0.32095134
96	0xbddd32a9	-0.10800678
97	0xbe2f7fa0	-0.17138529
98	0xbda1e23b	-0.07904478
99	0xbe47a9e4	-0.19498402
100	0x3d5d234a	0.053988732
101	0x3d350a70	0.044199407
102	0xbe285a72	-0.16440752
103	0xbcb90a87	-0.022588028
104	0xbca179b8	-0.01971136
105	0xbdd8bea2	-0.10583235
106	0xbd27f6ce	-0.041006856
107	0xbe11c291	-0.14234377
108	0x3de08d37	0.109644346
109	0xbe038257	-0.1284269
110	0x3e08fb56	0.13377127
111	0x3d087396	0.033313356
112	0x3dac4da8	0.08413249
113	0xbe3c2ee8	-0.18377268
114	0xbdec7dcc	-0.11547431
115	0x3d3f152b	0.046651047
116	0xbed38809	-0.41314724
117	0xbe9d5157	-0.3072612
118	0xbd72d0d7	-0.059281196
119	0x3e55ed6d	0.20891352
120	0xbe70ffcb	-0.23535077
121	0x3e088d76	0.13335213
122	0x3c808ad0	0.015691191
123	0x3e2979b3	0.16550331
124	0x3e4dccba	0.20097628
125	0xbeae7f65	-0.3408157
126	0xbd1367a8	-0.035987526
127	0x3d05188d	0.032494117
128	0x3d2b27eb	0.041786116
129	0x3e314d19	0.17314567
130	0x3e1ac41c	0.15113872
131	0xbe9d69f0	-0.30744886
132	0x3dddd4e6	0.10831623
133	0x3de3ca66	0.11122589
134	0x3e195688	0.14974415
135	0xbe991b2d	-0.29903546
136	0x3e0dff19	0.13866843
137	0x3e3228ab	0.17398326
138	0xbd0dcfa1	-0.03462184
139	0x3cc8c028	0.02450569
140	0xbe6ac7d6	-0.22927794
141	0x3ed05913	0.40692958
142	0xbe1375e5	-0.14400442
143	0x3e2da8c7	0.16958915
144	0xbcaa60a2	-0.020798031
145	0x3ef0e8d3	0.4705263
146	0xbe154f1a	-0.14580956
147	0xbe02f8ff	-0.12790297
148	0xbe737f90	-0.2377913
149	0xbd02bbf7	-0.03191754
150	0x3e209f19	0.15685691
151	0x3d58df00	0.052947044
152	0xbe58805d	-0.21142717
153	0x3e19204f	0.14953731
154	0xbe0959ea	-0.13413206
155	0xbeaee8d0	-0.34161997
156	0x3deb7e52	0.11498703
157	0xbea945e9	-0.3306115
158	0xbe29bb79	-0.16575421
159	0xbe528e60	-0.20562124
160	0xbe8d046f	-0.27542445
161	0xbdba3f08	-0.090940535
162	0x3d82fb90	0.06395638
163	0xbe6e4f6f	-0.23272489
164	0x3e6f2fa5	0.23358019
165	0xbea1edf2	-0.3162685
166	0xbe2a4def	-0.16631292
167	0xbe892c22	-0.26791483
168	0xbcddd297	-0.027077956
169	0x3e2aaed4	0.16668254
170	0xbd9632e4	-0.07333925
171	0x3e153ed4	0.14574748
172	0xbe0d2ae0	-0.13785887
173	0xbe4cf449	-0.20015062
174	0xbc6c69b9	-0.014429503
175	0xbde2e065	-0.11077956
176	0x3c9fecc1	0.019522073
177	0xbcb4dfe2	-0.022079412
178	0xbd828187	-0.06372362
179	0x3ddc72ec	0.10764107
180	0xbe202fce	-0.15643236
181	0xbeb48e07	-0.35264608
182	0x3dedf990	0.11619866
183	0x3e27a770	0.16372466
184	0xbe1732e6	-0.1476551
185	0x3e888bed	0.26669255
186	0xbd1c4307	-0.03814986
187	0xbe0d9858	-0.13827646
188	0x3d97427b	0.07385727
189	0xbf370917	-0.71498245
190	0xbe11d82c	-0.1424262
191	0x3d78b7e7	0.060722258
192	0xbdbef437	-0.09323924
193	0xbe095eab	-0.13415019
194	0xbd88b40e	-0.06674968
195	0x3e2163f7	0.1576079
196	0xbca4c1cd	-0.020111943
197	0xbefcca23	-0.49372968
198	0x3e27c0ee	0.1638219
199	0x3dc669e4	0.09688166
200	0xbdd1727d	-0.10226915
201	0x3ddcf2cd	0.10788498
202	0x3de210bc	0.11038348
203	0x3e2d7932	0.16940764
204	0xbe8e6fd5	-0.27819696
205	0xbbe9d817	-0.0071363556
206	0x3d095333	0.03352661
207	0x3d964c81	0.07338811
208	0x3bdf996a	0.0068237083
209	0x3e8ff670	0.28117704
210	0xbdcd043b	-0.100105725
211	0x3c1d70b9	0.009609395
212	0xbdeb0ea5	-0.114774026
213	0x3deb3c1f	0.114860766
214	0xbdeb5d8f	-0.11492454
215	0x3e15da59	0.14634074
216	0xbdca2808	-0.098709166
217	0xbe7a4bcd	-0.24442978
218	0xbe34767b	-0.17623322
219	0x3dc941ce	0.098270044
220	0xbd4ca623	-0.049963128
221	0x3ef4e844	0.47833455
222	0x3e56a7ae	0.20962402
223	0x3d9a69e0	0.07539725
224	0xbe573622	-0.21016744
225	0xbc174197	-0.009231946
226	0xbd61c5b6	-0.055120192
227	0x3d1e269a	0.038611032
228	0xbeb35f82	-0.35033804
229	0x3e25d4d3	0.16194467
230	0x3cf4b495	0.029871264
231	0x3cc270b2	0.023735378
232	0xbe6aef39	-0.22942819
233	0x3d1f62bb	0.038912516
234	0x3c01821a	0.007904554
235	0xbe19da5b	-0.15024702
236	0xbf2a4ee6	-0.6652664
237	0xbe41cb56	-0.18925223
238	0x3defc73e	0.11707924
239	0xbb4bc1ca	-0.003109085
240	0x3da9d663	0.08292844
241	0xbe8eed7c	-0.2791556
242	0x3d1dbb64	0.038508788
243	0xbd8c2f02	-0.068449035
244	0xbdfe3a84	-0.12413505
245	0xbeb05be5	-0.3444511
246	0xbbd1fbd0	-0.006408192
247	0x3ddf2383	0.10895445
248	0xbdfd1a41	-0.12358523
249	0x3a7459a0	0.00093212165
250	0x3e07bced	0.13255663
251	0xbd944c8f	-0.07241165
252	0x3ab1f090	0.0013575722
253	0x3f016c54	0.5055592
254	0xbdedcdf5	-0.11611549
255	0xbe1851a3	-0.14874892

bias f4 [512]
0	0xbe2fdf8d	-0.17175122
1	0xbe82c2d2	-0.2553926
2	0x3e00fd3a	0.12596598
3	0xbd94293f	-0.072344296
4	0x3dd6144d	0.10453091
5	0xbe246907	-0.1605569
6	0xbd8d7e03	-0.069088005
7	0xbe05b257	-0.13056313
8	0xbd55385d	-0.052055705
9	0xbdcaf288	-0.099095404
10	0x3c28f363	0.010311934
11	0x3bf1b166	0.007375884
12	0x3e00663d	0.12539001
13	0xbc961824	-0.018322058
14	0xbd92820a	-0.07153709
15	0x3e220da1	0.15825512
16	0xbd73efdf	-0.05955493
17	0x3de0be8a	0.109738424
18	0x3e0f1864	0.13974148
19	0x3df78d8b	0.12087544
20	0x3dd67447	0.10471397
21	0x3dd1e757	0.10249203
22	0x3e204372	0.15650728
23	0x3e676ab9	0.22599305
24	0x3e8a35f6	0.26994294
25	0x3e14d007	0.14532481
26	0xbb55c2d2	-0.0032617343
27	0xbe1fe9c4	-0.15616518
28	0x3e48ecba	0.19621554
29	0x3c9d78a7	0.01922257
30	0xbe1c52c4	-0.15265948
31	0xbe27ecd7	-0.16398941
32	0x3e0a0e93	0.13482122
33	0x3e06f1b1	0.13178135
34	0xbe84562d	-0.25846997
35	0xbe801ca9	-0.25021866
36	0x3e2f06cc	0.17092437
37	0x3eacbea7	0.33739206
38	0x3d26e06c	0.04074137
39	0xbe899c65	-0.26877132
40	0x3e8371df	0.25672814
41	0xbe010f5a	-0.12603512
42	0x3d23b3e7	0.03996649
43	0x3e8e0765	0.27740017
44	0x3e33720d	0.17523976
45	0xbcb81298	-0.022469804
46	0x3daf50e8	0.085603535
47	0x3c302adf	0.010752409
48	0x3da04c9f	0.07827114
49	0xbe11d29c	-0.14240497
50	0x3c1e8337	0.009674839
51	0xbe88ab9a	-0.26693422
52	0xbc1cd406	-0.009572035
53	0x3e2f7c94	0.17137367
54	0xbe4eae7d	-0.2018375
55	0x3e577a74	0.21042806
56	0xbcc8e9eb	-0.024525603
57	0xbdc02fdf	-0.09384131
58	0xbc79ca88	-0.015246041
59	0xbe4874ea	-0.19575849
60	0x3e6b8dcc	0.2300331
61	0x3deccd6c	0.115626186
62	0xbdf744ef	-0.12073695
63	0xbdb102de	-0.08643125
64	0xbdbef916	-0.09324853
65	0x3e05123b	0.12995236
66	0x3cf25cc3	0.029585248
67	0xbe0bed4f	-0.13664745
68	0xbe3aa030	-0.18225169
69	0xbc091af6	-0.008368244
70	0x3dfd78ee	0.12376581
71	0xba90f0c7	-0.0011058085
72	0x3dcda3c1	0.10040999
73	0xbe66fe09	-0.22557844
74	0xbde49322	-0.11160876
75	0x3e0e4a2c	0.13895482
76	0xbdf5f6b4	-0.120099455
77	0xbda060fe	-0.07831
78	0xbda40a14	-0.08009735
79	0xbe0d6ca4	-0.13810974
80	0xbd3c4f98	-0.045974344
81	0x3df1775b	0.117903434
82	0xbe9458e3	-0.28974065
83	0xbd010799	-0.031501386
84	0x3e4e774d	0.20162697
85	0xbe90ea48	-0.28303742
86	0x3b7a301d	0.003817565
87	0x3dab204a	0.08355768
88	0xbe8f99ad	-0.28046933
89	0x3d093cb6	0.033505164
90	0x3e883e84	0.26610196
91	0x3e0a9f7f	0.13537405
92	0xbd284b87	-0.041087653
93	0x3d3c706e	0.04600566
94	0xbda7d77b	-0.081953965
95	0xbddd5845	-0.10807852
96	0x3cfb647a	0.03068756
97	0x3e125c4c	0.14293021
98	0xbdc369aa	-0.09541638
99	0xbcae7cd6	-0.02129976
100	0xbd24f031	-0.040268127
101	0xbde07356	-0.109594986
102	0xbe06b080	-0.13153267
103	0xbd4ba4d9	-0.049717758
104	0xbd8f7aed	-0.07005868
105	0xbda2d9c9	-0.079516955
106	0x3e456453	0.19276552
107	0xbe892a87	-0.26790258
108	0x3e118042	0.14209083
109	0xbde50769	-0.11183054
110	0x3e46368b	0.19356744
111	0x3ddc2115	0.107484974
112	0xbe0ec59a	-0.13942567
113	0xbd77bc3d	-0.060482252
114	0x3dd8a6f7	0.10578721
115	0x3e159a69	0.14609684
116	0xbe49d126	-0.1970869
117	0x3e548f83	0.2075787
118	0xbd1ccd44	-0.038281694
119	0x3d1ab04b	0.037765782
120	0xbd5ac5d1	-0.05341131
121	0x3e4807ee	0.19534275
122	0xbcc5555d	-0.024088556
123	0xbdee5dd8	-0.11638993
124	0x3dd13d50	0.102167726
125	0x3c451f17	0.012031338
126	0xbd48dde5	-0.04903974
127	0xbdc0fb9e	-0.09422992
128	0x3e54bc09	0.20774855
129	0x3e8e59ac	0.2780279
130	0xbdfb11de	-0.12259267
131	0xbdcad45a	-0.09903784
132	0x3d456719	0.048194025
133	0xbe2b6aea	-0.16740003
134	0x3d004793	0.03131826
135	0xbe3f6f3b	-0.18694775
136	0xbcc75c6d	-0.024336064
137	0xbe264dde	-0.16240641
138	0x3e01b20d	0.12665577
139	0xbd844916	-0.064592525
140	0xbd72b1a8	-0.059251457
141	0xbe25bbf5	-0.16184981
142	0xbd6dd03d	-0.05805992
143	0x3d99b52d	0.0750526
144	0x38de29dc	0.00010593582
145	0x3e320e3a	0.1738824
146	0xbe931756	-0.2872874
147	0x3e20dd56	0.15709433
148	0xbe0dbdfe	-0.13842008
149	0x3e1a6460	0.15077353
150	0x3e094090	0.13403535
151	0x3ba86f07	0.0051401886
152	0xbe0a5405	-0.13508613
153	0xbe326f94	-0.17425376
154	0x3da73c6f	0.08165824
155	0xbd81f55f	-0.06345629
156	0x3d696c9e	0.05698835
157	0xbe8eeb30	-0.2791381
158	0xbdd5ff34	-0.10449067
159	0xbd9fd35d	-0.07803986
160	0x3e220313	0.15821485
161	0xbe8a9db4	-0.27073443
162	0x3bdcff83	0.0067443266
163	0x3e0499ce	0.12949297
164	0x3e1019b1	0.140723
165	0x3dca8075	0.098877825
166	0xbdd61642	-0.10453464
167	0xbcc2e0c7	-0.023788823
168	0x3e79e8c8	0.24405205
169	0xba4e1c66	-0.0007862508
170	0xbe174264	-0.1477142
171	0x3cf4af0b	0.029868623
172	0x3e169673	0.1470583
173	0xbe5415c8	-0.20711434
174	0xbe0dd63d	-0.13851257
175	0x3d868ff4	0.06570426
176	0x3be7a032	0.0070686573
177	0xbd194b88	-0.037425548
178	0xbe75d566	-0.24007186
179	0xbdd4264d	-0.10358868
180	0x3e682630	0.22670817
181	0x3d4f335f	0.0505861
182	0xbde9cc36	-0.11415903
183	0x3d80225e	0.06256555
184	0xbde25fe9	-0.1105345
185	0x3dc9a146	0.098452136
186	0x3d80274c	0.06257495
187	0xbe7bd0fb	-0.24591438
188	0xbc9c9590	-0.019114286
189	0xbc6203c4	-0.013794843
190	0x3e21bffc	0.15795892
191	0xbc763b85	-0.015028839
192	0xbd66ec16	-0.056377493
193	0x3dbcffaf	0.09228455
194	0xbe7bc2fd	-0.24586101
195	0xbde6b955	-0.11265818
196	0xbe5b9fdc	-0.214477
197	0x3e004fc8	0.12530434
198	0xbce6ea88	-0.028188005
199	0xbe009d72	-0.1256006
200	0xbe362b12	-0.17789868
201	0xbd7b0581	-0.061284546
202	0xbd9212e0	-0.07132506
203	0xbd1c2a83	-0.03812648
204	0x3bf19366	0.0073723076
205	0xbddba558	-0.10724896
206	0x3e529259	0.2056364
207	0xbd1e43cd	-0.03863888
208	0xbb9a890c	-0.0047160443
209	0x3e382e55	0.17986424
210	0xbda59930	-0.08085859
211	0x3df50755	0.11964289
212	0x3dbedb3e	0.09319161
213	0x3de922a2	0.11383559
214	0x3c2bcc76	0.010485759
215	0xbd490a34	-0.049081996
216	0x3c03bf7a	0.008041257
217	0x3e8537ae	0.26019043
218	0xbe83880d	-0.25689736
219	0xbd52478f	-0.051337775
220	0x3ccf64c6	0.025316607
221	0xbe4e322a	-0.20136324
222	0x3d869920	0.06572175
223	0xbdd21263	-0.10257413
224	0xbe141bae	-0.14463684
225	0x3e626ee5	0.22112615
226	0x3d8415da	0.0644948
227	0xbe438d9c	-0.19096988
228	0xbe605d46	-0.21910581
229	0x3d47f90b	0.04882149
230	0xbdba77d6	-0.09104888
231	0x3e49611e	0.19665954
232	0x3d19d76d	0.03755896
233	0xbd487545	-0.048939962
234	0x3dca88c1	0.09889365
235	0xbda6f34c	-0.08151874
236	0x3da1192e	0.07866131
237	0xbdb17de5	-0.086665906
238	0x3e61904a	0.22027698
239	0x3d7a7a8a	0.06115202
240	0x3d9febf7	0.078086786
241	0xbeaabd56	-0.33347577
242	0xbdc33ff2	-0.09533681
243	0xbe1e777b	-0.15475266
244	0xbd6db1fe	-0.058031075
245	0xbe28bbae	-0.16477844
246	0xbe1285c3	-0.14308839
247	0xbd9ce6e1	-0.07661224
248	0x3dac1d47	0.08404022
249	0xbc9d57ec	-0.019206963
250	0xbd8e365c	-0.06943962
251	0x3e2a0d9a	0.16606751
252	0x3dbb9dfa	0.09160991
253	0x3d7865b7	0.060643878
254	0x3e496440	0.19667149
255	0x3d7b514e	0.061356835

weight f4 [128, 512]
0	0x3d1d74ec	0.038441584
1	0x3d1087b1	0.035285655
2	0xbcf0bcec	-0.02938696
3	0xbd84916e	-0.06473051
4	0x3d2fb51b	0.042897325
5	0x3c65a502	0.014016392
6	0xbe26719c	-0.16254276
7	0xbdc351c5	-0.09537081
8	0x3d366af7	0.044535603
9	0x3b978253	0.00462369
10	0x3b5dafa5	0.0033826616
11	0x3b5dec91	0.0033862928
12	0xba8c9be7	-0.0010727615
13	0x3d1cfab8	0.03832504
14	0xbda1c5af	-0.07899033
15	0x3caef933	0.021359062
16	0x3c3b2bb6	0.011423996
17	0xbc957ccd	-0.018247986
18	0x3c9150fd	0.017738814
19	0xbd081864	-0.033226386
20	0xbe0400d9	-0.12890948
21	0x3cf9c982	0.030491594
22	0x3db8afb2	0.09017886
23	0xbe6f6bc3	-0.23380952
24	0xbcc82636	-0.024432283
25	0xbcdfb84d	-0.027309561
26	0x3acdd1f7	0.0015702833
27	0x3b71ff44	0.0036925832
28	0xbd28d996	-0.04122313
29	0xbbf35cde	-0.007426842
30	0xbe10b21c	-0.14130443
31	0xbd215eac	-0.039396927
32	0xbd33c4e4	-0.04388894
33	0x3ba30ea6	0.0049761115
34	0xbd61f791	-0.05516774
35	0x3d3f417f	0.04669332
36	0x3d19f46b	0.03758661
37	0xbce8c7b9	-0.028415548
38	0xbb09aa20	-0.0021005943
39	0xbd3bade5	-0.045820136
40	0x3cc68451	0.024233015
41	0xbdfc1265	-0.12308196
42	0xbd02319e	-0.0317856
43	0xbd4c1a02	-0.04982949
44	0x3bdde71b	0.0067719347
45	0xbe263935	-0.1623276
46	0x3d706f82	0.058700092
47	0x3b00e8c6	0.0019669994
48	0xbdf77773	-0.1208333
49	0xbcb68754	-0.022281326
50	0x3d45fbf9	0.048336003
51	0xbcadf929	-0.021236973
52	0xbd868af6	-0.065694734
53	0xbd3612a8	-0.044451386
54	0xbdbcf271	-0.092259295
55	0x3c084a9b	0.008318569
56	0xbd6532c8	-0.055956632
57	0xbc238d2f	-0.009982391
58	0x3d4c037e	0.049808018
59	0xbcbff933	-0.023434257
60	0xbde7bd6e	-0.11315428
61	0x3b080db1	0.0020760114
62	0x3cfc0ca7	0.030767752
63	0xbd0ce65a	-0.034399368
64	0xbd009ae8	-0.03139773
65	0xbd03306a	-0.032028593
66	0x3c6d69ad	0.014490527
67	0xbda5acc8	-0.08089596
68	0xbde50514	-0.11182609
69	0xbd437c76	-0.047726117
70	0xbd7bf772	-0.06151528
71	0x3ca92b57	0.020650549
72	0x3c9a5d9f	0.01884347
73	0xbd442a8f	-0.04789215
74	0x3c7508a4	0.014955673
75	0xbe08bfea	-0.1335446
76	0xbcdd97d8	-0.027049944
77	0xbd94a04b	-0.07257136
78	0x3d129e41	0.035795454
79	0x3db2e8e5	0.08735827
80	0x3d9e1975	0.07719699
81	0xbc8a6c53	-0.016897356
82	0x3cc8de75	0.024520138
83	0x3c78cf09	0.01518608
84	0x3dc2da64	0.09514311
85	0xbe0b956d	-0.1363122
86	0xbd3b7976	-0.04577013
87	0x3c31f01a	0.010860467
88	0x3da1d98d	0.07902823
89	0xbcb3b406	-0.021936428
90	0xbd8542b4	-0.06506863
91	0xbda5d39e	-0.080970034
92	0xbd612bea	-0.05497352
93	0x3d6ef19d	0.05833589
94	0xbc2ac2a6	-0.010422384
95	0x3d87c934	0.06630173
96	0x3d1c6cd6	0.03818973
97	0xbc952acd	-0.018208886
98	0xbe12eb97	-0.14347683
99	0xbadba62a	-0.0016757895
100	0xbd18993d	-0.037255514
101	0xbdf02347	-0.117254786
102	0xbe05d3b3	-0.13069038
103	0x3c4456f6	0.011983624
104	0xbe07818e	-0.13233015
105	0x3dba860d	0.091075994
106	0x3c8c2ae4	0.017110296
107	0xbcdf9bed	-0.02729603
108	0x3da23dd3	0.07921948
109	0xbdeff946	-0.11717467
110	0xbda62e4e	-0.08114301
111	0xbd683787	-0.05669358
112	0x3c81072a	0.015750486
113	0x3d4ee8e0	0.050515056
114	0xbd08c185	-0.03338768
115	0xbaa158c9	-0.0012309785
116	0xbe247aa5	-0.1606241
117	0xbd2cce23	-0.042188775
118	0xbc29663d	-0.010339317
119	0xbdf9e82a	-0.12202485
120	0xbb2afd72	-0.0026091007
121	0xbe6b394f	-0.2297108
122	0x3d990fd7	0.07473724
123	0xbd50148b	-0.05080084
124	0x3bc09cd4	0.0058780704
125	0xbdd34b88	-0.10317141
126	0xbced5397	-0.028970523
127	0xbdcf2db3	-0.10116138
128	0xbbfb57ee	-0.007670394
129	0xbc63caa2	-0.013903292
130	0xbe333ddf	-0.1750407
131	0xbd214fe5	-0.039382834
132	0x3cbe1cd9	0.023207115
133	0x3ce080ef	0.02740523
134	0xbd027914	-0.03185375
135	0xbb085278	-0.0020801108
136	0xbddd40ae	-0.10803352
137	0xbe37431e	-0.17896697
138	0x3d5d9411	0.054096285
139	0xbdf52196	-0.11969297
140	0x3c228800	0.00992012
141	0x3ddec50f	0.1087743
142	0x3c728037	0.014801077
143	0xbbf5737a	-0.0074905725
144	0x3bc1acc3	0.0059104874
145	0xbe886401	-0.26638797
146	0xbddfe19b	-0.10931703
147	0xbd2c9f55	-0.04214414
148	0x3d3f542a	0.046711124
149	0x3d0e6540	0.03476453
150	0xbe87491d	-0.26422969
151	0x3ad1feeb	0.0016021406
152	0x3b872144	0.0041238386
153	0x3d2027ac	0.039100334
154	0x3cd4c713	0.025973832
155	0x3cd59d20	0.0260759
156	0x3e0a9afa	0.13535681
157	0xbc8d65db	-0.017260483
158	0xbd283f1b	-0.041075807
159	0xbd9d5398	-0.0768196
160	0xbdbf702b	-0.09347566
161	0x3d549d23	0.05190767
162	0x3cccdae2	0.025006715
163	0x3dad33f0	0.08457172
164	0xbe066071	-0.13122727
165	0xbc6e9f12	-0.0145642925
166	0xbc9c3281	-0.01906705
167	0x3da8801e	0.082275614
168	0xbd18b9eb	-0.03728668
169	0xbe018578	-0.1264857
170	0xbdcbde28	-0.09954482
171	0x3d936a24	0.07197979
172	0x3d2a26b3	0.041540813
173	0xbe3ed0e7	-0.18634377
174	0x3adc8b3f	0.0016826167
175	0xbd972d35	-0.073816694
176	0xbc037a35	-0.008024742
177	0x3db30be4	0.08742502
178	0xbd806473	-0.06269159
179	0x3d889350	0.06668723
180	0xbd99082e	-0.07472263
181	0xbd054ca0	-0.03254378
182	0x3ab6eb2c	0.0013955585
183	0x3ba78d76	0.005113299
184	0xbcb5b3ea	-0.022180516
185	0xbc00e248	-0.00786645
186	0x3d0e6590	0.034764826
187	0xbcc3ecb1	-0.023916574
188	0xbd09dea7	-0.033659603
189	0x3da6891f	0.081316225
190	0x3d07f7f4	0.03319545
191	0xbd41b023	-0.047287118
192	0xbd725f5f	-0.059172984
193	0xbe3440e1	-0.17602874
194	0xbdba1a8d	-0.090870954
195	0xbcc70e26	-0.024298739
196	0x3c0f4522	0.00874451
197	0xbbd87d36	-0.006606723
198	0x3d80eb63	0.062948965
199	0x3dec024f	0.11523878
200	0x3ac978d6	0.0015371095
201	0x3ac5d358	0.0015092893
202	0x3d9651fb	0.07339855
203	0xbcc59662	-0.02411956
204	0x3c8e0116	0.017334502
205	0x3d4c02f1	0.049807493
206	0x3ddb4e04	0.1070824
207	0x3d3f4a3e	0.046701662
208	0xbe5c6232	-0.21521834
209	0x3d858f4f	0.065214746
210	0xbe08d104	-0.13360983
211	0xbce44876	-0.027866583
212	0x3e123f57	0.14281975
213	0xbd9fa69c	-0.0779545
214	0x3d5d2cd0	0.053997815
215	0x3cd89422	0.026437823
216	0xbde86ebd	-0.11349247
217	0xbdb4a5be	-0.08820675
218	0x3bf263c5	0.0073971474
219	0x3d4c1150	0.049821198
220	0xbd57ebe6	-0.052715205
221	0x3ca29781	0.019847633
222	0x3dcb3722	0.09922625
223	0x3d5bf9e1	0.0537051
224	0x3d52f13a	0.051499583
225	0xbdc8d968	-0.09807092
226	0x3d331143	0.043717634
227	0x3dc8d021	0.098053224
228	0xbdc2e529	-0.09516365
229	0xbc9d20d4	-0.019180693
230	0xbdaa5782	-0.08317472
231	0xbd41b2f0	-0.04728979
232	0xbddfb2b5	-0.109227575
233	0x3c34cf94	0.011035819
234	0xbd13c47c	-0.036076054
235	0xbe0c4e00	-0.1370163
236	0x3db4c5a2	0.08826758
237	0xbd5579b8	-0.052118033
238	0x3ca88318	0.020570323
239	0xbd85df17	-0.06536692
240	0xbd950acc	-0.0727745
241	0xbca07f22	-0.019591872
242	0xbe46f0cc	-0.19427794
243	0xbd46fb51	-0.048579518
244	0x3d4a2592	0.049352236
245	0xbcc63d9b	-0.024199298
246	0x3d0a44bf	0.033756968
247	0xbe36b24a	-0.1784145
248	0x3d851fbf	0.06500196
249	0x3bf6e1f1	0.0075342585
250	0xbd01fb8e	-0.031734042
251	0xbd862427	-0.06549864
252	0xbc1c67e1	-0.009546251
253	0xbd1d22da	-0.038363315
254	0x3d37ab01	0.044840816
255	0xbc1534b1	-0.009106801

bias f4 [128]
0	0x3caff75d	0.021480257
1	0x3d56d060	0.052444816
2	0x3daab4f6	0.08335297
3	0xbe05ac95	-0.13054116
4	0xbbd910c3	-0.0066243126
5	0xbde461c3	-0.11151459
6	0xbd563792	-0.05229909
7	0xbd3d73a2	-0.046252854
8	0xbd036bcd	-0.03208523
9	0xbd3b512b	-0.045731705
10	0xbdd8e44f	-0.105904214
11	0xbd292fec	-0.041305467
12	0x3ce34306	0.02774192
13	0xbd8534dd	-0.065042235
14	0xbdbc8523	-0.09205081
15	0x3c3a7b6f	0.011381968
16	0x3c6470a6	0.013942873
17	0xbc0f8581	-0.008759857
18	0xbe0d45fa	-0.13796225
19	0x3ce55aed	0.027997458
20	0xbd884fa0	-0.06655812
21	0xbc89c5dc	-0.01681798
22	0xbd8b8713	-0.06812873
23	0xbb4b5ecb	-0.0031031843
24	0xbd7e6026	-0.062103413
25	0x3d026ea7	0.031843808
26	0x3d0420b4	0.03225775
27	0xbcf94b60	-0.03043145
28	0x3d619beb	0.055080336
29	0xbb9396ac	-0.0045040455
30	0xbcb3ab42	-0.021932248
31	0xbd8854ef	-0.06656825
32	0xbd5db05f	-0.05412328
33	0xbcad6b9d	-0.021169478
34	0xbd3ff42f	-0.04686373
35	0x3d02cc92	0.031933375
36	0xbc9d03af	-0.019166796
37	0x3e04b6b9	0.12960328
38	0x3d45c174	0.048280194
39	0xbccf58b3	-0.02531085
40	0x3bfe0d67	0.0077530625
41	0xbd3695e0	-0.044576526
42	0xbc4d082c	-0.012514155
43	0xbcc91f58	-0.024551079
44	0xba283a1e	-0.00064173515
45	0xbca77905	-0.020443449
46	0xbbea251b	-0.0071455366
47	0x3c561cf0	0.013068423
48	0xbca24b95	-0.019811431
49	0xbb80b23d	-0.0039274977
50	0x3d216d33	0.03941078
51	0x3ce9f2ab	0.028558096
52	0xbdbc5774	-0.09196368
53	0x3dc9e539	0.09858174
54	0xbc6b8a69	-0.014376261
55	0x3a12545b	0.0005582028
56	0xbcd62657	-0.026141329
57	0x3d504ca1	0.05085433
58	0xbd01d840	-0.031700373
59	0x3db0d2e2	0.08633973
60	0xbd34a4d6	-0.044102512
61	0x3cbad872	0.022808287
62	0x3dab7425	0.08371762
63	0xbdfc6995	-0.12324826
64	0x3c2a032a	0.010376731
65	0x3bfbf431	0.007689022
66	0xbd49e602	-0.04929162
67	0xbbd5707a	-0.0065136524
68	0xbb705556	-0.0036671958
69	0xbc7f5109	-0.015583285
70	0x3d69f5c6	0.057119153
71	0xbbb4836a	-0.00550883
72	0xbcbe090a	-0.02319767
73	0xbd5f1ccc	-0.054470822
74	0xbe282e4d	-0.16423912
75	0xbd302ca2	-0.043011315
76	0xbda3243c	-0.079658955
77	0xbda3e967	-0.08003502
78	0xbc93dd9e	-0.018050011
79	0x3cb18e40	0.021674275
80	0xbde8364a	-0.1133848
81	0xbd1e67d5	-0.03867324
82	0xbdfdf7b8	-0.12400764
83	0xbc88ce5a	-0.016699959
84	0x3c66b162	0.014080377
85	0xbc23cac7	-0.009997076
86	0x3b373084	0.0027952502
87	0x3d5ed5ef	0.05440324
88	0xbc4bec93	-0.01244654
89	0x3de19a9e	0.11015819
90	0x3ce17a52	0.027524147
91	0xbd513371	-0.05107445
92	0xbcd2988c	-0.025707506
93	0xbe0cdb25	-0.13755472
94	0xbc933e48	-0.017974034
95	0xbd3ed0ee	-0.04658597
96	0xbc130aa9	-0.00897471
97	0x3d59d6c5	0.053183336
98	0x3bb1334f	0.005407728
99	0x3aa1cb4e	0.0012343915
100	0xbd6b5c15	-0.057460863
101	0xbc977afa	-0.018491257
102	0x3cd56af6	0.02605198
103	0xbd8635b0	-0.06553209
104	0xbc0422de	-0.008064954
105	0x3c707e0d	0.01467849
106	0x3d863428	0.06552917
107	0x3d223f5b	0.0396112
108	0xbd86e280	-0.0658617
109	0xbd333a5c	-0.043756828
110	0xbcb82b85	-0.02248169
111	0xbc36f15e	-0.011165945
112	0xbc4c218c	-0.01245917
113	0x3b7df2dd	0.0038749494
114	0xbcb645cf	-0.022250084
115	0x3dd3fb3e	0.10350655
116	0xbd7188de	-0.058968417
117	0xbb043bb8	-0.0020177197
118	0xbd8fd258	-0.07022542
119	0xbcc407f9	-0.023929583
120	0xbbe5f9d9	-0.0070183096
121	0xbdac2253	-0.08404984
122	0xbdaa09a5	-0.08302621
123	0x3bab7852	0.005232849
124	0x3cd748c5	0.026279816
125	0xbbed3021	-0.0072384034
126	0xbddbc186	-0.10730271
127	0x3ce00416	0.027345698

weight f4 [2, 128]
0	0xbe046ff5	-0.12933333
1	0x3dee7188	0.11642748
2	0x3e011046	0.12603864
3	0x3e56de18	0.2098316
4	0xbe07414b	-0.13208501
5	0x3e981c9e	0.29709333
6	0x3eb2b0c4	0.34900486
7	0x3d97005c	0.073731154
8	0x3edd5e82	0.43236166
9	0xbe0e8c04	-0.13920599
10	0x3ea618c7	0.3244078
11	0xbe3a7909	-0.18210234
12	0xbb6a261a	-0.0035728277
13	0xbe4ad70c	-0.19808596
14	0x3e81c8e7	0.2534859
15	0x3c3b61de	0.011436908
16	0x3e5df008	0.21673596
17	0xbcaa7af8	-0.02081059
18	0xbe1f6688	-0.15566456
19	0x3e1efe31	0.15526654
20	0x3b45cb33	0.003018093
21	0x3e1c2f62	0.1525245
22	0xbea18432	-0.3154617
23	0x3d8ef8df	0.06981062
24	0x3e47c664	0.19509274
25	0xbe04f1d2	-0.12982872
26	0xba824664	-0.0009939191
27	0x3e4f7ed5	0.20263226
28	0x3d905f25	0.070493974
29	0x3c77465f	0.015092461
30	0xbc1ea65b	-0.009683217
31	0xbd23650f	-0.0398913
32	0x3e5eaf86	0.21746644
33	0x3debc794	0.11512676
34	0x3e013bf2	0.12620524
35	0xbbb2126c	-0.005434325
36	0x3edc0fe3	0.4298087
37	0xbb123756	-0.0022310815
38	0xbe87aa64	-0.26497185
39	0xbe8c30f1	-0.2738109
40	0x3e39b781	0.18136407
41	0x3e06af5a	0.13152829
42	0xbe47ff29	-0.1953093
43	0xbe990b0f	-0.2989125
44	0xbe72fe53	-0.2372983
45	0x3b6483b7	0.0034868547
46	0x3e91d290	0.2848096
47	0xbdca22e2	-0.098699346
48	0xbe133559	-0.1437582
49	0x3e149d77	0.14513193
50	0x3dfdb6c8	0.123883784
51	0x3cb7ace7	0.022421313
52	0x3e3d0834	0.1846016
53	0xbe3642ea	-0.17798963
54	0x3e5e32ba	0.21699038
55	0xbe0c7b4d	-0.1371891
56	0xbd6a24bf	-0.05716395
57	0x3d69d264	0.05708541
58	0xbe17ca6c	-0.14823312
59	0x3e1320a9	0.14367928
60	0xbea240b0	-0.31689978
61	0xbe3c49d2	-0.18387535
62	0xb99a3814	-0.0002941495
63	0xbebd6408	-0.3699038
64	0x3e836933	0.25666198
65	0xbc0541cc	-0.008133363
66	0x3d3bb1fb	0.045824032
67	0xbd6537ed	-0.055961538
68	0x3e75bb7e	0.23997304
69	0xbcb12e89	-0.021628635
70	0xbe5731b0	-0.21015048
71	0x3e89bbbc	0.26901042
72	0xbe0de041	-0.13855077
73	0xbbe5fb23	-0.007018463
74	0x3f0085f1	0.5020438
75	0xbd8edae3	-0.06975343
76	0xbe77ee0b	-0.242119
77	0x3eabde28	0.3356793
78	0x3e185519	0.14876212
79	0xbdd98e72	-0.106228724
80	0x3e63f0bc	0.22259802
81	0xbdebded7	-0.11517113
82	0xbf0341c6	-0.5127224
83	0x3d88e18e	0.06683646
84	0x3db877c6	0.0900722
85	0xbe05ff49	-0.13085665
86	0x3e182da5	0.14861162
87	0x3de71ed9	0.112851806
88	0xbd839e82	-0.06426717
89	0x3e3b3d99	0.18285216
90	0xbe9dfcfe	-0.3085708
91	0xbe39ad15	-0.18132432
92	0x3e946212	0.28981072
93	0xbeaeac0c	-0.34115636
94	0x3e72755a	0.23677579
95	0xbe489194	-0.19586784
96	0xbec532f5	-0.3851544
97	0xbe4f6f4b	-0.20257299
98	0x3e037079	0.12835874
99	0x3e48d8f0	0.19614005
100	0xbd660956	-0.056161247
101	0xbe32b15e	-0.17450473
102	0xbae0db63	-0.0017155226
103	0x3c51434d	0.012772393
104	0xbe4ce58a	-0.20009437
105	0xbeaa8739	-0.33306292
106	0x3e272074	0.16320974
107	0xbe5f4d07	-0.21806727
108	0xbd113cac	-0.03545825
109	0xbd913c04	-0.07091525
110	0x3e1531ea	0.14569822
111	0xbd2b0887	-0.04175618
112	0xbe5fc8eb	-0.21853988
113	0x3e0ac6f4	0.13552457
114	0x3e3e56ed	0.18587847
115	0xbc80700a	-0.015678424
116	0xbe3a6d72	-0.18205813
117	0xbd40789e	-0.04699003
118	0xbe9850ac	-0.29749048
119	0x3e25b0e1	0.16180755
120	0x3e0ffb1b	0.14060633
121	0xbdfefdf6	-0.12450783
122	0x3f11ae46	0.56906545
123	0xbd612e9f	-0.054976102
124	0xbeb9fff7	-0.36328098
125	0x3c545f6c	0.0129622035
126	0x3e728a92	0.23685673
127	0x3d1ed59b	0.03877793
128	0xbdde9bbd	-0.108695485
129	0xbe063069	-0.13104405
130	0xbf0fbaaf	-0.5614423
131	0x3e3daf3c	0.18523878
132	0x3d5755df	0.052572127
133	0xbdb3adc5	-0.08773378
134	0x3e040e41	0.12896062
135	0x3edfc2ae	0.43703216
136	0xbdbd0b7c	-0.09230706
137	0x3e602adb	0.21891348
138	0x3e9fa475	0.31180158
139	0xbd775295	-0.06038149
140	0x3e991c23	0.2990428
141	0x3dd79f26	0.10528402
142	0xbde486ee	-0.11158548
143	0xbe940236	-0.28907937
144	0x3e29fcd4	0.16600353
145	0x3ed397a0	0.41326618
146	0x3e1a76fe	0.15084454
147	0xbe01cb8a	-0.126753
148	0x3e1093e2	0.14118913
149	0xbc25d7cb	-0.01012225
150	0xbe0128df	-0.12613247
151	0x3ebd0d59	0.36924246
152	0x3eb6cdd5	0.35703912
153	0x3e89cbf2	0.2691341
154	0x3f12640a	0.571839
155	0x3f025010	0.50903416
156	0xbe1abe6d	-0.15111704
157	0x3e3c9143	0.18414788
158	0xbeae03e4	-0.33987343
159	0x3ec186f8	0.37798285
160	0x3dd48e54	0.103787094
161	0xbe8681d3	-0.26270923
162	0x3d0f8b83	0.035045158
163	0xbe8209eb	-0.25398192
164	0xbec24dcb	-0.37949976
165	0xbe598c78	-0.21244991
166	0xbe53f710	-0.20699716
167	0xbdd6bc1b	-0.10485097
168	0x3d6029fc	0.05472754
169	0xbdf4ef77	-0.11959737
170	0xbd62a15a	-0.055329658
171	0x3e75033a	0.23927012
172	0xbefb3476	-0.49063462
173	0x3e6d9954	0.23203021
174	0x3e9d2771	0.30694154
175	0xbdfc69ca	-0.12324865
176	0x3dcc14c6	0.099649
177	0xbee1e18b	-0.44117388
178	0xbe28d78b	-0.16488473
179	0xbec2db70	-0.38058043
180	0x3e44c73a	0.19216624
181	0xbec13b8b	-0.3774074
182	0x3dd8a0b8	0.1057753
183	0x3e2d4b63	0.16923289
184	0xbeea6928	-0.45783353
185	0xbe73b76e	-0.23800442
186	0x3d567bc8	0.05236414
187	0x3e3072e3	0.17231326
188	0xbe28529d	-0.16437764
189	0x3ed6930b	0.4190906
190	0xbe91aaca	-0.28450614
191	0x3bab2abe	0.005223601
192	0x3e1b4881	0.15164377
193	0xbef06e41	-0.46959117
194	0x3eb9fe90	0.36327028
195	0x3e04d344	0.12971216
196	0x3e4e689d	0.20157094
197	0x3e78b3e0	0.24287367
198	0x3e0af2dd	0.13569207
199	0xbe587ee9	-0.21142162
200	0xbe2daa0f	-0.16959403
201	0x3f42c6f3	0.7608482
202	0x3e3ada3d	0.18247314
203	0xbe924502	-0.28568274
204	0x3ed8d8e0	0.42352962
205	0x3e0222af	0.12708543
206	0x3def1cfe	0.11675452
207	0x3efb9829	0.49139526
208	0x3e9603c9	0.29299763
209	0x3d5ffe8e	0.05468612
210	0x3c771721	0.015081198
211	0xbe6f0a92	-0.23343876
212	0x3ebe9d8e	0.3722958
213	0xbeaa6642	-0.33281142
214	0xbe379a04	-0.17929846
215	0xbe3e60c4	-0.185916
216	0xbd6e1066	-0.058121108
217	0x3d193b19	0.037409876
218	0x3e0c2212	0.13684872
219	0x3e009176	0.12555489
220	0xbec85008	-0.3912356
221	0x3db37b8b	0.08763798
222	0x3d158431	0.03650302
223	0x3ea5e1c8	0.3239882
224	0x3e01d0d9	0.12677325
225	0x3ddd884b	0.108170114
226	0x3e96bda4	0.2944156
227	0xbe8b7ae3	-0.27242193
228	0x3eaec635	0.34135595
229	0xbe73f778	-0.2382487
230	0xbe46aed2	-0.19402626
231	0x3ed25cae	0.41086334
232	0x3dd7b8e6	0.105333135
233	0xbdf3eefb	-0.11910816
234	0x3c3985b4	0.011323381
235	0x3c8ba39f	0.017045794
236	0x3efac6e2	0.4897986
237	0x39c09dc3	0.00036738635
238	0xbe74c364	-0.2390266
239	0x3d1426ab	0.03616969
240	0x3da0e752	0.07856621
241	0xbe29f9ab	-0.16599147
242	0xbe8dabc6	-0.27670115
243	0xbe76acba	-0.24089327
244	0x3d05218b	0.032502692
245	0x3ec2b0e6	0.38025588
246	0x3d99ff2f	0.075193755
247	0x3eb8e1cd	0.36109772
248	0xbdecdf29	-0.11566002
249	0x3e47978f	0.19491409
250	0xbe9580e1	-0.2919989
251	0xbd9dee84	-0.07711509
252	0xbe17cd73	-0.14824466
253	0xbe4b5e39	-0.19860162
254	0x3dbe3b2d	0.09288631
255	0xbd5019be	-0.0508058

bias f4 [2]
0	0x3d5a6964	0.053323165
1	0xbd071587	-0.032979514
