agent_checkpoints_0/critic_local.pth (torch_old, 361868 bytes, 9 tensors)

weight f4 [256, 48]
0.04603101 0.06896075 -0.04945527 0.012209691 0.12771167 -0.025932515 0.026407419 0.014122536
0.009212247 0.053064954 0.019465052 -0.003983981 0.040201135 0.016247783 -0.009462233 -0.0045961738
0.023519378 0.053910337 0.044347033 0.049065713 -0.14050962 0.13443008 -0.019488648 0.049448878
9.327347e-05 0.031045409 -0.002669051 -0.035403132 -0.115197755 -0.026171 -0.016244657 -0.037135698
-0.014979016 0.05450927 0.05673627 0.06540553 -0.04545842 0.016450789 -0.058034454 0.065766975
-0.020470424 0.063356176 -0.009545549 -0.06158852 0.13683751 0.13460451 0.01055814 -0.06206967
-0.0007366153 0.11034698 0.018694006 0.012193108 -0.10674253 -0.037265673 -0.027717518 0.012145303
0.020766655 0.103537954 -0.038871188 0.0072571943 -0.030947277 0.03984723 0.0073526935 0.007388919
0.042181853 0.11264462 -0.048571955 0.05075784 0.102207504 0.15702003 0.042972524 0.051669702
-0.061878707 0.014269603 -0.028874943 0.03920974 0.10672939 -0.036619894 0.052495908 0.0383888
-0.021204902 0.05132806 0.0027914331 0.10157264 0.031565014 0.03891962 0.0088671595 0.10128246
0.023560822 0.070466764 0.039228424 0.010469788 -0.100900576 0.1566375 -0.009578937 0.009782439
0.016817877 -0.05143218 0.038422935 0.02637492 -0.028794106 -0.061217714 -0.045740772 -0.0067212293
0.03462029 -0.05871755 0.043910965 0.006870891 -0.060503192 0.12878762 -0.03349444 0.023725055
0.069421835 -0.052130856 -0.08419283 -0.036822855 0.17904949 0.45155638 0.044260994 -0.007799501
0.027179902 -0.20137219 -0.0063400143 0.031148627 0.09046551 -0.04564714 0.0051253308 0.023809211
0.07283449 -0.17386428 0.057314385 -0.0023369936 0.022342123 0.1355533 -0.08042583 0.015315404
0.06316389 -0.17844516 -0.08251603 -0.025400374 -0.17636567 0.46457586 0.08745492 -0.039798234
-0.026061483 -0.074402064 0.015699033 -0.032234933 0.096881405 0.019378588 0.0015251394 -0.032108184
-0.034482263 -0.08441477 0.0067604263 -0.012209264 0.019127458 0.012264777 0.0043350356 -0.012246304
-0.04878163 -0.09312538 -0.004295577 -0.0758149 -0.06762763 -0.006167475 -0.0060492097 -0.075605
0.0029747505 0.03261211 -0.0002735006 0.013425002 -0.09306869 0.01940995 -0.025162674 0.013533126
0.017921275 -0.0051054736 0.007667531 -0.105904184 -0.021084636 0.012275184 0.009564429 -0.10599239
0.041143786 0.008333539 -0.004137789 0.067620635 0.07374272 -0.006192707 -0.028854946 0.06758842
0.044888947 -0.004603291 -0.002027005 0.049688563 0.07093377 -0.009549527 0.024596157 0.049664836
0.03525559 -0.02593717 -0.0022173817 -0.042867143 0.018882884 -0.022263296 -0.019587252 -0.04286728
0.019025384 -0.032560404 -0.015925292 -0.046073664 -0.048119895 -0.023889497 0.007958155 -0.04602094
-0.017604297 0.10793536 -0.021250175 -0.0077923825 -0.070529826 -0.009546903 -0.025666203 -0.00778582
-0.041470334 0.08759819 0.044429123 -0.07902662 -0.019088548 -0.022262994 0.010747776 -0.079086676
-0.0835313 0.085793614 0.007353567 -0.06054892 0.04473221 -0.023889342 0.0125328805 -0.060557764
-0.029387997 0.07614571 -0.008813354 -0.030203551 0.01326947 -0.11765132 0.012718759 -0.029351233
-0.00060994446 0.06807874 -0.03118587 0.039492704 0.03692766 -0.04460843 0.033022754 0.039478708
00000000: 038b 3c3d 4b3b 8d3d 9c91 4abd 280b 483c
00000010: d9c6 023e 6d70 d4bc 5f54 d83c 3662 673c
00000020: f7ee 163c a35a 593d 2c75 9f3c 0e8c 82bb
00000030: f2a9 243d 121a 853c 7b07 1bbc 809b 96bb
00000040: b6ab c03c 16d1 5c3d 3ca5 353d 21f9 483d
00000050: c1e1 0fbe 0aa8 093e a8a6 9fbc e88a 4a3d
00000060: d09b c338 f152 fe3c 3feb 2ebb e002 11bd
00000070: cdec ebbd 9164 d6bc 8413 85bc 9a1b 18bd
00000080: 8c6a 75bc 1d45 5f3d 4b64 683d 56f3 853d
00000090: 9c32 3abd cec3 863c 89b5 6dbd d6b0 863d
000000a0: 97b1 a7bc e2c0 813d ef64 1cbc 3e44 7cbd
000000b0: 221f 0c3e c4d5 093e 0dfc 2c3c c43c 7ebd
000000c0: 6a19 41ba 99fd e13d 2c24 993c 9ac5 473c
000000d0: d49b dabd e4a3 18bd d90f e3bc 18fd 463c
000000e0: d51e aa3c b50b d43d 6537 1fbd c2cd ed3b
000000f0: 2585 fdbc d936 233d ddee f03b bf1e f23b
00000100: e1c6 2c3d 39b2 e63d 63f3 46bd 74e7 4f3d
00000110: 2b52 d13d dcc9 203e f503 303d 9ca3 533d
00000120: 8774 7dbd 0ecb 693c 258b ecbc 649a 203d
00000130: f094 da3d befe 15bd f305 573d 933d 1d3d
00000140: e7b5 adbc 5f3d 523d 7af0 363b 5105 d03d
00000150: 514a 013d 2e6a 1f3d 9047 113c 2e6d cf3d
00000160: a002 c13c e150 903d fcad 203d 7989 2b3c
00000170: f6a4 cebd 9565 203e f9f0 1cbc 8646 203c
00000180: a5c5 893c 8daa 52bd 5e61 1d3d 3710 d83c
00000190: 9ee1 ebbc 6dbf 7abd ad5a 3bbd c23d dcbb
000001a0: 01ce 0d3d d081 70bd fcdb 333d 3625 e13b
000001b0: 32d2 77bd e7e0 033e 7731 09bd 0c5b c23c
000001c0: 092d 8e3d 2a87 55bd 4a6d acbd 90d3 16bd
000001d0: c058 373e 6632 e73e 044b 353d f592 ffbb
000001e0: 63a8 de3c 8334 4ebe e5bf cfbb 682b ff3c
000001f0: fb45 b93d 7ff8 3abd 64f2 a73b 890b c33c
00000200: 402a 953d 7a09 32be 7dc2 6a3d 3f28 19bb
00000210: d406 b73c 7cce 0a3e 4cb6 a4bd 76ed 7a3c
00000220: 125c 813d 54ba 36be 2afe a8bd 7214 d0bc
00000230: 3499 34be e3dc ed3e 911b b33d 7903 23bd
00000240: e47e d5bc 1c60 98bd 429b 803c c708 04bd
00000250: c269 c63d d8bf 9e3c 30e7 c73a df83 03bd
00000260: 463d 0dbd a7e1 acbd 9186 dd3b 5d09 48bc
00000270: 30b1 9c3c 34f2 483c ea0c 8e3b b9a4 48bc
00000280: 3fcf 47bd 85b8 bebd e9c1 8cbb d844 9bbd
00000290: 5b80 8abd 8818 cabb 7338 c6bb cbd6 9abd
000002a0: 08f4 423b 4794 053d a164 8fb9 8af4 5b3c
000002b0: cc9a bebd 9e01 9f3c f421 cebc 0bba 5d3c
000002c0: a3cf 923c d14b a7bb e93f fb3b 4be4 d8bd
000002d0: b0b9 acbc da1d 493c 1fb4 1c3c 8a12 d9bd
000002e0: 6386 283d 6589 083c 4a96 87bb b07c 8a3d
000002f0: 6c06 973d 31ec cabb 3561 ecbc cc6b 8a3d
00000300: 79dd 373d 34d7 96bb 80d7 04bb 3c86 4b3d
00000310: b945 913d 9f75 1cbc e17d c93c 5b6d 4b3d
00000320: 2a68 103d 307a d4bc 7e51 11bb 7595 2fbd
00000330: 47b0 9a3c 8461 b6bc 7275 a0bc 9a95 2fbd
00000340: 1fdb 9b3c 0f5e 05bd c275 82bc bdb7 3cbd
00000350: 5e19 45bd e8b3 c3bc ec62 023c 7480 3cbd
00000360: e336 90bc 370d dd3d d914 aebc 3e57 ffbb
00000370: f171 90bd 9d6a 1cbc ee41 d2bc 3120 ffbb
00000380: ccdc 29bd ae66 b33d 50fb 353d b5d8 a1bd
00000390: 965f 9cbc e260 b6bc 7117 303c 32f8 a1bd
000003a0: 7512 abbd 90b4 af3d 31f6 f03b 2502 78bd
000003b0: 1f39 373d 95b3 c3bc b656 4d3c 6b0b 78bd
000003c0: 19bf f0bc 48f2 9b3d e365 10bc 706d f7bc
000003d0: 3168 593c 2df3 f0bd 5762 503c ff71 f0bc
000003e0: aee4 1fba de6c 8b3d 8279 ffbc 1ac3 213d
000003f0: 7541 173d 54b7 36bd de42 073d 6db4 213d

bias f4 [256]
-0.0064360695 -0.04495742 -0.03541509 0.015513224 0.01906219 -0.01082487 0.056737732 0.0052569457
0.009162791 -0.004545099 -0.005910868 -0.002596649 -0.0071066213 -0.01825807 -0.010907058 -0.00013832659
0.011303491 0.039586402 0.04280458 0.00051453337 -0.007904278 0.010283563 -0.065874174 -0.0029814662
-0.007343851 0.012666166 -0.039400667 -0.004841007 -0.003051488 0.00967912 0.018120764 -0.036766563
-0.0011257922 0.005354479 0.0057090237 -0.019105898 -0.0053781117 -0.04724574 0.011137225 -0.014632992
0.02611208 -0.007024787 0.017542003 0.004988741 0.017882014 -0.026856143 -0.011231264 0.0025994403
-0.0006551111 -0.00095801236 0.035991818 -0.0118494835 0.02987609 -0.0036206113 -0.0008101539 -0.017629365
0.08184928 -0.01763856 -0.024000922 0.0315741 -0.016206656 0.0018257918 -0.012313968 -0.0016939298
-0.022576284 -0.007155856 -0.002307466 0.0075030103 0.013827469 -0.03147484 -0.029162703 0.013074543
-0.025454748 -0.025967736 0.0012721029 0.014731658 -0.0036329846 -0.037997894 0.001790184 -0.012008409
0.04117649 0.023784809 -0.012529913 -0.01239538 0.0013224551 -0.013537726 0.008123586 -0.0028125395
-0.015096528 -0.01821984 0.011195391 -0.014242121 -0.008057813 0.0046895263 -0.011638227 -0.07070802
0.04221376 0.027325975 0.0010137693 0.008133147 0.014587611 0.008284788 -0.00026719924 -0.04258209
-0.051013753 -0.0132404165 -0.012235435 0.0123259565 -0.015514107 0.006315952 0.0008435384 0.008552951
0.0025419188 0.010664068 0.012597239 0.061740186 0.009590484 0.00048875593 -0.029787056 0.0098067
0.0951441 -0.025076145 0.021658828 0.00254564 0.025368122 0.008257624 -0.0052363765 0.00462062
0.020461444 0.0012494643 0.01486566 0.013790966 -0.07240627 -0.012571351 0.007835165 0.00020941744
-0.012487754 -0.010427216 -0.016334232 -0.0037790043 0.0035160074 -0.014804712 0.005923094 -0.04084151
-0.0035886979 0.01702883 -0.026217794 -0.014574363 -0.015231997 -0.011680013 -0.023446176 -0.025865022
0.0055723963 -0.009408162 0.02034282 0.0035839847 -0.005620534 0.0026898524 -0.0049923626 0.021721492
0.004980636 -0.0016743214 -0.0056770947 -0.009930966 0.020104023 -0.006399927 0.018915256 -0.008624305
-0.014127551 -0.0042586755 0.024273647 -0.011109802 0.020738741 -0.009652513 0.023490004 -0.0049404665
0.007699378 0.03418197 0.0015897324 0.05377793 0.030098204 0.017991358 0.0046664355 0.016604915
-0.024537927 -0.01661871 -0.004310883 0.0012803155 0.0076362286 0.029812513 -0.03905971 -0.027976342
-0.017409502 -0.015337261 0.09169756 -0.0064349924 0.0067645833 0.017569732 -0.008169528 0.017032875
0.021123901 0.038360707 -0.016095378 0.0154816685 0.017295647 -0.050858635 -0.024347946 -0.023532059
-0.044315413 -0.04371328 -0.03608969 -0.0003034293 -0.02988835 -0.00645367 0.026581885 0.02870711
0.0028605333 -0.015742742 -0.0044015693 -0.020014063 0.0049876585 0.00043483518 -0.024551287 -0.017630512
-0.113219574 -0.014296782 0.013576278 0.020746566 0.026917096 -0.029900506 -0.011954314 0.0048492216
-0.013891013 0.0067350385 0.012030673 -0.0013880719 0.0069870185 0.016762525 0.014539729 -0.0036450215
-0.019682689 -0.05257138 -0.0028681078 -0.021079207 0.0057240836 -0.072420925 -0.021097818 0.015733961
0.022556126 0.043274883 0.0074349344 0.06027701 0.0186161 -0.011604262 0.0032206133 0.021776306
00000000: aae5 d2bb 4625 38bd 6a0f 11bd 2d2b 7e3c
00000010: 4f28 9c3c cc5a 31bc d365 683d 7542 ac3b
00000020: 881f 163c 0eef 94bb f4af c1bb 8b2c 2abb
00000030: a9de e8bb f391 95bc 84b3 32bc c30b 11b9
00000040: 4732 393c 5a25 223d db53 2f3d c0e1 063a
00000050: f280 01bc 647c 283c 0ae9 86bd b464 43bb
00000060: b0a4 f0bb c085 4f3c 9862 21bd 4fa1 9ebb
00000070: 79fb 47bb 2c95 1e3c ff71 943c 8998 16bd
00000080: 518f 93ba a074 af3b c312 bb3b f983 9cbc
00000090: df3a b0bb c084 41bd e878 363c 38bf 6fbc
000000a0: 00e9 d53c 2f30 e6bb 3fb4 8f3c 9878 a33b
000000b0: 4d7d 923c 6a01 dcbc 5603 38bc 5f5b 2a3b
000000c0: c3bb 2bba 1f23 7bba 286c 133d 5624 42bc
000000d0: b4be f43c c747 6dbb 8260 54ba 756b 90bc
000000e0: 98a0 a73d be7e 90bc 959d c4bc d853 013d
000000f0: d2c3 84bc 684f ef3a 86c0 49bc da06 deba
00000100: e6f1 b8bc ac7b eabb db38 17bb d0db f53b
00000110: 9c8c 623c c3eb 00bd 9fe6 eebc 9c36 563c
00000120: 7a86 d0bc 4aba d4bc b1bc a63a 0d5d 713c
00000130: 5e17 6ebb aea3 1bbd 9ba4 ea3a ebbe 44bc
00000140: aea8 283d 5cd8 c23c 444a 4dbc fe15 4bbc
00000150: 3b56 ad3a 57cd 5dbc ca18 053c 9552 38bb
00000160: 6e57 77bc c641 95bc e06c 373c c957 69bc
00000170: eb04 04bc 99aa 993b 43ae 3ebc 5ecf 90bd
00000180: 56e8 2c3d b9da df3c 74e0 843a e440 053c
00000190: e000 6f3c ebbc 073c e016 8cb9 8f6a 2ebd
000001a0: ccf3 50bd 55ee 58bc 2277 48bc cff2 493c
000001b0: e22e 7ebc 0cf6 ce3b e720 5d3a ad21 0c3c
000001c0: 5296 263b 58b8 2e3c a664 4e3c 47e3 7c3d
000001d0: 6821 1d3c db1f 003a fc03 f4bc 48ac 203c
000001e0: e9da c23d 7d6c cdbc db6d b13c c1d4 263b
000001f0: cfd0 cf3c fc4a 073c e995 abbb 9268 973b
00000200: c29e a73c 11c5 a33a 198f 733c 81f3 613c
00000210: bd49 94bd 11f8 4dbc 105f 003c 1197 5b39
00000220: 7099 4cbc ead6 2abc 5ecf 85bc 2ca9 77bb
00000230: d16c 663b 768f 72bc 8416 c23b 6d49 27bd
00000240: 5c30 6bbb 0b80 8b3c b3c6 d6bc 4fc9 6ebc
00000250: a08f 79bc 865d 3fbc 3212 c0bc e2e2 d3bc
00000260: a698 b63b b124 1abc fca5 a63c 49e1 6a3b
00000270: 752c b8bb 3c48 303b f996 a3bb 45f1 b13c
00000280: 9a34 a33b e774 dbba ec06 babb 7eb5 22bc
00000290: 31b1 a43c 7bb6 d1bb 2bf4 9a3c f54c 0dbc
000002a0: 3e77 67bc 5c8c 8bbb 87d9 c63c e305 36bc
000002b0: 4be4 a93c 9325 1ebc 1c6e c03c a3e3 a1bb
000002c0: 104b fc3b 6502 0c3d 915e d03a 3f46 5c3d
000002d0: 8290 f63c 9d62 933c e6e8 983b 0807 883c
000002e0: c303 c9bc f623 88bc 4f42 8dbb 42d0 a73a
000002f0: 5439 fa3b 5f39 f43c 13fd 1fbd a42e e5bc
00000300: 5f9e 8ebc 2349 7bbc eecb bb3d a1dc d2bb
00000310: 70a9 dd3b 66ee 8f3c 7cd9 05bc 8788 8b3c
00000320: 080c ad3c 1e20 1d3d 74da 83bc d3a6 7d3c
00000330: 9aaf 8d3c 2551 50bd 5875 c7bc 4ec6 c0bc
00000340: 1484 35bd b20c 33bd c8d2 13bd 9715 9fb9
00000350: 6ad8 f4bc 4f79 d3bb 41c2 d93c 2c2b eb3c
00000360: c977 3b3b ecf6 80bc 0a3b 90bb 88f4 a3bc
00000370: 836f a33b 97fa e339 c81f c9bc dd6d 90bc
00000380: aadf e7bd 0d3d 6abc 0a6f 5e3c b4f4 a93c
00000390: 3e81 dc3c e8f1 f4bc 07dc 43bc 38e6 9e3b
000003a0: 2297 63bc 99b1 dc3b 4d1c 453c f7ef b5ba
000003b0: 5cf3 e43b 9051 893c 0b38 6e3c 50e1 6ebb
000003c0: 973d a1bc 1655 57bd ddf6 3bbb 4dae acbc
000003d0: 1891 bb3b 6c51 94bd 55d5 acbc 82e4 803c
000003e0: a0c7 b83c 0141 313d c0a0 f33b 07e5 763d
000003f0: cb80 983c cd1f 3ebc ed10 533b 3964 b23c

weight f4 [256, 4]
-0.11183316 -0.08680078 -0.16049175 -0.08486338 -0.13376838 0.11484392 -0.013886509 0.1067216
0.20852254 0.07552406 -0.035162676 -0.12267968 -0.0053608646 -0.04397227 -0.13038994 0.21420674
-0.0836894 0.12164312 -0.065744914 0.14051247 -0.041466344 -0.081888534 -0.21463345 0.011929053
0.16233744 0.048953403 0.13646328 -0.11477136 0.007831499 0.07490685 0.21925433 -0.0008202273
0.015055543 0.06539749 0.22023237 0.029641444 -0.17587374 -0.08429605 0.11315415 0.018980755
-0.14634809 0.038764685 -0.13872664 0.022366008 -0.17678608 -0.024856932 0.09993579 -0.049937334
-0.09030155 -0.07352468 -0.19656321 0.08142538 0.16414094 0.004774585 -0.04439385 0.11535627
-0.055063732 -0.06769976 -0.21314429 -0.036023434 -0.012412133 0.13004948 0.120194376 -0.15455164
-0.1650321 -0.038268678 -0.1303857 0.0046184612 -0.01181045 -0.08274233 -0.111742176 -0.20748442
0.07340833 -0.038780957 -0.004309376 0.20978913 -0.17179902 -0.008008041 0.13124593 -0.007217756
-0.010436844 -0.14475907 -0.13221538 0.14232282 -0.14483368 0.054910216 -0.013537466 -0.11682069
0.111836776 0.07969972 -0.15765756 0.048722427 -0.09592988 0.08608028 0.18072142 -0.0052768807
0.11862309 -0.08326795 0.1292148 0.041770656 -0.1840618 0.026530981 -0.04383096 0.03263419
0.20642908 0.05019927 0.003642419 -0.06296027 -0.009836472 0.1373507 -0.10166462 0.111778565
-0.09839978 -0.025518492 -0.19766319 -0.0074855355 0.06515651 -0.05368533 0.191585 -0.002854552
-0.13906288 -0.15213038 -0.12066489 -0.029431723 -0.18561402 0.013635006 0.08873053 -0.012465624
0.05695839 0.07954058 0.21254782 0.0057618394 -0.06288207 0.12977502 0.08921254 -0.12972812
0.0054928176 0.088871084 0.20375441 -0.068654336 0.16731827 -0.013276725 -0.067848064 0.09099079
-0.0156548 0.08350495 -0.14019427 0.15039091 0.05603332 0.1288674 0.1954842 -0.049908165
0.032256104 -0.09053224 0.03629462 0.21414821 0.18340746 -0.01658777 -0.09272083 0.00501284
-0.13896793 0.080377944 -0.1123091 0.04930606 0.0041211336 0.08040589 0.21365641 -0.03437567
0.17538011 0.059111435 -0.10193906 -0.16686492 -0.14812544 0.037408054 -0.0060197413 -0.126315
-0.04918147 0.16546442 0.104533896 -0.06889794 -0.06771695 0.033477575 0.19938715 0.11271758
-0.12999454 0.009886698 0.07262562 -0.15685987 -0.0039685294 0.012051324 -0.09813971 -0.23314887
-0.12135165 -0.06510927 -0.18265474 0.06928775 0.008880736 -0.033907782 -0.22308218 0.0064665624
0.117516875 0.014588296 -0.19400908 0.009508541 -0.12832397 -0.024762925 -0.17769165 0.0234202
-0.09276418 -0.10056976 -0.043307584 -0.17659606 -0.1360227 0.020592647 0.17397112 -0.021920968
0.17078695 -0.042630848 -0.0929915 0.03646613 0.1731735 0.033670973 -0.13418284 0.0005825983
-0.17191572 0.04309464 0.07834148 -0.04077307 0.15791173 0.011160846 -0.15837353 0.013703351
-0.020994961 -0.14289789 0.090527646 -0.11206146 -0.060070846 0.015331168 0.21821217 -0.0055370815
-0.10520856 0.0877438 -0.12535927 -0.0731128 -0.030358888 -0.16494209 0.0010899017 0.19289665
-0.0727969 -0.028175127 -0.1965218 -0.06977259 -0.12692384 0.030661605 0.048460394 0.22844854
00000000: c908 e5bd 9bc4 b1bd f357 24be dacc adbd
00000010: 94fa 08be 4a33 eb3d 3e84 63bc db90 da3d
00000020: ef86 553e 5cac 9a3d bd06 10bd 7c3f fbbd
00000030: 31aa afbb 441c 34bd f184 05be 0359 5b3e
00000040: 5965 abbd 0720 f93d 45a5 86bd 80e2 0f3e
00000050: 9dd8 29bd 2db5 a7bd dfc8 5bbe 1372 433c
00000060: c93b 263e 5d83 483d 08bd 0b3e 3f0d ebbd
00000070: b04f 003c c368 993d 3584 603e 8604 57ba
00000080: 86ab 763c 1fef 853d 9884 613e 9dd2 f23c
00000090: 3f18 34be 68a3 acbd 5dbd e73d 877d 9b3c
000000a0: 46dc 15be b8c7 1e3d 5b0e 0ebe eb38 b73c
000000b0: 6907 35be c4a0 cbbc 23ab cc3d 178b 4cbd
000000c0: 05f0 b8bd 1c94 96bd de47 49be 5ac2 a63d
000000d0: 9014 283e 1f74 9c3b 53d6 35bd e83f ec3d
000000e0: 828a 61bd 2ca6 8abd 7f42 5abe 4f8d 13bd
000000f0: 425c 4bbc b12b 053e 7828 f63d c942 1ebe
00000100: 2dfe 28be 9ebf 1cbd d483 05be 7656 973b
00000110: 9e80 41bc d074 a9bd 15d9 e4bd cc76 54be
00000120: 1b57 963d c8d8 1ebd aa35 8dbb f6d2 563e
00000130: 15ec 2fbe 2934 03bc 5565 063e ed82 ecbb
00000140: 4cff 2abc b93b 14be 7863 07be 13bd 113e
00000150: 484f 14be 89e9 603d 3fcc 5dbc b03f efbd
00000160: ae0a e53d 9b39 a33d fc70 21be 2b91 473d
00000170: e376 c4bd dc4a b03d 090f 393e afe9 acbb
00000180: aaf0 f23d 6388 aabd e250 043e b517 2b3d
00000190: b27a 3cbe 8057 d93c 1888 33bd 6eab 053d
000001a0: 2562 533e c09d 4d3d a6b5 6e3b 50f1 80bd
000001b0: 2729 21bc a9a5 0c3e 8a35 d0bd 29ec e43d
000001c0: d385 c9bd 280c d1bc 3868 4abe 3949 f5bb
000001d0: c770 853d 26e5 5bbd dc2e 443e 6f13 3bbb
000001e0: 8066 0ebe 11c8 1bbe 271f f7bd cc1a f1bc
000001f0: 9a11 3ebe 5c65 5f3c 5ab8 b53d 9e3c 4cbc
00000200: 334d 693d 2ce6 a23d 23a6 593e d0cd bc3b
00000210: 51c8 80bd bee3 043e 10b5 b63d 73d7 04be
00000220: 18fd b33b 0b02 b63d ffa4 503e a59a 8cbd
00000230: 7b55 2b3e 9f86 59bc edf3 8abd 6159 ba3d
00000240: 7f3e 80bc a504 ab3d 168f 0fbe 1300 1a3e
00000250: 3283 653d d1f5 033e 032d 483e 816c 4cbd
00000260: fa1e 043d f868 b9bd aba9 143d ab49 5b3e
00000270: 2acf 3b3e 13e3 87bc 6be4 bdbd c042 a43b
00000280: 9c4d 0ebe 319d a43d 5002 e6bd 27f5 493d
00000290: 930a 873b d8ab a43d bfc8 5a3e 81cd 0cbd
000002a0: d896 333e d51e 723d 6dc5 d0bd a3de 2abe
000002b0: 32ae 17be 3039 193d 4041 c5bb b858 01be
000002c0: 8272 49bd 816f 293e de15 d63d 5d1a 8dbd
000002d0: 2faf 8abd c81f 093d 252c 4c3e 79d8 e63d
000002e0: 4a1d 05be d1fb 213c bebc 943d e09f 20be
000002f0: 700a 82bb eb72 453c 79fd c8bd 94be 6ebe
00000300: 3787 f8bd 0258 85bd d809 3bbe bce6 8d3d
00000310: 8280 113c e3e2 0abd a86f 64be 75e5 d33b
00000320: b0ac f03d c003 6f3c 51aa 46be b6c9 1b3c
00000330: 5c67 03be 9edb cabc cdf4 35be b8db bf3c
00000340: 25fb bdbd 85f7 cdbd 4b63 31bd 99d5 34be
00000350: 8949 0bbe e9b1 a83c 7c25 323e 9a93 b3bc
00000360: c6e2 2e3e af9d 2ebd 5472 bebd 825d 153d
00000370: 6554 313e 93ea 093d 3a67 09be 83b9 183a
00000380: ad0a 30be 0184 303d 7f71 a03d aa01 27bd
00000390: 9db3 213e fbdb 363c ac2c 22be 0584 603c
000003a0: a0fd abbc d353 12be 8f66 b93d 7b80 e5bd
000003b0: d90c 76bd 942f 7b3c 0373 5f3e 6870 b5bb
000003c0: 9677 d7bd 05b3 b33d 2e5e 00be 2abc 95bd
000003d0: 34b3 f8bc 94e6 28be 08db 8e3a b386 453e
000003e0: 8b16 95bd 86cf e6bc 033d 49be efe4 8ebd
000003f0: 53f8 01be 0c2e fb3c 687e 463d 6aee 693e

bias f4 [256]
0.0024547705 -0.0035824117 -0.00094724726 -0.016784055 -0.008056902 -0.0071512447 0.0045921262 0.0073827202
0.00590385 0.009764258 -0.003742723 0.012193358 -0.007920521 -0.0148631185 -0.0044911387 0.012968502
2.971168e-05 0.008564352 -0.015501229 0.008671014 -0.011751433 0.0092718555 -0.014615576 0.007092934
0.004048392 0.0012363099 -0.0025080193 -0.01337903 -0.0045359186 0.008417612 0.003934154 0.0082163
0.005760643 0.010946158 0.010959251 -0.013275846 -0.0133188665 0.008209257 -0.009612575 -0.0075730267
-0.005031651 0.009242367 -0.00030181397 0.011175682 0.0062459125 0.0027861777 0.017503498 0.006921447
-0.0057975464 -0.008044685 -0.009304395 -0.0040452266 0.015080149 0.009293006 -0.009247417 -0.009071435
0.009229904 -0.0094396565 0.015635462 0.008415873 -0.0035544615 -0.0057885833 -0.003447896 -0.0033852586
0.0018406393 -0.009122315 0.008802658 -0.0021171009 0.012238499 0.004419861 0.0025338102 -0.005184963
0.00092487875 -0.008493977 -0.007959434 0.010722451 -0.0072652325 -0.006304733 -0.009039063 0.009294466
-0.0037486746 0.009747696 -0.009966549 0.008733275 0.0062041013 -0.0046043084 0.0061438624 -0.0074513787
0.008566747 -0.009301551 0.009411479 -0.0008397294 -0.0058441814 -0.003254156 -0.0028287198 -0.008888397
0.004170231 -0.007331328 -0.010985036 0.010207326 -0.007785623 -0.00440152 0.005400788 0.017894296
0.0031512664 0.004912128 0.00078429957 -0.005042232 0.00806627 -0.014142641 -0.010178079 0.016083628
-0.0054062954 -0.0029058093 -0.0020537225 -0.004531293 0.009696206 -0.010103829 -0.011479185 0.004182921
-0.0017546227 -0.007727343 -0.012968937 -0.0010338869 0.010541654 -0.0043823468 -0.008593262 -0.003316892
-0.008464213 -0.0132128745 0.0070268046 -0.0075779594 -0.014908775 -0.011939038 -0.009146263 -0.00745118
0.0015435012 0.0068664155 0.004271484 0.009684921 0.0013461448 0.006847446 -0.005094721 0.0061897845
0.010305055 0.0077965218 0.0052720467 -0.006752717 0.010906216 -0.0045105964 0.010855528 0.0022393898
-0.0038857744 -0.012272809 0.016133837 0.0023887053 -0.005513378 -0.015216167 0.0011761517 -0.00932524
-0.010341373 -0.009178168 0.009165045 -5.973397e-05 0.008393343 0.016459417 -0.018617969 0.009242121
0.00041194732 0.010364342 0.0041917185 -0.010762916 -8.285596e-05 -0.004589503 -0.0028965124 -0.0011744511
0.010883158 -0.002845958 0.01689317 -0.008051121 0.00020311149 -0.0032212802 0.0009194597 -0.007905785
-0.007917844 0.008554987 -0.012515171 0.009742188 0.007708881 -0.0020777632 -0.00014897852 0.008023071
-0.0021788776 -0.009278234 -0.010129773 0.01026766 -0.0016333528 0.008195038 0.0013843016 0.0044271615
0.012367264 0.0035626402 0.009057936 -0.008324274 -0.008583735 -0.0018812392 0.004554586 -0.01385635
-0.0018991568 -0.0046047415 0.0045921532 -0.015725272 -0.014890727 -0.012002117 -0.0035866655 0.0038783308
0.003395647 -0.0013873429 -0.0030037854 0.009588213 -0.009964966 -0.0036651823 -0.0049787047 -0.00047587676
-0.008276609 0.010450235 0.008054408 -0.0015268642 -0.00977726 0.011016884 0.0023383277 -0.0055865757
-0.010010666 -0.0076583023 0.016032984 0.009267561 0.0026947155 -0.0006947521 0.009251631 -0.009165075
-0.0074597765 -0.011089813 -0.009358704 0.00588484 -0.005246933 0.010101913 -0.0076193376 0.0054001827
0.0031259838 0.002645461 0.013988299 0.0021458948 -0.0057047317 0.01489662 -0.008406608 -0.009511433
00000000: 37e0 203b e5c6 6abb b050 78ba b77e 89bc
00000010: 1901 04bc fd54 eabb 8c79 963b bfea f13b
00000020: 1575 c13b 44fa 1f3c 7948 75bb a6c6 473c
00000030: 13c5 01bc 7084 73bc 672a 93bb d779 543c
00000040: 593d f937 7f51 0c3c def8 7dbc de10 0e3c
00000050: 1589 40bc fbe8 173c 2b76 6fbc d86b e83b
00000060: 60a8 843b ad0b a23a 955d 24bb b833 5bbc
00000070: 0ba2 94bb 06ea 093c 13ea 803b a99d 063c
00000080: c7c3 bc3b 8457 333c 6e8e 333c ef82 59bc
00000090: 6037 5abc 1f80 063c 107e 1dbc 2727 f8bb
000000a0: 8ce0 a4bb 4c6d 173c c93c 9eb9 351a 373c
000000b0: 83aa cc3b 4e98 363b 7f63 8f3c 4ecd e23b
000000c0: 58f9 bdbb dbcd 03bc 7671 18bc d28d 84bb
000000d0: bb12 773c b141 183c 7a82 17bc 5ba0 14bc
000000e0: 0639 173c caa8 1abc f115 803c bbe2 093c
000000f0: f8f1 68bb 28ae bdbb 19f6 61bb 37db 5dbb
00000100: 9b41 f13a c375 15bc 0639 103c 0fbf 0abb
00000110: fc83 483c 7bd4 903b 480e 263b 9fe6 a9bb
00000120: 9073 723a 522a 0bbc 4968 02bc 38ad 2f3c
00000130: 3011 eebb ef97 cebb 9418 14bc d147 183c
00000140: 53ac 75bb cdb4 1f3c bd4a 23bc 0316 0f3c
00000150: c64b cb3b bddf 96bb 7452 c93b b22a f4bb
00000160: 8b5b 0c3c 8865 18bc 9b32 1a3c 4921 5cba
00000170: 8c80 bfbb ae43 55bb 0b62 39bb a4a0 11bc
00000180: 6fa6 883b a33b f0bb 95fa 33bc a13c 273c
00000190: 8a1e ffbb a03a 90bb 18f9 b03b 0f97 923c
000001a0: 7a85 4e3b ebf5 a03b 7499 4d3a 4f39 a5bb
000001b0: 6328 043c 89b6 67bc f5c1 26bc d0c1 833c
000001c0: 4b27 b1bb 646f 3ebb bf97 06bb 3e7b 94bb
000001d0: d6dc 1e3c 888a 25bc 3113 3cbc e210 893b
000001e0: 5efb e5ba a735 fdbb aa7b 54bc 7d83 87ba
000001f0: e7b6 2c3c ca99 8fbb c1ca 0cbc 3760 59bb
00000200: 7cad 0abc d07a 58bc 1c41 e63b 8850 f8bb
00000210: ef43 74bc f49b 43bc 35da 15bc 0729 f4bb
00000220: 4e4f ca3a abff e03b cef7 8b3b 81ad 1e3c
00000230: 2071 b03a 8a60 e03b 9ef1 a6bb add3 ca3b
00000240: 89d6 283c f779 ff3b 22c1 ac3b e545 ddbb
00000250: fcaf 323c a0cd 93bb 62db 313c bac2 123b
00000260: 7aa8 7ebb e413 49bc 1c2b 843c d38b 1c3b
00000270: 91a9 b4bb 3b4d 79bc 1a29 9a3a e4c8 18bc
00000280: dd6e 29bc 0760 16bc fc28 163c dd8a 7ab8
00000290: 3b84 093c e6d5 863c b684 98bc 446c 173c
000002a0: a2fa d739 33cf 293c af5a 893b f156 30bc
000002b0: f4c2 adb8 8b63 96bb 6ad3 3dbb 0af0 99ba
000002c0: 464f 323c 4183 3abb 8c63 8a3c d9e8 03bc
000002d0: 53fa 5439 1d1c 53bb e507 713a 4487 01bc
000002e0: d8b9 01bc 372a 0c3c 6f0c 4dbc b39d 1f3c
000002f0: c89a fc3b 152b 08bb 1e37 1cb9 3373 033c
00000300: 80cb 0ebb bc03 18bc 59f7 25bc b039 283c
00000310: 3a16 d6ba 7b44 063c 7471 b53a b911 913b
00000320: 11a0 4a3c 2f7b 693b bd67 143c 8962 08bc
00000330: cba2 0cbc ea93 f6ba a33e 953b bf05 63bc
00000340: 21ed f8ba 5fe3 96bb c679 963b 49d2 80bc
00000350: 3cf8 73bc 87a4 44bc 430e 6bbb 982b 7e3b
00000360: 8189 5e3b 81d7 b5ba 28db 44bb e117 1d3c
00000370: 1944 23bc 8e33 70bb 6724 a3bb 197f f9b9
00000380: 9d9a 07bc 7637 2b3c a3f6 033c 1021 c8ba
00000390: cd30 20bc 2980 343c a13e 193b 980f b7bb
000003a0: c703 24bc 7ff2 fabb 9b57 833c f8d6 173c
000003b0: d399 303b 0620 36ba 2794 173c 1c29 16bc
000003c0: 2471 f4bb 0cb2 35bc 4055 19bc 9ed5 c03b
000003d0: 77ee abbb 7e82 253c a3ab f9bb 04f4 b03b
000003e0: 4edd 4c3b 785f 2d3b 2e2f 653c 24a2 0c3b
000003f0: c2ee babb f410 743c dfbb 09bc d7d5 1bbc

weight f4 [128, 512]
0.0015850423 -0.023075344 -0.09333098 -0.02116604 -0.012247185 -0.03369371 -0.1185643 0.02306853
0.04690945 0.014102807 -0.012937499 -0.060535267 0.020747572 -0.054265637 0.0217112 -0.02277914
-0.02662819 0.020192059 0.060143482 6.85749e-05 -0.015302291 0.005082652 -0.036484953 0.01004988
-0.009355785 0.039084923 -0.006718788 0.073223904 0.016678143 -0.002106277 0.01056516 0.0010735239
-0.009951085 -0.008788517 0.0080808215 -0.0031276154 -0.026478685 -0.03911661 -0.009131228 0.005009693
-0.007814688 -0.026860747 -0.011132751 0.04877058 0.01625906 0.031712305 -0.021885017 -0.024516445
0.027898397 -0.023621017 0.04436103 0.054725986 -0.05347306 0.01870332 -0.07074888 -0.042319592
0.037370846 -0.03884902 -0.023754353 -0.008604103 -0.024309143 -0.012467165 -0.012712469 -0.0029242982
0.022534464 0.018164033 0.04263343 -0.010768522 0.012484297 -0.018499864 0.016476193 0.006801475
0.038144775 -0.012169383 0.0009087987 -0.016272943 -0.012644906 -0.005658115 -0.0055885944 -0.011752126
0.025289696 -0.033520978 0.012925346 -0.0033801636 0.011622918 -0.06425249 0.029228268 0.04499212
0.06624562 -0.014216749 0.07581542 -0.027409974 -0.0026339944 -0.024721084 0.0035412668 -0.10603095
0.017639173 0.014663454 -0.0007936971 0.006393935 0.028807404 -0.0042072674 0.01022905 -0.057840277
0.02361924 0.011329472 -0.017278012 -0.041674305 -0.058832623 0.0016400482 0.014751264 -0.0068789055
-0.026692228 -0.004410993 0.004113132 -0.055666573 0.033673923 0.013159199 -0.05398524 0.02023616
-0.10695042 -0.043711398 0.020145774 -0.03667758 0.015087667 -0.008352481 0.124065936 -0.037845865
0.036199156 -0.09068843 -0.00393741 0.03325819 0.018567337 0.02445712 0.003720054 -0.002073695
-0.013432757 0.010060117 -0.030465359 -0.022542866 -0.0019483148 0.0095893005 0.0027813911 -0.008651862
-0.03380923 0.0063988315 -0.07201563 0.010082838 -0.083566256 0.052213505 0.09250925 -0.02635403
-0.0027506603 -0.02593824 0.042109773 0.020855496 0.010915125 -0.017409438 -0.015028304 0.00412579
0.017847534 0.0035653457 0.018737003 -0.0007164902 0.008536785 -0.0069148066 0.013488157 0.033162087
-0.037229054 -0.0653674 -0.025551263 0.00046805615 0.057522766 -0.008724015 0.054752033 0.015481829
0.018705726 0.019131202 0.009188484 -0.06656194 0.020986961 0.0008281774 -0.019466888 0.016232362
-0.0008503291 -0.06088719 -0.018676957 0.005247185 -0.016814804 0.010628135 0.00050801394 0.030939685
-0.004430488 -0.018915273 -0.06935752 0.00052682887 0.0037981977 0.03206623 0.045729432 0.04650422
0.012510278 -0.010295217 0.0034717985 0.047346335 0.032025374 0.018204367 -0.002665276 -0.011180235
-0.06660643 0.008699821 0.0115388995 0.056541923 -0.010297606 0.024828864 0.082247086 0.0036742287
-0.08072074 0.015343232 -0.013667364 0.010180862 -0.027457772 -0.018631354 0.008173202 0.0020606846
0.13378586 -0.04227016 -0.021413967 0.00033208414 0.026466887 -0.0049945344 -0.05956218 0.0075356634
-0.03545012 -0.024619393 0.006713391 0.029373936 0.057752945 -0.011874126 -0.040286608 -0.011961796
-0.009282335 -0.008499377 -0.007845194 -0.01651251 0.0139345145 0.0002718788 0.0075142086 0.037599184
0.009298962 -0.076538734 -0.020313984 -0.09789049 0.032694828 0.015640678 0.0028981224 0.024476133
00000000: 32c1 cf3a 8108 bdbc 5024 bfbd 6764 adbc
00000010: 6ba8 48bc 6a02 0abd d7d1 f2bd 37fa bc3c
00000020: 2024 403d 760f 673c cef7 53bc d4f3 77bd
00000030: d0f6 a93c a545 5ebd b0db b13c 529b babc
00000040: 5d23 dabc d169 a53c 0359 763d decf 8f38
00000050: 76b6 7abc 608c a63b 3f71 15bd 40a8 243c
00000060: 0249 19bc 8317 203d 4729 dcbb 6af6 953d
00000070: 9aa0 883c 7709 0abb 7e19 2d3c 7cb5 8c3a
00000080: e009 23bc b6fd 0fbc 6c65 043c aef8 4cbb
00000090: d4e9 d8bc bd38 20bd 259b 15bc 5a28 a43b
000000a0: 2d09 00bc 120b dcbc 2466 36bc a9c3 473d
000000b0: b831 853c c3e4 013d 3548 b3bc b6d6 c8bc
000000c0: 2e8b e43c dd80 c1bc e9b3 353d 5b28 603d
000000d0: 9106 5bbd b437 993c cae4 90bd 4f57 2dbd
000000e0: 2c12 193d 2620 1fbd 7d98 c2bc 39f8 0cbc
000000f0: f823 c7bc 1443 4cbc f647 50bc 95a5 3fbb
00000100: 329a b83c bdcc 943c 64a0 2e3d 746e 30bc
00000110: f08a 4c3c 078d 97bc 15f9 863c e8de de3b
00000120: b23d 1c3d 1762 47bc 733c 6e3a d64e 85bc
00000130: 942c 4fbc b567 b9bb 8720 b7bb fd8b 40bc
00000140: 562c cf3c 4b4d 09bd d5c4 533c bc85 5dbb
00000150: 0d6e 3e3c cf96 83bd 1f70 ef3c a849 383d
00000160: c9ab 873d 5eed 68bc 1d45 9b3d e28a e0bc
00000170: 189f 2cbb df83 cabc 9914 683b c126 d9bd
00000180: 0780 903c fc3e 703c 1c10 50ba 3784 d13b
00000190: 81fd eb3c 1edd 89bb bf97 273c ede9 6cbd
000001a0: 237d c13c 409f 393c 9e8a 8dbc adb2 2abd
000001b0: 7afa 70bd e3f6 d63a 49af 713c 7168 e1bb
000001c0: a9a9 dabc 178a 90bb 74c7 863b a202 64bd
000001d0: abed 093d ae99 573c a11f 5dbd 4ec6 a53c
000001e0: d208 dbbd b90a 33bd c008 a53c 3b3b 16bd
000001f0: 4332 773c d8d8 08bc 4816 fe3d 4404 1bbd
00000200: 9145 143d dbba b9bd 6405 81bb bd39 083d
00000210: 871a 983c 4c5a c83c 26cc 733b d4e6 07bb
00000220: 1115 5cbc 30d3 243c 7d92 f9bc d1ab b8bc
00000230: 995e ffba 711c 1d3c 0048 363b 8ac0 0dbc
00000240: 8c7b 0abd 4aad d13b ee7c 93bd 7d32 253c
00000250: c924 abbd d4dd 553d 7d75 bd3d 68e4 d7bc
00000260: 6c44 34bb 6f7c d4bc 4c7b 2c3d 25d9 aa3c
00000270: 5ad5 323c 3d9e 8ebc 4739 76bc a331 873b
00000280: fe34 923c 93a8 693b 587e 993c d8d2 3bba
00000290: dfdd 0b3c 9a95 e2bb 6efd 5c3c f8d4 073d
000002a0: 7e7d 18bd 58df 85bd e250 d1bc 6f65 f539
000002b0: fe9c 6b3d 2cef 0ebc ab43 603d 7fa7 7d3c
000002c0: c03c 993c 0ab9 9c3c 4c8b 163c a051 88bd
000002d0: d9ec ab3c 0b1a 593a 0679 9fbc bbf9 843c
000002e0: 9fe8 5eba d964 79bd 6b00 99bc 94f0 ab3b
000002f0: 33bf 89bc a121 2e3c 3d2c 053a 3975 fd3c
00000300: a12d 91bb 34f4 9abc 510b 8ebd e31a 0a3a
00000310: 2feb 783b e157 033d c94e 3b3d 367b 3e3d
00000320: e9f7 4c3c 45ad 28bc 1d87 633b 3bee 413d
00000330: 0a2d 033d 5321 953c e9ab 2ebb 4e2d 37bc
00000340: f468 88bd b289 0e3c a70d 3d3c 8198 673d
00000350: 4ab7 28bc e765 cb3c 2971 a83d 54cb 703b
00000360: ea50 a5bd 2e62 7b3c 14ed 5fbc a1cd 263c
00000370: 1fef e0bc c8a0 98bc e5e8 053c 8d0c 073b
00000380: 29ff 083e 7a23 2dbd 586c afbc 941b ae39
00000390: 16d1 d83c 31a9 a3bb 79f7 73bd baed f63b
000003a0: 2534 11bd 9cae c9bc 01fc db3b 9ca1 f03c
000003b0: 5a8e 6c3d b28b 42bc 9203 25bd 69fb 43bc
000003c0: ef14 18bc f940 0bbc 2189 00bc 3e45 87bc
000003d0: 974d 643c f48a 8e39 c039 f63b 9a01 1a3d
000003e0: ac5a 183c 57c0 9cbd 8369 a6bc cf7a c8bd
000003f0: 03eb 053d e120 803c 6dee 3d3b 2c82 c83c

bias f4 [128]
-0.03438023 -0.004922379 0.041669644 -0.021456897 -0.0039891168 -0.008875347 -0.012410082 0.08471942
-0.035489183 0.044392 0.0015975474 0.024510931 -0.0335875 0.058808696 -0.08644863 -0.05246566
-0.07303409 0.043294117 -0.044506192 0.027661325 0.021294009 0.02047857 -0.0024000423 -0.023382738
0.032783132 0.020051062 0.050533 -0.011307357 -0.10911214 -0.009972221 -0.031402506 -0.086780734
-0.07211704 -0.025299365 0.017330134 -0.017521357 0.027904937 -0.03440839 0.05390054 -0.022380633
0.079674155 0.026530642 -0.02566851 0.027933972 0.017032038 0.08299259 -0.05273764 0.026121952
0.021336703 0.010214577 -0.012619533 -0.10127344 -0.008091638 -0.023284217 -0.033993743 -0.107093364
0.012511479 0.029283425 0.047204398 -0.0020306702 -0.005261347 0.028252315 -0.07466089 -0.01691553
0.03800619 0.059007604 0.06695269 -0.009962832 -0.017093897 -0.014785635 -0.017540585 0.06529361
-0.0090378225 0.038461894 0.00634435 0.02532278 -0.03986361 0.002464149 0.017703433 -0.019889992
0.056030363 -0.023930967 0.025772484 -0.045574546 -0.024679106 -0.014659976 0.040225983 -0.0042630946
-0.005638732 -0.053405467 -0.012537855 -0.0013303293 -0.0033364699 -0.020085765 -0.0053585116 -0.02808077
0.018298654 -0.057009373 0.003107949 0.02434848 0.0043233344 -0.000931086 -0.024322018 0.02510382
-0.03433993 -0.010286453 0.0027816335 -0.0008142492 -0.013822642 0.043615848 0.011030094 0.038829397
0.054578893 0.002266274 -0.029456515 -0.022741418 0.03385669 -0.048752952 0.04162126 -0.013089208
-0.04174669 -0.026067048 -0.018618364 -0.01384376 -0.036295533 -0.03199845 0.0017170435 -0.00041809358
00000000: 49d2 0cbd e84b a1bb caad 2a3d 60c6 afbc
00000010: 23b7 82bb e769 11bc a853 4bbc 6081 ad3d
00000020: 1b5d 11bd 63d4 353d cc64 d13a 26cb c83c
00000030: 0c93 09bd 63e1 703d fb0b b1bd 3be6 56bd
00000040: e692 95bd 2c55 313d 204c 36bd 019a e23c
00000050: c670 ae3c adc2 a73c 074a 1dbb 288d bfbc
00000060: 9b47 063d 2042 a43c b1fb 4e3d 7e42 39bc
00000070: 3076 dfbd 8762 23bc ea9f 00bd 19ba b1bd
00000080: 19b2 93bd 9d40 cfbc edf7 8d3c f388 8fbc
00000090: e598 e43c d0ef 0cbd d0c6 5c3d 9757 b7bc
000000a0: 342c a33d ca56 d93c c446 d2bc c9d5 e43c
000000b0: c686 8b3c 05f8 a93d 6c03 58bd b4fd d53c
000000c0: 4fca ae3c 0b5b 273c 28c2 4ebc 7368 cfbd
000000d0: ca92 04bc 8bbe bebc 063d 0bbd c453 dbbd
000000e0: f2fc 4c3c cbe3 ef3c 6659 413d fe14 05bb
000000f0: 6167 acbb 6671 e73c cfe7 98bd 7092 8abc
00000100: 61ac 1b3d f5b1 713d 7e1e 893d 253b 23bc
00000110: 8008 8cbc 733f 72bc 46b1 8fbc a8b8 853d
00000120: 6013 14bc 388a 1d3d 44e4 cf3b b871 cf3c
00000130: 0648 23bd 8f7d 213b ca06 913c 56f0 a2bc
00000140: 1880 653d e00a c4bc d120 d33c 60ac 3abd
00000150: d62b cabc 6530 70bc 00c4 243d 6eb1 8bbb
00000160: 1dc5 b8bb b1bf 5abd 936b 4dbc 725e aeba
00000170: ada8 5abb e78a a4bc 7496 afbb a509 e6bc
00000180: 0fe7 953c a982 69bd bbae 4b3b 7776 c73c
00000190: c2aa 8d3b 2014 74ba f83e c7bc 87a6 cd3c
000001a0: 07a8 0cbd 8388 28bc 114c 363b 5773 55ba
000001b0: 5d78 62bc 88a6 323d 91b7 343c 930b 1f3d
000001c0: 1e8e 5f3d c585 143b ca4e f1bc 364c babc
000001d0: 50ad 0a3d 2db1 47bd 0e7b 2a3d 1e74 56bc
000001e0: 94fe 2abd 908a d5bc 8a85 98bc f0d0 62bc
000001f0: a0aa 14bd cf10 03bd 6b0e e13a 9233 dbb9

weight f4 [64, 128]
0.16727322 -0.094237335 -0.08675622 0.14270449 0.07836677 0.091968425 0.044848226 -0.12549435
0.08879071 -0.0044775903 -0.043666806 -0.19873449 0.10492004 0.08244983 0.11587447 0.08772285
0.111333154 -0.04061298 0.14141025 -0.094769254 -0.073697425 -0.08982877 0.0065800375 0.04189497
-0.030026592 0.042085625 0.0057312315 0.15867785 0.17511238 -0.042867366 -0.13642788 0.14839822
0.096972235 0.064370506 -0.02223903 0.12737125 -0.025364602 -0.042877037 -0.13012677 0.046115387
-0.038909223 -0.005802799 0.08899113 -0.036975604 0.015030922 -0.018846951 0.09362638 0.006487053
-0.031431876 -0.06639597 0.06426977 0.07019109 -0.13698798 0.070002854 0.0522888 0.047693733
-0.059398398 0.009851433 -0.024702778 0.14103377 -0.026011104 -0.05308196 0.23821332 0.06883317
-0.11056058 -0.14961165 -0.0759145 0.003486392 0.069050364 0.23742557 -0.0074867816 -0.11758871
-0.07468251 -0.090280645 -0.14728114 -0.04930312 0.048688747 0.123766884 -0.08697273 0.015308153
-0.04907227 0.11734543 -0.13025083 -0.007738713 0.0784022 0.04052381 -0.10224802 0.05358371
-0.046535723 -0.045678705 0.08239238 -0.109443486 -0.039908536 -0.0043340456 -0.14901848 -0.01589883
-0.0040866914 0.2617224 -0.017329827 0.019738479 0.10033711 0.083176285 0.11851677 -0.11875603
0.0517631 -0.04259671 0.16551602 -0.06352556 -0.032765906 -0.09790741 -0.037878882 -0.03156497
0.0316824 -0.11724049 0.08775969 0.09924656 -0.10839051 0.02507947 -0.070199564 0.13505904
0.020761523 -0.12004553 0.03727813 0.14990892 0.019931262 0.11130698 0.063569695 0.032901622
0.0001647402 -0.003885434 9.244139e-05 0.0012820814 0.0024410225 -0.0021719895 0.0027214806 0.0005384249
-0.0045471448 -0.0016054444 0.00057288195 0.0035811698 -0.002080521 0.0019501124 0.00040904587 -0.00016482
0.00041637657 0.0022083814 -0.000613691 -0.00091508223 -0.0017461135 0.001544401 -0.0004937792 -0.0013116644
-0.0004888933 -0.0037812213 -0.0011771743 0.0003363781 0.0005969734 -0.0021881657 -0.0016811576 -0.0023444605
-0.00066371344 -0.0016338944 -0.005348684 0.0027314431 -0.003219273 -0.0039551663 -0.0015160925 0.00029737953
0.0015298411 -0.0019653044 0.0018081698 0.0016854843 -0.002270625 -0.0021221568 -0.0012759556 0.00031119763
-0.00026560493 -0.0019081815 -0.0010548726 -7.940265e-05 0.001270185 -0.0012342344 -0.00027795602 -0.0010351308
0.0011043409 -0.0023179436 0.0011339693 0.00031609484 0.00084248715 -0.0010671688 -0.003799596 7.6142416e-05
-0.00084562553 0.0010350914 0.000814088 -0.00077037397 -0.0019758665 -0.0015277723 0.0029991393 -0.00033354995
0.00056903355 -0.00235428 -0.00055288983 0.000101990896 0.0003910747 -0.0024287668 0.0012348918 0.00060470315
-0.0016507112 0.0015111287 -0.0005861889 0.0015508087 0.0014233084 0.002222835 -0.0012372746 -0.0008632254
-0.00035848748 -0.0027807967 0.0031664541 0.0010395899 -0.0013953251 0.0033193224 -0.00042374356 -0.000656422
-0.00048561097 0.0017859413 0.00067911745 -0.0011260709 -0.0017026537 0.0022791 -0.0011963341 0.0050288374
0.0018856082 0.0013404662 -0.0025730506 -0.0010656402 0.001070876 0.00023329847 -0.00083493284 0.00361349
0.00031595427 0.0015468395 -0.0005553955 4.093543e-05 -0.005375314 -0.0022036498 -0.0017539458 -0.0008886495
0.00074760464 -0.0029596812 -0.0016393168 0.00028109242 -0.00073558564 0.00059814274 0.0021968002 0.0014800839
00000000: ac49 2b3e 81ff c0bd 3fad b1bd 2021 123e
00000010: c27e a03d f159 bc3d c6b2 373d 9781 00be
00000020: e7d7 b53d c0b8 92bb f7db 32bd 0e81 4bbe
00000030: 51e0 d63d 75db a83d 984f ed3d 0aa8 b33d
00000040: a302 e43d cc59 26bd d9cd 103e 6216 c2bd
00000050: adee 96bd 25f8 b7bd 5b9d d73b 0f9a 2b3d
00000060: 54fa f5bc fa61 2c3d 0ecd bb3b 727c 223e
00000070: a950 333e b195 2fbd c0b3 0bbe b4f5 173e
00000080: 6199 c63d afd4 833d a02e b6bc 9c6d 023e
00000090: 6dc9 cfbc d59f 2fbd f43f 05be 7de3 3c3d
000000a0: 475f 1fbd 6825 bebb fb40 b63d bb73 17bd
000000b0: 4244 763c ec64 9abc 30bf bf3d 5891 d43b
000000c0: b6be 00bd 9cfa 87bd df9f 833d 59c0 8f3d
000000d0: 9446 0cbe a85d 8f3d c82c 563d 815a 433d
000000e0: bc4b 73bd e867 213c 7b5d cabc 286b 103e
000000f0: 3d15 d5bc 786c 59bd 31ee 733e 68f8 8c3d
00000100: 966d e2bd cc33 19be 1079 9bbd f47b 643b
00000110: 476a 8d3d b01f 733e ad53 f5bb 59d2 f0bd
00000120: 25f3 98bd 0fe5 b8bd ded0 16be 11f2 49bd
00000130: da6d 473d 7e79 fd3d c21e b2bd 0ccf 7a3c
00000140: 0100 49bd cd52 f03d 7960 05be 0895 fdbb
00000150: 5591 a03d 4bfc 253d 6967 d1bd 987a 5b3d
00000160: 3e9c 3ebd 9819 3bbd 56bd a83d e823 e0bd
00000170: 2277 23bd 9c04 8ebb 4d98 18be 433e 82bc
00000180: a7e9 85bb 7a00 863e 48f7 8dbc 97b2 a13c
00000190: 8b7d cd3d 5458 aa3d ecb8 f23d 5d36 f3bd
000001a0: 8b05 543d e379 2ebd 087d 293e b019 82bd
000001b0: 8b35 06bd ae83 c8bd e326 1bbd 454a 01bd
000001c0: 67c5 013d c81b f0bd 5abb b33d c841 cb3d
000001d0: d8fb ddbd 7673 cd3c cac4 8fbd eb4c 0a3e
000001e0: 1214 aa3c 6eda f5bd f4b0 183d b981 193e
000001f0: e346 a33c eaf4 e33d d430 823d dac3 063d
00000200: 1cbe 2c39 c4a2 7ebb 18dd c138 830b a83a
00000210: 90f9 1f3b f057 0ebb de5a 323b 1525 0d3a
00000220: 3700 95bb c66d d2ba 752d 163a 0fb2 6a3b
00000230: 5a59 08bb ea9a ff3a 3575 d639 88d3 2cb9
00000240: 1e4d da39 7eba 103b 1be0 20ba 21e2 6fba
00000250: d9dd e4ba 806d ca3a f670 01ba 27ec abba
00000260: 1329 00ba 5ece 77bb 6a4b 9aba e85b b039
00000270: 357e 1c3a 5467 0fbb 4a5a dcba 85a5 19bb
00000280: 0efd 2dba 6628 d6ba 0344 afbb 0302 333b
00000290: 70fa 52bb 579a 81bb 9fb7 c6ba 9be9 9b39
000002a0: f384 c83a 56cc 00bb 1c00 ed3a 78eb dc3a
000002b0: c4ce 14bb e213 0bbb f73d a7ba 3d28 a339
000002c0: e440 8bb9 f21b faba a743 8aba f984 a6b8
000002d0: 567c a63a 09c6 a1ba a0ba 91b9 3aad 87ba
000002e0: 88bf 903a a4e8 17bb b2a1 943a 88b9 a539
000002f0: 5bda 5c3a 3ee0 8bba a502 79bb a6ae 9f38
00000300: f8ac 5dba e7ab 873a 8568 553a ecf2 49ba
00000310: 8a7d 01bb 883f c8ba 358d 443b 51e0 aeb9
00000320: 322b 153a 444a 1abb cfef 10ba f2e3 d538
00000330: 2809 cd39 f22b 1fbb 18dc a13a f184 1e3a
00000340: ad5c d8ba 1111 c63a 79aa 19ba 8144 cb3a
00000350: 4e8e ba3a fcac 113b 0c2c a2ba 134a 62ba
00000360: 60f3 bbb9 073e 36bb 4984 4f3b d942 883a
00000370: 57e3 b6ba fd88 593b e629 deb9 bc13 2cba
00000380: 9a99 feb9 3f16 ea3a cd06 323a ab98 93ba
00000390: 942b dfba f45c 153b 50ce 9cba f2c8 a43b
000003a0: 8326 f73a 95b2 af3a a0a0 28bb f4ac 8bba
000003b0: a35c 8c3a 95a1 7439 65df 5aba 4dd0 6c3b
000003c0: aaa6 a539 52bf ca3a f697 11ba 15b2 2b38
000003d0: 6723 b0bb 1c6b 10bb a8e4 e5ba 42f4 68ba
000003e0: e6fa 433a 36f7 41bb 58de d6ba 965f 9339
000003f0: 51d4 40ba aecc 1c3a 31f8 0f3b 60ff c13a

bias f4 [64]
-0.107339956 0.0005138131 -0.022678157 0.00032989334 -0.00017050399 -0.04472097 -0.0032664088 -0.0013264732
-0.01039294 0.00075751136 0.00032567725 -0.072891094 -0.024671974 -0.017702384 0.00020923531 0.0002622415
-0.09080431 -0.0073152613 -0.10429947 0.0001404891 0.0004670513 -4.4347926e-06 0.0006871308 -0.00014925342
2.4582583e-05 -0.018171724 -3.9423518e-05 -0.20648754 0.0002109633 -0.054775096 -0.014151992 -0.1101671
0.00034370457 0.00040050747 -0.026964843 0.00011416843 -0.00074627274 -0.023456171 0.0041584973 0.028309537
0.021696502 0.0160075 0.00668479 -0.0006335999 -0.024628319 -0.00020658187 0.00013061501 -0.086273246
-0.00031417012 -0.0590955 -0.010138302 0.024471723 -0.0043639247 -0.08520763 -0.074885674 0.00022664269
0.0009499935 -0.022306317 0.019978046 0.010490513 6.207226e-05 0.00038021253 0.0009567482 -0.12577726
00000000: 0dd5 dbbd 6ab1 063a 8bc7 b9bc 89f5 ac39
00000010: 51c9 32b9 562d 37bd 3f11 56bb 0edd adba
00000020: 2647 2abc ba93 463a a9bf aa39 ed47 95bd
00000030: e11c cabc 9704 91bc 2d66 5b39 757d 8939
00000040: 9cf7 b9bd dcb4 efbb f69a d5bd 4150 1339
00000050: 90de f439 94ce 94b6 9120 343a e980 1cb9
00000060: b236 ce37 dedc 94bc ae5a 25b8 7871 53be
00000070: 0836 5d39 da5b 60bd c2dd 67bc 4a9f e1bd
00000080: 3f33 b439 34fb d139 60e5 dcbc b66d ef38
00000090: 84a1 43ba 2827 c0bc 0144 883b 67e9 e73c
000000a0: ddbc b13c 2922 833c 150c db3b 2b18 26ba
000000b0: 54c1 c9bc e69d 58b9 b3f5 0839 07b0 b0bd
000000c0: 33b7 a4b9 1f0e 72bd 1f1b 26bc ec78 c83c
000000d0: 41ff 8ebb 5781 aebd a95d 99bd efa6 6d39
000000e0: fc08 793a bdbb b6bc 00a9 a33c 67e0 2b3c
000000f0: ca2c 8238 4357 c739 49ce 7a3a c1cb 00be

weight f4 [1, 64]
0.20400701 -0.00010410745 -0.04600541 9.438926e-05 -0.00016672377 0.36199626 0.24958393 -0.14354026
0.031740468 -3.3061264e-05 -0.00018724248 -0.37234807 -0.19607288 -0.014017735 4.0388055e-05 6.21795e-05
-0.025836641 0.09242592 -0.28449368 4.8559472e-05 0.00010912765 0.0001591548 -2.3414657e-05 0.00020842916
0.26304412 -0.015436368 -0.00026303323 -0.30508214 0.00035235373 -0.035776652 -0.013160793 -0.1797068
-0.0001548584 0.00016470136 -0.046477877 -0.0003387094 -0.000149101 0.1274182 0.1304293 0.090512365
-0.10289454 0.058324337 -0.07141284 0.082801804 0.13005286 4.8519134e-05 -0.00017014891 -0.18424286
6.552336e-05 -0.27201134 0.04751156 0.052403077 -0.18401906 -0.2110964 -0.105902776 1.108343e-06
9.9812496e-05 0.0656075 0.054878492 -0.15668061 0.00035883606 -0.00010036891 0.00016612039 -0.26370084
00000000: 37e7 503e 4354 dab8 2b70 3cbd d9f2 c538
00000010: 92d2 2eb9 9357 b93e ee92 7f3e 38fc 12be
00000020: 4b02 023d 43ab 0ab8 8556 44b9 68a4 bebe
00000030: 54c7 48be a4aa 65bc 5866 2938 5d66 8238
00000040: 5da7 d3bc cd49 bd3d 28a9 91be 56ac 4b38
00000050: 76db e438 cbe2 2639 986a c4b7 c78d 5a39
00000060: b8ad 863e d2e8 7cbc b9e7 89b9 ba33 9cbe
00000070: 1ebc b839 8a8a 12bd 5ea0 57bc 0f05 38be
00000080: 7c61 22b9 afb3 2c39 965f 3ebd ce94 b1b9
00000090: ff57 1cb9 eb79 023e 428f 053e 8c5e b93d
000000a0: 5fba d2bd 80e5 6e3d e540 92bd fe93 a93d
000000b0: 942c 053e 0681 4b38 006a 32b9 29aa 3cbe
000000c0: 9669 8938 1245 8bbe 7b9b 423d 9ca4 563d
000000d0: 7e6f 3cbe a829 58be 8ee3 d8bd 60c2 9435
000000e0: 6d52 d138 3a5d 863d 45c8 603d e270 20be
000000f0: 2922 bc39 267d d2b8 9a30 2e39 cc03 87be
