agent_checkpoints_0/critic_target.pth (torch_old, 361868 bytes, 9 tensors)

weight f4 [256, 48]
000000 f3 77 33 3d a2 77 92 3d 6d 49 54 bd 2f 30 2f 3c
       0.043815564 0.071517244 -0.051827837 0.01069264
000010 73 66 01 3e 7a 04 a2 bc d1 3a c9 3c 42 c5 4f 3c
       0.12636738 -0.019777525 0.024564179 0.012681307
000020 82 67 09 3c 31 fa 5d 3d a2 dd a9 3c 65 a7 aa bb
       0.008386495 0.05419368 0.020735566 -0.0052079433
000030 3a 34 22 3d c2 ee 99 3c 07 95 09 bc 37 7f bf bb
       0.03960059 0.018790606 -0.008397347 -0.0058440226
000040 e4 4a ad 3c b6 c3 68 3d d8 cb 3b 3d a3 be 4a 3d
       0.021153875 0.05682727 0.045848697 0.04949821
000050 5b 28 0e be fc c0 08 3e a3 31 97 bc 5f 60 4c 3d
       -0.13882582 0.13354868 -0.018456286 0.049896594
000060 53 49 ac ba 63 f3 2e 3d 01 c2 47 bb db ba 12 bd
       -0.0013144411 0.04271258 -0.0030480626 -0.03582273
000070 c1 a6 e8 bd 8b 12 a4 bc f3 41 89 bc 8c 1d 1a bd
       -0.11359931 -0.020028373 -0.01675508 -0.037625834
000080 ab a0 6c bc 07 db 74 3d fd ee 6e 3d 06 e7 76 3d
       -0.014442603 0.059779193 0.058333386 0.060278915
000090 a2 23 38 bd 4d b2 9b 3c ea 3f 6b bd 49 72 78 3d
       -0.044955857 0.019005919 -0.057434 0.060655866
0000a0 fa 33 b2 bc d2 8d 88 3d fc c2 fc bb 21 3a 7e bd
       -0.0217533 0.06667675 -0.0077136736 -0.062067155
0000b0 fc 54 0a 3e c7 f1 08 3e 4d a7 4d 3c 6b 24 80 bd
       0.13508981 0.1337348 0.012552095 -0.06256946
0000c0 71 3f 90 bb 7c e8 e7 3d 88 0b 8e 3c a0 20 6d 3c
       -0.004402094 0.1132364 0.017339483 0.01447311
0000d0 33 17 d6 bd 6b bb 0c bd 1c 31 f0 bc 58 51 6c 3c
       -0.10453644 -0.034358423 -0.029320292 0.014423691
0000e0 5b 84 98 3c 1c c8 d4 3d 6d 44 22 bd a1 35 af 3b
       0.0186178 0.1038973 -0.039616037 0.0053469692
0000f0 d3 18 f8 bc b2 91 2c 3d 70 b6 e0 3b ee ab b3 3b
       -0.030285275 0.042131133 0.0068576857 0.005483142
000100 f7 df 2b 3d 2c 3b eb 3d 76 18 48 bd 45 92 5d 3d
       0.041961636 0.114858955 -0.048851453 0.05409457
000110 15 42 cf 3d 77 36 21 3e e1 e6 30 3d 3c 6f 61 3d
       0.10120026 0.15743433 0.043188933 0.055037722
000120 ca b4 7a bd c0 7a 29 3d 16 ec ef bc 11 95 16 3d
       -0.06120757 0.04137683 -0.02928738 0.036763255
000130 21 10 d6 3d e6 f7 09 bd 4f 41 58 3d 78 17 13 3d
       0.10452295 -0.03368368 0.052796658 0.035911053
000140 cc 38 b1 bc e4 e2 97 3d 76 27 fd 3a 3a c3 c9 3d
       -0.021633528 0.07416323 0.0019314128 0.0985169
000150 63 42 fd 3c 32 93 28 3d 63 08 04 3c f3 24 c9 3d
       0.030915445 0.041156 0.00805864 0.09821501
000160 ed b3 9a 3c 5d a9 b9 3d 53 ff 19 3d 97 a4 8e 3b
       0.018884623 0.090655066 0.03759701 0.0043531167
000170 6e 88 cc bd e7 cc 20 3e 73 01 3e bc 02 3a 6e 3b
       -0.099869594 0.15703164 -0.011597025 0.0036350493
000180 c7 4b 94 3c b6 ec 3e bd 14 e0 1a 3d f5 7b ca 3c
       0.01810254 -0.046612464 0.037811354 0.02471731
000190 98 a0 ee bc 32 1e 75 bd a3 69 3e bd be 5e 0e bc
       -0.029129311 -0.05984325 -0.04648746 -0.0086895805
0001a0 90 e3 0d 3d 4b c9 75 bd 46 35 36 3d 82 7a db 3b
       0.03464085 -0.06000642 0.0444844 0.0066979537
0001b0 0c cf 7a bd 53 a9 03 3e d9 5a 07 bd af 4b c2 3c
       -0.06123261 0.12857561 -0.033045623 0.02371773
0001c0 cd 0e 8c 3d e5 86 58 bd e0 d5 ac bd 9a dd 1a bd
       0.068387605 -0.05286302 -0.08439231 -0.037808992
0001d0 9d 45 36 3e 02 9c e2 3e da 55 35 3d 23 ca 0a bc
       0.17799993 0.4425965 0.044271328 -0.008471045
0001e0 68 41 e7 3c 89 41 43 be 4b c3 d1 bb a3 45 09 3d
       0.02822943 -0.19067968 -0.0064014546 0.033513676
0001f0 b3 aa ba 3d d6 3f 34 bd dc 12 a7 3b 98 bb d5 3c
       0.091145895 -0.04400619 0.0050986838 0.026090428
000200 f0 74 92 3d 52 29 2c be 99 ae 6f 3d ac e2 c6 ba
       0.0715121 -0.16812637 0.05851612 -0.0015173755
000210 97 62 bb 3c 74 bd 0a 3e 36 11 a3 bd c0 f7 85 3c
       0.02287416 0.13548833 -0.07962267 0.016353488
000220 e5 44 70 3d 05 61 33 be 93 11 aa bd d3 cf c2 bc
       0.058659453 -0.17517479 -0.08304133 -0.023780739
000230 89 82 33 be ca 75 e9 3e 6c 09 b3 3d 8e 32 1d bd
       -0.17530264 0.45597678 0.087420315 -0.03837829
000240 06 cd 9d bc 0c e2 9b bd 7e 53 7e 3c 45 c7 07 bd
       -0.019262802 -0.076114744 0.015522836 -0.033149023
000250 08 40 bf 3d 84 9b 80 3c 9e df 9f 3a 15 3b 07 bd
       0.09338385 0.015699156 0.001219738 -0.03301533
000260 36 d6 f7 bc 4c d5 b5 bd 08 ad 95 3b 5f 09 19 bc
       -0.03025351 -0.08878574 0.004567746 -0.009340613
000270 1f 70 93 3c e3 de 0c 3c c5 e3 0a 3b e8 ad 19 bc
       0.0179978 0.008598062 0.002119289 -0.009379841
000280 e7 4d 41 bd df 74 c6 bd f6 6b 02 bb 61 63 a6 bd
       -0.047193434 -0.0969026 -0.0019900776 -0.08124424
000290 d3 7c 88 bd 61 49 33 bc 5d 6f 76 bb f2 ee a5 bd
       -0.06664433 -0.010942788 -0.0037602999 -0.08102216
0002a0 20 6a e9 b9 78 d6 b8 3c 23 b6 89 3a e1 50 39 3c
       -0.00044520292 0.022563204 0.0010506551 0.011310787
0002b0 68 30 b7 bd e2 e1 80 3c 26 f1 c5 bc 21 31 3b 3c
       -0.0894478 0.01573271 -0.02416284 0.011425287
0002c0 a5 a1 90 3c af e0 89 bc e8 0a e4 3b 66 2e d3 bd
       0.017655203 -0.01683077 0.006959308 -0.10311584
0002d0 27 f3 a3 bc 01 0e 0d 3c e3 7b 11 3c 77 5f d3 bd
       -0.020013405 0.008609296 0.008879635 -0.10320943
0002e0 82 eb 2d 3d 09 66 7c bb 20 a7 bc bb f4 6e 8f 3d
       0.042460926 -0.0038512966 -0.0057572275 0.070035845
0002f0 19 5c 95 3d c4 bc 33 bc d2 f7 fb bc f6 5c 8f 3d
       0.07292957 -0.010970298 -0.030757818 0.07000153
000300 c6 43 40 3d eb 66 a3 bc 8c 4d 2f bb a2 5b 47 3d
       0.046939634 -0.019946536 -0.0026749102 0.048671372
000310 84 c7 8d 3d 70 3f a6 bb c5 30 c6 3c 39 41 47 3d
       0.0692282 -0.0050734803 0.024193177 0.048646186
000320 0f de 16 3d 0a 12 15 bd e6 77 9b bb 7a ff 26 bd
       0.036832865 -0.036394157 -0.0047445176 -0.040770985
000330 83 a3 a1 3c a7 9a b2 bc 9f 7b b6 bc a6 ff 26 bd
       0.019731289 -0.02180226 -0.022275744 -0.04077115
000340 3e d6 b3 3c 56 42 36 bd 8f 87 82 bc 75 9f 46 bd
       0.021952745 -0.044496857 -0.01593378 -0.048491914
000350 4e 27 3b bd d8 cd c4 bc b7 e9 05 3c c8 64 46 bd
       -0.04569178 -0.024023935 0.008173398 -0.048435956
000360 5e 9a 93 bc ef 44 c0 3d f0 4f b7 bc 7c 57 07 bc
       -0.018017944 0.09388148 -0.022376984 -0.008260604
000370 c3 ec 8c bd 98 27 a6 bb 58 15 dc bc 36 3a 07 bc
       -0.06881096 -0.005070638 -0.026865646 -0.008253625
000380 31 2d 26 bd e6 f7 96 3d 45 51 33 3d b1 32 97 bd
       -0.04057044 0.073715016 0.043778677 -0.073827155
000390 4f 60 a3 bc e8 99 b2 bc 22 eb 1c 3c 4f 54 97 bd
       -0.019943384 -0.021801904 0.009577544 -0.073891275
0003a0 31 07 a4 bd f9 ab 95 3d b4 eb cf 3b b9 b3 73 bd
       -0.08009184 0.07308192 0.0063452367 -0.05949757
0003b0 dc de 2c 3d 7e cd c4 bc c9 10 3e 3c a7 bd 73 bd
       0.042204723 -0.024023768 0.011600682 -0.05950704
0003c0 b1 3b fe bc 7d 8e 99 3d 8f 2f 22 bc f8 a7 d7 bc
       -0.031034322 0.074978806 -0.009899034 -0.02632521
0003d0 b4 c4 4d 3c 36 3a e1 bd 78 0a 41 3c 38 5e d0 bc
       0.012559105 -0.10997431 0.011782281 -0.025435552
0003e0 19 4f 21 ba 87 45 8c 3d fd f4 01 bd 59 86 29 3d
       -0.0006153449 0.06849199 -0.03172778 0.04138789
0003f0 5e 50 1a 3d be 04 2b bd 5d f2 06 3d e5 76 29 3d
       0.0376743 -0.04175257 0.03294598 0.041373152

bias f4 [256]
000000 ea 3a 93 bb ab 33 24 bd a5 bb 00 bd cb ae 4e 3c
       -0.004493107 -0.040088337 -0.03142895 0.012614916
000010 f2 e4 6f 3c 81 3b 26 bc 66 8c 6a 3d 96 33 9e 3b
       0.014641987 -0.010146023 0.0572628 0.004827927
000020 96 7c 23 3c 32 79 7c bb 20 12 f2 bb 68 6a 0e 3a
       0.009978434 -0.0038524386 -0.0073874146 0.0005432726
000030 81 dd 05 bc 4e 08 89 bc 2d 3e 44 bc 43 a0 8a 39
       -0.008170486 -0.016727593 -0.0119777145 0.00026440815
000040 ef 92 52 3c df 77 17 3d a0 b5 18 3d 9c 25 bd 3a
       0.0128524145 0.036979552 0.037282586 0.0014430764
000050 9e 41 b5 bb fc 30 42 3c 18 cb 75 bd bd 1f 9f bb
       -0.005531504 0.011852499 -0.06000814 -0.0048560784
000060 01 92 b2 bb bc 4f 21 3c 00 f3 13 bd e6 a4 e6 bb
       -0.005449534 0.00984567 -0.036120415 -0.0070387004
000070 e5 66 9e bb 14 b6 1b 3c 48 8f 56 3c f6 22 06 bd
       -0.0048340433 0.00950386 0.013095684 -0.032748185
000080 ef 21 76 b8 dc 54 60 3b d3 93 70 3b ea 99 95 bc
       -5.8682574e-05 0.0034230268 0.0036709204 -0.018261869
000090 d2 39 cf bb d5 23 2b bd ba 95 39 3c d2 32 43 bc
       -0.0063240314 -0.04178222 0.0113272015 -0.011913972
0000a0 61 bf bb 3c 83 03 57 bb 1b 06 b2 3c a6 ab 36 3b
       0.022918405 -0.003280849 0.021731427 0.0027873307
0000b0 68 78 81 3c ef f3 e0 bc 32 5d 2e bc 5c 4b 11 3b
       0.015804484 -0.027460067 -0.010642337 0.0022170162
0000c0 12 e6 94 bb 33 3a c3 bb f1 cb 01 3d 70 21 5a bc
       -0.004544028 -0.0059578656 0.031688634 -0.013313636
0000d0 57 ca ed 3c 4b 7b 8a bb 76 d4 1e 3b db ff 70 bc
       0.029027147 -0.0042261234 0.0024235523 -0.014709438
0000e0 02 b1 9e 3d 55 ea 3a bc 86 a4 bb bc 16 cd de 3c
       0.07748605 -0.011408408 -0.0229056 0.027197402
0000f0 44 12 4f bc 11 32 9a 3b 56 7d 36 bc 95 83 55 bb
       -0.012638632 0.0047056754 -0.011138281 -0.003257965
000100 07 42 b1 bc 40 8e 16 bc 73 b2 95 bb 2b 3a fb 3b
       -0.02163793 -0.0091891885 -0.004568392 0.0076668463
000110 49 23 4f 3c 94 8e dc bc fa 35 cd bc 52 8e 0a 3c
       0.01264269 -0.026923455 -0.025050152 0.008456783
000120 27 43 d8 bc 7f e7 ab bc 0d 9c 67 3b b5 83 86 3c
       -0.026399208 -0.02098441 0.0035340816 0.016420225
000130 07 50 69 bb e5 73 16 bd 91 08 f8 3a ba 54 68 bc
       -0.0035600679 -0.03673162 0.0018923451 -0.014180357
000140 03 9b 0f 3d c0 10 ca 3c 98 d6 41 bc 7d c2 25 bc
       0.03505994 0.02466619 -0.011830948 -0.01011717
000150 33 aa 14 3a 5c f3 2c bc 5f ec 35 3b 11 7c c7 ba
       0.00056711136 -0.010556068 0.0027759296 -0.001521947
000160 d1 a6 60 bc 45 4c 70 bc 67 5f 14 3c 60 54 58 bc
       -0.013711647 -0.014666622 0.009055949 -0.01320371
000170 5c ea 1a bc a5 ae a0 3b 51 61 1c bc 2f ef 88 bd
       -0.00945529 0.0049036318 -0.009544686 -0.06686246
000180 dd 9f 1e 3d f3 cc c6 3c 2f 7b 18 3a 15 10 99 3b
       0.038726676 0.02426765 0.00058166956 0.0046711066
000190 33 39 40 3c e8 42 16 3c e4 28 3a 3a a5 53 1a bd
       0.011732387 0.009171225 0.000710143 -0.037677426
0001a0 65 2e 45 bd bb 9f 2d bc 33 1f 31 bc c4 a0 3c 3c
       -0.04813995 -0.010597165 -0.010810661 0.011512939
0001b0 ce d4 39 bc fc 32 93 3b 4e 57 cb 3a c3 63 15 3c
       -0.0113422405 0.004492162 0.001551369 0.009118023
0001c0 11 1e 3c 3b 6b 4d 16 3c 76 77 cf 3b f0 95 6f 3d
       0.0028704444 0.009173731 0.0063313795 0.0584926
0001d0 d4 98 e6 3b 01 26 e9 3a 2f 55 d0 bc 41 d8 1d 3c
       0.0070372615 0.0017787815 -0.025431244 0.0096340785
0001e0 7d 76 ba 3d d7 67 c3 bc e5 34 9a 3c 0d 33 3c 3b
       0.09104631 -0.023853226 0.01882405 0.0028716952
0001f0 a7 78 dc 3c f8 50 34 3c 94 ab 19 bc 1d ed b2 3b
       0.026913 0.011005633 -0.009379286 0.005460395
000200 e3 d0 b8 3c ce cc 89 3b ea 78 43 3c 39 76 54 3c
       0.022560542 0.004205323 0.011930684 0.01296764
000210 76 3e 8b bd 58 8c 58 bc d0 8d c6 3b 18 9b 35 3b
       -0.06799023 -0.013217054 0.006059386 0.0027710851
000220 ff a2 17 bc 1b 1b 25 bc fb 21 50 bc 47 c6 13 bb
       -0.00925517 -0.010077263 -0.012703414 -0.0022548602
000230 4d db 4c 3b 23 ca 29 bc 31 c7 c2 3b 7a fc 1c bd
       0.0031258643 -0.010363135 0.0059441556 -0.038326718
000240 2d 28 ab ba ea 01 6d 3c 35 0d c5 bc a8 36 47 bc
       -0.0013058238 0.014465788 -0.02405415 -0.012159027
000250 95 eb 4b bc c4 4f 4c bc 4f 1c e9 bc 0e 89 af bc
       -0.012446304 -0.0124701895 -0.028455881 -0.021427657
000260 55 3e 26 3b 9c e9 0b bc 89 98 67 3c fd d0 aa 3a
       0.0025366743 -0.0085395835 0.014135488 0.0013032254
000270 f0 be 5a bb fb bf 66 3a 54 dc 3f bb 20 56 9f 3c
       -0.0033377968 0.0008802411 -0.0029275613 0.019450247
000280 19 dc df 3b f1 e6 d5 ba f8 3e 72 bb 65 07 08 bc
       0.0068316576 -0.0016319436 -0.0036963802 -0.008302544
000290 e1 64 9f 3c 5c d3 c1 bb b2 98 73 3c 33 4f 17 bc
       0.019457282 -0.0059150886 0.014867948 -0.009235191
0002a0 d7 09 18 bc 6b ad 8e bb 97 22 d4 3c b0 59 18 bc
       -0.00927969 -0.004354169 0.0258954 -0.009298727
0002b0 e5 02 85 3c 30 10 d8 bb 45 c2 b1 3c b0 a5 b1 ba
       0.016236732 -0.0065937266 0.02169908 -0.0013553407
0002c0 9d da ef 3b 43 2c 06 3d c2 68 00 3b e3 8f 54 3d
       0.007319762 0.032757055 0.001959369 0.051895034
0002d0 f3 68 e9 3c eb b2 69 3c 1e 65 5d 3b b3 27 5d 3c
       0.028492426 0.014263849 0.0033782194 0.013498235
0002e0 3d 77 a5 bc 8c 1d 66 bc 7d 57 5f bb f0 00 f2 b9
       -0.020198459 -0.01404513 -0.0034079247 -0.00046158535
0002f0 a9 10 10 3c 38 8c de 3c ff fe 1b bd 8f f7 d6 bc
       0.008793035 0.02716647 -0.03808498 -0.026241092
000300 e2 b4 b9 bc 4f 20 7d bc 0d e4 b3 3d e4 75 1b bc
       -0.02266926 -0.0154495975 0.087837316 -0.0094885565
000310 46 23 b7 3b d7 cd 85 3c 33 b3 2f bc a2 07 68 3c
       0.0055889217 0.016333504 -0.010723877 0.014161976
000320 d8 9b 86 3c 60 42 09 3d ca be 6d bc 89 17 3d 3c
       0.016431734 0.033510566 -0.01451082 0.011541256
000330 1a 61 50 3c 4b d1 37 bd b6 fa b2 bc 7e dc 9d bc
       0.012718463 -0.04487733 -0.021848064 -0.019270178
000340 21 22 24 bd a2 66 1d bd 22 53 10 bd 81 72 4d bb
       -0.04007161 -0.038427956 -0.03523553 -0.0031348767
000350 2b 03 ca bc 90 a6 ee bb cb 1f be 3c 2e 90 f4 3c
       -0.024659714 -0.0072830394 0.02320852 0.029853906
000360 0a 2f f9 3b 37 00 62 bc 3f 31 5e bb e8 ec a6 bc
       0.0076044844 -0.013793997 -0.0033903865 -0.020376638
000370 ba a1 bb 3b a1 12 77 3b ed aa ab bc e3 9d 70 bc
       0.0057260664 0.0037700313 -0.020955527 -0.014686081
000380 39 44 e1 bd 17 ea 09 bc 33 54 76 3c 6d bb 76 3c
       -0.109993406 -0.008417628 0.015034723 0.015059334
000390 67 73 c4 3c 94 a4 f3 bc 3c 86 bb bb 35 58 e6 3b
       0.02398081 -0.029741563 -0.005722789 0.007029558
0003a0 03 c1 40 bc 32 14 1b 3c 6c 0e 5b 3c af e1 7f bb
       -0.011764768 0.009465264 0.013370138 -0.003904443
0003b0 7f 65 76 3b 1b 28 7b 3c da 88 7f 3c 50 20 00 bb
       0.0037597117 0.015329386 0.015596593 -0.001955051
0003c0 c4 95 8d bc 69 76 48 bd 09 f2 63 39 53 12 92 bc
       -0.017283328 -0.04894105 0.00021738572 -0.017831003
0003d0 69 4e 6b 3b 4e 99 8a bd 5a 31 80 bc 34 83 61 3c
       0.003590489 -0.06767522 -0.015648533 0.013764191
0003e0 d1 b7 a6 3c a1 4b 2b 3d 65 be 11 3c ac 20 74 3d
       0.020351322 0.041820172 0.008895491 0.05960147
0003f0 ee c0 83 3c 59 ab 47 bc ab 6e 8c 3b 4f 74 9d 3c
       0.016083207 -0.012186849 0.0042856536 0.0192205

weight f4 [256, 4]
000000 55 c3 e7 bd c9 fa 99 bd 26 91 24 be 43 0d af bd
       -0.113165535 -0.075185366 -0.16070995 -0.08547451
000010 f7 2c 0c be 27 ab e2 3d b7 47 86 bc 40 2f bf 3d
       -0.13689028 0.11067801 -0.016391618 0.09335184
000020 18 8e 59 3e 76 c8 8f 3d c0 ab cc bc 24 07 d7 bd
       0.2124561 0.07020657 -0.02498424 -0.10499409
000030 f1 8e 94 bb e0 ba 40 bd 99 2b 03 be 69 e9 4e 3e
       -0.0045336415 -0.047053218 -0.128096 0.20206226
000040 a2 4f b0 bd b2 48 f1 3d 80 f2 83 bd 29 9a 05 3e
       -0.08608939 0.11781444 -0.064427376 0.13047089
000050 4c a3 29 bd e2 85 98 bd 37 60 56 be b8 08 ef 3b
       -0.041415498 -0.07447411 -0.2093514 0.0072947405
000060 28 8b 28 3e 30 cf 38 3d b4 cd 0c 3e a8 58 cc bd
       0.16459334 0.045119464 0.13750345 -0.09977847
000070 a4 14 f3 3b c4 02 8c 3d ea c0 59 3e 1a 6c d0 3a
       0.007418232 0.06836465 0.21264997 0.0015901357
000080 f1 53 70 3c d8 ed 6c 3d 3f ed 5a 3e df aa f5 3c
       0.014668451 0.057844013 0.21379565 0.029988704
000090 4b cc 36 be 6e 3b a1 bd 91 a0 ce 3d e9 a5 28 3c
       -0.17851369 -0.078726634 0.10089219 0.010293462
0000a0 4b 31 18 be ca 18 2c 3d ac 96 0d be 71 07 60 3c
       -0.14862554 0.04201583 -0.13827008 0.013673649
0000b0 91 4a 38 be 96 77 9f bc 3c 49 b8 3d 21 1f 5a bd
       -0.17997195 -0.019466203 0.08998343 -0.053252343
0000c0 71 0d ba bd d7 97 8b bd 7a 12 46 be d5 cb 90 3d
       -0.09084595 -0.068160705 -0.19342986 0.07070128
0000d0 d3 6f 2b 3e 70 4e 0e bb af d5 19 bd de 7a ea 3d
       0.16741876 -0.0021714233 -0.0375573 0.11449216
0000e0 41 d0 61 bd b6 41 71 bd ca 87 55 be 10 e2 19 bd
       -0.055130247 -0.058900557 -0.2085258 -0.037569106
0000f0 93 b8 60 bc 58 06 05 3e c7 4e f3 3d c8 d9 0f be
       -0.013715881 0.12990701 0.1188026 -0.1404792
000100 9e e2 2b be 47 4d fe bc ce 56 07 be 76 74 95 bb
       -0.16785666 -0.031042708 -0.13216707 -0.0045610024
000110 cc 4d 31 bc 72 dd 92 bd db 1f e2 bd 46 09 49 be
       -0.010821771 -0.071711436 -0.11041232 -0.19632444
000120 11 65 9a 3d 89 a0 3e bd 35 88 73 bb a9 4e 4a 3e
       0.07538808 -0.046539817 -0.0037160043 0.19756569
000130 1a df 32 be e2 f6 7e bb b9 9a f6 3d 82 5c 53 bc
       -0.17467919 -0.0038904478 0.1204123 -0.012900474
000140 8c 13 1c bc 34 ec 11 be 2a 58 06 be 81 51 03 3e
       -0.009526145 -0.1425026 -0.1311957 0.1282406
000150 e7 58 17 be d1 bc 7e 3d 82 bb 86 bc ab b7 e9 bd
       -0.14780007 0.062191788 -0.016446833 -0.11411985
000160 c6 e0 e7 3d c2 5b 9e 3d 42 c5 16 be 26 67 4a 3d
       0.11322169 0.07732345 -0.14723685 0.049414776
000170 2d e6 c7 bd e7 7a ad 3d da 6c 30 3e b8 9c e7 bb
       -0.097606994 0.084707074 0.17229024 -0.007068243
000180 44 23 f6 3d df be b2 bd 0b 66 02 3e f3 60 37 3d
       0.12018445 -0.08727812 0.12734239 0.044770192
000190 76 75 40 be ac 34 f5 3c 34 3a 47 bd 01 36 a8 3c
       -0.18794808 0.029932342 -0.04863949 0.020533564
0001a0 4c fa 57 3e 63 41 33 3d 7f 17 4d 3c 9e 3f 45 bd
       0.21091574 0.04376353 0.012517809 -0.048156373
0001b0 11 67 31 bc ae bc 09 3e ea da c5 bd 36 ae d8 3d
       -0.010827796 0.13450882 -0.09660895 0.10580103
0001c0 39 7a cb bd dc 56 9a bc 58 1d 47 be 83 8e 4f bc
       -0.099354215 -0.018840246 -0.19444788 -0.012668255
0001d0 1b 4e 87 3d af fb 69 bd 39 03 3f 3e 9f cf 64 3a
       0.06606694 -0.05712479 0.18653573 0.0008728448
0001e0 5f 88 10 be a7 79 0f be 14 32 ff bd a1 5b 10 bd
       -0.14114521 -0.1401125 -0.124607235 -0.035243634
0001f0 87 da 41 be c1 fe 96 3c 9f 09 a2 3d a0 72 9b bc
       -0.18931018 0.018432023 0.07911991 -0.018975556
000200 ba d8 69 3d 55 e1 91 3d f3 f4 54 3e 6c ec 1e 3c
       0.057091452 0.07123057 0.20796566 0.009699922
000210 15 58 84 bd 01 4c 06 3e 58 0e b3 3d 8e f7 f3 bd
       -0.06462113 0.1311493 0.0874297 -0.11912452
000220 30 bc a3 3b cc 81 ad 3d b6 8d 4a 3e 03 13 7b bd
       0.004996799 0.084720224 0.19780621 -0.061297428
000230 22 b2 2e 3e b8 41 9f bc a6 81 77 bd 24 c0 ba 3d
       0.1706014 -0.019440517 -0.060426377 0.09118679
000240 3d d2 84 bc 29 3f a8 3d 05 80 0a be 0e 73 12 3e
       -0.01621353 0.08215172 -0.13525398 0.14301702
000250 2f f5 65 3d e3 b0 f7 3d f0 ef 44 3e 6b e8 2a bd
       0.05614203 0.12094285 0.19232154 -0.041725557
000260 40 24 07 3d 81 ac c5 bd d2 44 03 3d 43 f2 47 3e
       0.032993555 -0.09652043 0.032048054 0.1952601
000270 fa 88 3f 3e ab 66 ad bc 97 e8 a9 bd ef dd 43 3c
       0.18704596 -0.02116712 -0.08296316 0.011954769
000280 2d bf 10 be 0b 2b a6 3d 50 41 e5 bd 49 ea 22 3d
       -0.14135428 0.081136785 -0.11194098 0.039774213
000290 d3 02 71 3b ba cf 99 3d 7b 14 54 3e 2f 57 f2 bc
       0.0036775365 0.07510324 0.20710938 -0.029582588
0002a0 a7 d6 36 3e 99 ca 6a 3d f5 8a ba bd f8 8a 17 be
       0.17855321 0.05732212 -0.09108535 -0.14799106
0002b0 7c e0 1a be cf 0b 39 3d 54 18 1f bc 3d d5 fc bd
       -0.15124696 0.045177277 -0.00971039 -0.123453595
0002c0 75 05 4e bd 56 9a 25 3e c3 44 d2 3d 24 ca 80 bd
       -0.050298173 0.16172156 0.102670215 -0.06288555
0002d0 47 ee 8d bd 65 e4 e1 3c 79 a8 42 3e 6b c2 d1 3d
       -0.069302134 0.027574727 0.1900958 0.102421604
0002e0 3c cf 07 be b8 65 84 3c 2d 57 89 3d 7f d0 1b be
       -0.13262647 0.016161785 0.067060806 -0.15216254
0002f0 c7 f3 4a bb 3d e4 ad 3c 3a 6a c0 bd 64 b8 5c be
       -0.0030968057 0.021226997 -0.09395261 -0.21554714
000300 b5 f1 fa bd 67 9b 72 bd 70 42 39 be 92 dc 6d 3d
       -0.12253133 -0.059230234 -0.1809175 0.05807168
000310 e9 e0 17 3c f9 9f f0 bc 52 93 5c be 31 1b 97 3b
       0.009269931 -0.029373156 -0.21540573 0.0046113958
000320 1d e2 f3 3d ee 26 67 3c a1 f2 3b be cf b9 49 3c
       0.11908362 0.014108403 -0.18354274 0.012312367
000330 a4 09 05 be 18 8f 9b bc 72 3c 34 be 77 50 75 3c
       -0.12991959 -0.01898913 -0.17601183 0.014972798
000340 2c 9e c0 bd 11 16 bb bd 03 4c 42 bd df f0 2f be
       -0.09405169 -0.09135068 -0.04743577 -0.17181729
000350 75 6a 0d be 7a 78 b7 3c 92 fd 27 3e 71 55 c8 bc
       -0.13810141 0.022396315 0.16405323 -0.024454804
000360 ce 55 32 3e d9 5f 40 bd d9 5b ad bd 84 fc 24 3d
       0.17415544 -0.046966407 -0.08464784 0.04027988
000370 74 2e 34 3e 0c ac f1 3c a3 58 fb bd 57 9f e3 3b
       0.17595845 0.029500984 -0.122727655 0.006946485
000380 21 9d 33 be 43 9e 43 3d 46 24 90 3d 37 2a 36 bd
       -0.17540409 0.047758352 0.070381686 -0.044473853
000390 94 36 24 3e cf 2c 08 3c 2f 27 17 be 58 29 94 3c
       0.16036445 0.008311464 -0.14761041 0.01808612
0003a0 fd 87 a8 bc a1 94 0e be 5c 27 ad 3d 9f e9 da bd
       -0.020572657 -0.13923885 0.08454773 -0.10689091
0003b0 69 8a 79 bd 4e e1 53 3c a8 21 56 3e 55 7f c3 bb
       -0.060923014 0.012932135 0.20911276 -0.005966107
0003c0 10 d1 d9 bd d4 87 bd 3d c4 5b fb bd 32 26 95 bd
       -0.10635579 0.09254423 -0.12273362 -0.07282676
0003d0 8e c1 f8 bc 07 98 27 be 68 57 c0 bb 68 11 2f 3e
       -0.030365732 -0.16366588 -0.0058697946 0.17096484
0003e0 3f c5 95 bd 56 8d 9f bc c9 1b 45 be 69 96 8d bd
       -0.07313012 -0.019476574 -0.1924888 -0.06913454
0003f0 c0 52 06 be a0 f6 cb 3c 77 90 31 3d 80 37 57 3e
       -0.13117504 0.024897873 0.043350663 0.21017265

bias f4 [256]
000000 5b 60 92 3b 98 0d 45 bb 56 e5 99 bb 71 0a 52 bc
       0.004467053 -0.0030067917 -0.0046965284 -0.012819872
000010 39 40 de bb 79 96 7c bb 0d a1 a0 3a 0e 61 94 3b
       -0.0067825583 -0.0038541837 0.0012255028 0.0045281714
000020 65 d1 5c 3b 17 19 32 3c ef 00 0b bb e0 be 3d 3c
       0.0033694145 0.01087024 -0.0021210273 0.011581153
000030 8e 31 88 bb 68 4a 5b bc fe a0 e6 ba ef 65 19 3c
       -0.004156298 -0.013384439 -0.0017595587 0.009362682
000040 29 62 26 3b 75 81 e6 3b 1b f5 46 bc 82 8e 0d 3c
       0.0025388098 0.0070344754 -0.012143399 0.008639934
000050 c0 1f 03 bc 23 bf 00 3c 27 0d 59 bc a8 90 bf 3b
       -0.008003175 0.007858071 -0.013247765 0.005846102
000060 2b 8e 72 3b 2e d3 29 3b 68 0d a9 bb fb 38 44 bc
       0.0037011008 0.0025913226 -0.005159069 -0.011976476
000070 e8 54 02 bb 7d b7 de 3b e6 d8 e9 3b a5 da 08 3c
       -0.0019887034 0.006796776 0.007136452 0.00835291
000080 c4 8d 26 3b 71 63 02 3c 90 fe fb 3b c4 8c 44 bc
       0.0025414089 0.007958279 0.0076902583 -0.011996452
000090 bd 59 30 bc 73 99 8b 3b dd 8e bf bb dd 46 00 bc
       -0.010763583 0.004260236 -0.005845888 -0.007829395
0000a0 51 5d 80 bb 3c 1d ca 3b b6 c1 8e bb f5 66 1e 3c
       -0.003917374 0.006168036 -0.0043565882 0.009668102
0000b0 15 62 69 3b 13 54 42 3b eb 0d 75 3c a3 29 6a 3b
       0.003561144 0.0029652163 0.014956932 0.0035730384
0000c0 6f 97 0f bb e9 13 b7 bb 41 67 05 bc f9 13 aa ba
       -0.002191033 -0.0055870903 -0.008142293 -0.0012975923
0000d0 fc 9e 61 3c 58 4b 07 3c 6a 3a 0e bc 7b 1c 17 bc
       0.013770815 0.008257709 -0.008680919 -0.009223099
0000e0 bb 4d 0e 3c be 5b 11 bc 0d 0a 6b 3c af 58 d6 3b
       0.008685525 -0.008871971 0.014345658 0.0065413336
0000f0 94 fd 73 bb 21 7c aa ba 5d 0b e0 ba 22 29 c1 b9
       -0.0037230002 -0.0013006964 -0.001709323 -0.00036842475
000100 ea ef 67 3b 20 d7 09 bc fa 42 c0 3b ba b7 3f bb
       0.0035390803 -0.008413106 0.005867359 -0.0029253797
000110 ff 6f 28 3c 98 b1 fe 3a a1 44 46 3a 5c b5 ba bb
       0.010280608 0.0019431589 0.0007563327 -0.0056978893
000120 bb 3c d0 ba 72 1d 0a bc 31 42 fd bb 3a 20 2c 3c
       -0.001588724 -0.008429872 -0.007728838 0.01050573
000130 85 74 86 bb c1 c6 41 bb ff b6 12 bc 12 59 0c 3c
       -0.0041032457 -0.002956793 -0.0089547625 0.008566158
000140 ff 62 b2 bb be 8c 11 3c 18 f2 0f bc 9e c3 c2 3b
       -0.00544393 0.008883653 -0.008785747 0.0059437295
000150 24 4c b4 3b b8 29 b7 bb 8c 14 ba 3b d7 ad 0e bc
       0.0055022407 -0.00558969 0.005678719 -0.008708439
000160 08 de ff 3b 56 3d c2 bb cf 36 02 3c b6 3c 15 ba
       0.0078084506 -0.005927722 0.007947638 -0.00056929456
000170 13 48 f8 bb 69 f4 94 bb 7a 92 93 ba 9f 2d 0a bc
       -0.0075769513 -0.0045457375 -0.0011258863 -0.0084337285
000180 af a1 aa 3b 16 86 87 bb 9a 82 1d bc f9 1b 52 3c
       0.0052072625 -0.0041358573 -0.009613657 0.012824052
000190 7c db c3 bb 3b 57 10 bc 3c d5 4a 3b 4d 79 75 3c
       -0.0059770923 -0.00880986 0.0030949851 0.014982534
0001a0 6f 48 91 3b 71 60 f4 3b b2 90 0d 3b ff 94 a9 bb
       0.0044336836 0.007457786 0.0021601138 -0.0051752324
0001b0 0a 40 02 3c 3e 32 3e bc f8 07 3e bc 6e 0c 4f 3c
       0.007949838 -0.011608658 -0.01159858 0.012637241
0001c0 99 10 e5 bb 6e 8a a8 39 64 e6 41 ba 51 6b 4c bb
       -0.006990504 0.00032146595 -0.00073966966 -0.0031191895
0001d0 c1 b0 10 3c e9 93 e4 bb 51 c7 0b bc 61 b9 48 3b
       0.008831204 -0.00697564 -0.008531407 0.0030628073
0001e0 50 f1 19 bb 9c f7 af bb e8 8b 22 bc 3a a3 dc b6
       -0.002348978 -0.0053700935 -0.009921052 -6.575513e-06
0001f0 84 82 2c 3c d7 d7 a6 bb 80 08 d5 bb 71 4d 72 ba
       0.010529164 -0.005091648 -0.0065012574 -0.0009243107
000200 8d 01 ea bb dc d9 21 bc 24 4b 74 3b b3 81 e1 bb
       -0.007141298 -0.009878602 0.0037276233 -0.0068819164
000210 76 c0 4a bc 0f af 1a bc 87 35 d4 bb bd 7f 04 bc
       -0.012374988 -0.009441151 -0.0064761075 -0.008087096
000220 4f d3 23 3b 9d e9 d9 3b 3d 33 e0 3b 40 f2 13 3c
       0.0024997776 0.0066501633 0.0068420456 0.009029925
000230 52 07 5d 39 64 c6 a9 3b 8d 3c cd ba b9 e1 b2 3b
       0.0002107893 0.0051811207 -0.0015658304 0.005459037
000240 71 27 23 3c 68 20 0f 3c 8f a2 ba 3b ad f6 c3 bb
       0.009958134 0.008735754 0.005695648 -0.005980334
000250 60 2c 2d 3c c0 bf b7 bb 28 e1 0d 3c da c8 f4 3a
       0.010569662 -0.005607575 0.008659638 0.0018675581
000260 28 5f ad ba 19 7f 3d bc ed 4c 4c 3c 52 c4 16 3b
       -0.0013227211 -0.011565947 0.012469512 0.00230052
000270 97 c8 07 bb 6d 63 58 bc d3 ef e6 3a 83 b1 d6 bb
       -0.0020718926 -0.013207299 0.0017619081 -0.0065519228
000280 10 ae 11 bc 7a 38 24 bc ef eb 03 3c cf 46 5f 3a
       -0.008891597 -0.010023231 0.008051856 0.0008517326
000290 c8 00 d3 3b 92 39 6b 3c 30 3b 7b bc 37 6b 0f 3c
       0.006439302 0.014356988 -0.015333936 0.008753589
0002a0 ec 79 46 bb 3c a1 05 3c 9b 07 ba 3a 57 3d 09 bc
       -0.0030285073 0.008156117 0.001419294 -0.008376441
0002b0 00 1c 4a 3a fb 9d a5 bb 5b 81 10 bb 7b 24 71 bb
       0.0007709861 -0.005054233 -0.0022049758 -0.0036795426
0002c0 07 88 3c 3c 8c 62 83 bb a2 63 68 3c f5 37 f7 bb
       0.011507041 -0.0040095504 0.014183911 -0.0075445124
0002d0 57 43 80 3a 7f 6c 9f bb 01 46 30 ba ac 19 f0 bb
       0.0009785694 -0.0048652287 -0.00067242986 -0.007327279
0002e0 7b eb a3 bb 2d 10 e4 3b a7 9d 2b bc ca ed 15 3c
       -0.0050024367 0.006959936 -0.010474599 0.009150932
0002f0 e8 22 c7 3b 58 54 0e ba 02 b6 05 b9 f4 d3 11 3c
       0.006077159 -0.00054294383 -0.00012751672 0.008900631
000300 82 85 53 bb f6 eb 0f bc 59 0f 18 bc 6d 50 17 3c
       -0.0032275622 -0.008784285 -0.009281003 0.009235484
000310 33 d4 64 bb b0 fd f5 3b 8e cc 8f 3a bf b7 70 3b
       -0.003491652 0.0075070485 0.0010970996 0.0036730615
000320 b0 a3 26 3c ff 74 cc 3a c6 6c 18 3c 0b 1d da bb
       0.010170862 0.0015598832 0.009303277 -0.006656294
000330 ac cc 0b bc ae 60 92 3a 0c d1 69 3b ce 53 38 bc
       -0.008532684 0.0011167729 0.003567758 -0.011250449
000340 d2 25 90 bb 82 68 22 bb 5f ad e5 3a 6f 21 77 bc
       -0.00439904 -0.002478153 0.0017522982 -0.015083655
000350 fd ba 49 bc ba 14 4a bc 01 d4 92 ba fd b1 58 3b
       -0.012312648 -0.012334043 -0.0011202098 0.0033065074
000360 a6 7c 94 3b 88 e1 3a bb 79 d6 60 3a 19 be 1c 3c
       0.004531461 -0.0028515775 0.0008576881 0.009566807
000370 d4 a9 11 bc c9 58 88 bb ec f8 a6 bb c0 a7 8e 3a
       -0.008890588 -0.0041609746 -0.005095592 0.0010883734
000380 46 bd 01 bc 68 95 15 3c e1 33 04 3c 5f 2a 6c bb
       -0.007918661 0.0091298595 0.0080690095 -0.0036035997
000390 71 e2 07 bc a6 d7 0e 3c 12 88 4a 3b 9e 8b ab bb
       -0.008293734 0.008718407 0.0030903858 -0.0052351495
0003a0 80 47 03 bc 0b b8 e2 bb 6f ae 73 3c 8b 5f 16 3c
       -0.008012652 -0.0069189123 0.014873131 0.009178053
0003b0 d5 46 ee 3b cc 1b 29 bb ae d1 1a 3c 72 5c 0d bc
       0.0072716274 -0.0025803922 0.009449406 -0.008627998
0003c0 16 3e e3 bb 79 1a 05 bc 68 55 07 bc 2b d2 e7 3b
       -0.0069348915 -0.008123987 -0.0082601085 0.0070746145
0003d0 5d 37 c8 bb 70 94 15 3c 05 e4 ed bb 6b a4 d4 3b
       -0.0061101154 0.009129629 -0.007259848 0.0064893267
0003e0 5d fa 0f 3b 0d bc 89 3b 26 81 5e 3c 29 8d 90 3b
       0.0021969297 0.0042033256 0.013580596 0.004411359
0003f0 31 46 87 bb 86 f4 31 3c 87 6b f9 bb fa aa 11 bc
       -0.0041282405 0.010861522 -0.007611695 -0.008890862

weight f4 [128, 512]
000000 17 dc cf bb aa 1b d9 bc ad db be bd d7 ec 02 bc
       -0.0063433754 -0.026502449 -0.093192436 -0.007991037
000010 9d ef 28 bc 2f 91 10 bd 8e 02 f6 bd 86 e1 a6 3c
       -0.0103110345 -0.035294708 -0.12012206 0.02037121
000020 53 78 31 3d e6 2a 43 3c 5d 9a 1f bc 47 08 77 bd
       0.04332764 0.011912083 -0.009741393 -0.06031063
000030 5e d0 6c 3c 7b 34 49 bd 69 da d6 3c bb a7 9a bc
       0.0144539755 -0.049122315 0.026227193 -0.018878808
000040 91 a4 ad bc c5 a8 b3 3c 15 e1 63 3d 5a 0b 20 bc
       -0.021196635 0.021931062 0.055634577 -0.009768331
000050 cf 01 45 bc ee dd 10 3c ae c9 1a bd 58 36 35 3c
       -0.012024357 0.008841975 -0.037789993 0.01106032
000060 80 ef 18 bc 5e c6 03 3d eb bc 02 bc 0d 03 99 3d
       -0.009334445 0.0321716 -0.007979612 0.07471285
000070 26 5d 84 3c d9 0e ba bb 43 fc 31 3c 81 7b a0 3b
       0.016157698 -0.0056780395 0.010863367 0.0048975353
000080 78 13 08 bc 55 03 08 ba bc f4 f5 3a ec b5 85 bb
       -0.008305423 -0.0005188485 0.0018764953 -0.0040805247
000090 d5 42 b0 bc 60 f8 26 bd 1e 09 7c bc 5d 25 43 3b
       -0.021516243 -0.040764213 -0.015383033 0.002977691
0000a0 f5 a6 bf bb f2 b3 b5 bc da 34 23 bc 69 cb 34 3d
       -0.0058487603 -0.022180531 -0.009961331 0.0441393
0000b0 e9 9b 86 3c 1a 8b 1f 3d 9d fb c8 bc e4 99 62 bb
       0.016431766 0.038951017 -0.024534041 -0.003457659
0000c0 da d9 d4 3c bf 50 a2 bc c4 c5 30 3d b4 63 58 3d
       0.025982786 -0.019813893 0.043157354 0.05282946
0000d0 eb 68 4a bd 3a 5b 6c 3c 75 25 85 bd 0d 9f 34 bd
       -0.049416464 0.014426047 -0.06501285 -0.044096995
0000e0 94 5d 09 3d 1f fe 2a bd 50 20 b3 bc 9c bb b7 bb
       0.03353651 -0.041746255 -0.021865994 -0.0056070816
0000f0 01 eb ac bc a6 3e 10 bc f9 b3 19 ba cb 5d f8 ba
       -0.021108152 -0.008803999 -0.0005863305 -0.0018948851
000100 d1 fe bd 3c f2 1b 95 3c 76 87 1d 3d 5d 32 11 bc
       0.023192795 0.018201802 0.038459264 -0.008862105
000110 d5 b8 05 3c 01 14 95 bc c6 b2 80 3c 02 1a 94 39
       0.008161743 -0.018198015 0.015710246 0.00028248137
000120 5e 4b 1f 3d ea 0b 4a bc 56 bf eb 3a 93 69 2c bc
       0.038890235 -0.012331942 0.00179861 -0.010523218
000130 86 a0 01 bc 34 6c dc bb c6 24 e7 b8 e3 bd 2a bc
       -0.007911807 -0.006726766 -0.00011021788 -0.010421249
000140 df eb db 3c ce d0 14 bd 48 a5 27 3c 44 37 b1 39
       0.02684587 -0.036331944 0.010232277 0.00033801247
000150 89 5c 55 3c 9c 15 74 bd b5 0b d8 3c ff e9 23 3d
       0.01302255 -0.05959092 0.02637277 0.040018078
000160 eb 09 83 3d 2b 74 e9 bb fc f0 97 3d 47 4c b8 bc
       0.06398376 -0.007124444 0.07419011 -0.02249731
000170 83 73 c0 bb ef b4 9f bc df 01 75 3a 2b 8b d1 bd
       -0.005873145 -0.019495456 0.0009346287 -0.10231622
000180 b9 90 41 3c 81 84 75 3c 47 29 1f 3b bc ee fd 3a
       0.01181429 0.014985205 0.0024286078 0.0019373517
000190 a0 2b d5 3c 6f d0 33 bc 8a 8e cc 3b 55 df 42 bd
       0.026021779 -0.010974987 0.006242578 -0.047576267
0001a0 a4 29 bc 3c f1 95 58 3c b5 62 96 bc e5 9c 24 bd
       0.022969075 0.013219343 -0.018357614 -0.04018869
0001b0 f9 53 58 bd 85 eb 97 3b f4 b8 57 3c 2d 57 95 bb
       -0.052814458 0.0046362304 0.013166655 -0.0045575113
0001c0 fc 31 bc bc 24 80 a7 bb f6 7e 34 3b 57 ce 63 bd
       -0.022973053 -0.005111711 0.0027541495 -0.055616703
0001d0 82 c1 0a 3d d5 d4 89 3c 48 ab 48 bd 9d 34 c1 3c
       0.03387595 0.016825119 -0.04899147 0.023584658
0001e0 59 08 dc bd 16 9b 37 bd 2f 85 ac 3c 55 a0 09 bd
       -0.1074378 -0.044825636 0.0210596 -0.03360017
0001f0 30 fd e4 3b 91 d2 47 bc f3 38 02 3e 9d 87 0d bd
       0.00698819 -0.012196199 0.12717037 -0.03455316
000200 45 3d 03 3d 56 c8 b7 bd 3b e6 fb ba 64 34 e3 3c
       0.032040853 -0.08973758 -0.0019218394 0.027734943
000210 4f 21 a1 3c 7a 86 c0 3c fe 8f a1 3b f2 f1 ca ba
       0.019669203 0.023501623 0.0049304953 -0.0015483482
000220 2a ba 2e bc ad ef 8f ba b6 e5 b6 bc 22 fd 9f bc
       -0.010664502 -0.0010981463 -0.022326332 -0.019529883
000230 df 35 aa b9 f9 d3 49 3c 6e 48 9d 3b 17 43 33 bc
       -0.00032465064 0.012318605 0.004799894 -0.010941288
000240 85 d3 c0 bc f9 8a 74 3b b4 52 84 bd 1b 55 2b 3c
       -0.02353836 0.003731428 -0.06461087 0.010457302
000250 ea 63 a7 bd 7c 60 46 3d 9f a0 c3 3d 14 9c 02 bd
       -0.08173354 0.04843186 0.095521204 -0.03188713
000260 f0 7e 9b bb 59 e9 b4 bc 25 3c 2f 3d 0c 4f 9e 3c
       -0.0047453567 -0.022083925 0.042781968 0.019324802
000270 72 83 d2 3b 42 57 90 bc 4f 20 13 bc 35 81 4f 3b
       0.006424361 -0.017619733 -0.008979871 0.0031662707
000280 fe f6 77 3c f7 36 99 3a d0 76 77 3c 56 84 6e 3b
       0.015134571 0.0011689354 0.015104011 0.0036394796
000290 61 17 47 3c 85 69 be 38 86 1f 2f 3c 64 ff fe 3c
       0.01215157 9.0795606e-05 0.010688668 0.03112764
0002a0 01 80 f8 bc 19 62 87 bd 25 b9 c7 bc 67 08 df bb
       -0.030334475 -0.066105075 -0.024380276 -0.0068064216
0002b0 34 30 5a 3d fe c3 3e bc e4 6b 46 3d c6 ca 87 3c
       0.053268626 -0.011643408 0.048442736 0.016576182
0002c0 65 1f 3a 3c 95 3f a6 3c b6 67 04 3c 2c de 86 bd
       0.011360024 0.02029399 0.008081367 -0.06585345
0002d0 6a e8 d2 3c 36 b3 00 bc a0 20 ca bb e0 77 86 3c
       0.02574559 -0.007855227 -0.00616844 0.016414583
0002e0 01 61 85 3a 60 65 7b bd 43 ef 91 bc 43 f9 01 3c
       0.0010176004 -0.061375976 -0.017814284 0.007932964
0002f0 0f d3 4c bc 3b 28 73 3c 8c d9 99 3b d2 72 04 3d
       -0.012501492 0.014841135 0.004695123 0.032336064
000300 81 93 32 bb 5e ed 46 bc 15 d1 95 bd 4d be 6a 3b
       -0.0027248564 -0.012141554 -0.0731527 0.0035818995
000310 97 da 86 ba f5 b6 aa 3c c9 e3 43 3d c5 17 3c 3d
       -0.0010288534 0.020839194 0.047824655 0.045921106
000320 48 28 76 3c eb f9 1b bc 52 b9 02 3c a1 c9 37 3d
       0.015024252 -0.009520034 0.007978754 0.044870023
000330 c1 e5 ca 3c e3 1a 87 3c 41 0d 5a 3b 0b 3d 6d bc
       0.024767758 0.016492313 0.003327206 -0.014479886
000340 9b 95 85 bd 9d 7a d8 3b 45 ec 30 3c a6 90 6d 3d
       -0.065226756 0.0066064135 0.010798519 0.057999276
000350 fa a1 45 bc 23 ce d9 3c f5 7f a5 3d 1c 25 69 3b
       -0.012062544 0.026587551 0.080810465 0.0035575097
000360 4e 1d a7 bd a6 ff 8c 3c fb f7 43 bb f0 b0 18 3b
       -0.08159886 0.017211746 -0.0029902447 0.0023298822
000370 ed f7 cf bc 22 b9 9d bc fc 83 73 3c cf 9c 83 3b
       -0.025386775 -0.019253317 0.0148630105 0.004016496
000380 84 14 08 3e bc a9 08 bd 31 81 7c bc 00 6a 84 3a
       0.13289076 -0.033364996 -0.015411661 0.0010102391
000390 8f 7f d4 3c 24 67 3b bb a1 11 4c bd ae ec 39 ba
       0.02593973 -0.0028595412 -0.0498215 -0.0007092458
0003a0 2a 9a 13 bd a5 b6 99 bc ff ee ca bb 31 45 cf 3c
       -0.036035694 -0.01876385 -0.0061930413 0.025301548
0003b0 80 9d 6c 3d a2 bc 17 bc 1a 7b 19 bd be 0c 61 bc
       0.05776739 -0.009261282 -0.037470914 -0.013735948
0003c0 a6 5d 42 bc c3 87 e5 bb 47 e5 11 bc b8 30 8a bc
       -0.011863148 -0.0070047094 -0.008904762 -0.016868934
0003d0 cf 1b 66 3c e1 39 ba 3a d5 b0 da 3b 94 00 18 3d
       0.014044716 0.0014207923 0.006673912 0.037109926
0003e0 3d 3f fe 3b 68 c7 97 bd e9 ed d7 bc f4 54 ca bd
       0.0077590034 -0.074110806 -0.026358562 -0.09879485
0003f0 d9 05 05 3d 2b 60 7b 3c 4b 7e 27 ba fa 3b a1 3c
       0.03247628 0.015342752 -0.00063893636 0.01968192

bias f4 [128]
000000 1c 71 10 bd 13 e3 1b bb 1c ad 40 3d 1b b3 a1 bc
       -0.03526412 -0.002378647 0.04704009 -0.019738724
000010 bb c4 9e bb 11 0a a6 bb 6e ad 24 bc 4d 85 a9 3d
       -0.0048452294 -0.005067118 -0.0100511145 0.08277378
000020 a9 f6 17 bd 87 dd 1e 3d 63 5d 78 3b e7 7c b0 3c
       -0.037100468 0.038785484 0.003789746 0.021543933
000030 f8 4e 15 bd 20 8b 6c 3d 4c df a8 bd 50 61 45 bd
       -0.036452264 0.057749867 -0.082457155 -0.048188508
000040 71 90 8e bd 4e 7e 18 3d 30 92 28 bd 50 52 e1 3c
       -0.06961144 0.03722983 -0.04115504 0.02750507
000050 d6 ad 9f 3c be 7e be 3c cd 0d 87 3a ab 6d d4 bc
       0.019492071 0.023253795 0.0010303796 -0.0259312
000060 a3 0a 17 3d 10 bb 96 3c ec 84 45 3d 72 2f d8 bb
       0.03687538 0.018399745 0.048222467 -0.006597453
000070 4a c9 e2 bd 56 9d bf bb b2 5f d7 bc f9 6f a7 bd
       -0.11073549 -0.0058476133 -0.026290748 -0.08175654
000080 1a c6 8c bd d3 23 e4 bc 18 50 24 3c 28 1f 96 bc
       -0.068737224 -0.027849114 0.010028861 -0.018325403
000090 70 cc d4 3c 23 ae 15 bd a2 11 5e 3d 18 fe c0 bc
       0.02597639 -0.036543023 0.054216035 -0.023558661
0000a0 bc 49 98 3d e3 b2 d7 3c 0a 18 ad bc 1a 6c cb 3c
       0.07435939 0.026330417 -0.021129627 0.02483182
0000b0 14 62 95 3c 45 8c a4 3d d0 ee 47 bd ca 19 dd 3c
       0.018235244 0.08034567 -0.048811734 0.026989836
0000c0 d8 05 ce 3c 86 71 11 3b 2e f7 47 bc cd 4d cd bd
       0.02514927 0.002219291 -0.012204928 -0.10024605
0000d0 e7 f8 52 bc 85 a5 c4 bc ce af 12 bd dd 32 d3 bd
       -0.012876726 -0.024004707 -0.03581219 -0.10312436
0000e0 c8 5e 4d 3c 42 e1 02 3d 4d b1 38 3d e1 4f 0c bc
       0.012534805 0.031953104 0.045090962 -0.0085639665
0000f0 6e 00 6a bb 59 81 e3 3c bb e7 8b bd eb 1f a3 bc
       -0.0035705823 0.027771639 -0.068313085 -0.01991268
000100 7d c0 1e 3d bd 59 68 3d aa b6 7f 3d 3f 4d 03 bc
       0.03875779 0.056726206 0.06243006 -0.008014022
000110 ce 03 4e bc 8b c7 5b bc 5b 94 1b bc 70 1d 84 3d
       -0.012574149 -0.013414274 -0.00949582 0.06450927
000120 c2 e6 23 bc 54 15 13 3d 1b a9 21 3c da 50 e5 3c
       -0.010003747 0.035909012 0.009866978 0.027992655
000130 75 5c 22 bd 6f 04 98 ba 1a 72 99 3c 54 9f 77 bc
       -0.039638955 -0.0011598001 0.018731166 -0.01511367
000140 af 6d 60 3d 3d 38 d1 bc 61 50 dc 3c f9 56 28 bd
       0.054792102 -0.025539512 0.026893796 -0.04109857
000150 a6 93 c3 bc e1 4a 72 bc 12 a4 18 3d 22 04 9d bb
       -0.023874115 -0.01478836 0.037265845 -0.0047917524
000160 4f 8e a6 bb 7c 80 3f bd 48 e6 f5 bb 79 1d f3 ba
       -0.0050828825 -0.04675339 -0.0075042583 -0.0018548212
000170 00 a2 8b bb 6f 3f 83 bc bb 65 00 bb c4 37 e8 bc
       -0.0042612553 -0.016021458 -0.0019591886 -0.028346904
000180 31 4b ad 3c 61 b3 5a bd 25 5b bc 3b f2 fb b0 3c
       0.021154018 -0.053393725 0.00574817 0.021604512
000190 82 55 2d 3a cc 4c b6 3a e3 87 b2 bc 8d 7c da 3c
       0.0006612168 0.0013908385 -0.021793311 0.026670719
0001a0 b5 23 13 bd ee d8 06 bc 04 40 8e 3b b3 8e 49 3b
       -0.035922725 -0.008230431 0.0043411274 0.0030755221
0001b0 76 90 b1 bb d6 7e 21 3d a9 e8 cd 3b fc 6b 2c 3d
       -0.0054188324 0.0394276 0.006283839 0.04209517
0001c0 32 37 4e 3d 59 a5 a2 3b 80 ff 08 bd cb 3c d0 bc
       0.050345607 0.0049635586 -0.03344679 -0.025419613
0001d0 41 a9 22 3d 68 e2 47 bd c7 87 22 3d 90 94 83 bc
       0.039712194 -0.048799902 0.03968027 -0.016062051
0001e0 0f 2b 17 bd 92 69 bd bc a9 0d 93 bc ff 81 56 bc
       -0.0369063 -0.023121629 -0.01795085 -0.013092517
0001f0 41 81 17 bd 42 b4 03 bd b0 ab d8 bb b6 8d 2d 3a
       -0.0369885 -0.03215433 -0.0066122636 0.0006620543

weight f4 [64, 128]
000000 90 68 26 3e d7 f2 99 bd bc 72 af bd 26 9b 0e 3e
       0.16250825 -0.07517021 -0.08566806 0.13926372
000010 b1 de 9b 3d 75 7c b4 3d a1 62 23 3d a8 6c ed bd
       0.076108344 0.08812801 0.03988898 -0.1159299
000020 d5 a4 a6 3d f6 c0 0b bb 0c c0 3e bd c3 c4 4c be
       0.08136908 -0.002132473 -0.04656987 -0.19996934
000030 a4 ca d9 3d 39 5d a6 3d ec 88 df 3d aa 43 b7 3d
       0.10634354 0.081232496 0.10914788 0.08948453
000040 ef 05 e6 3d 2e 9e 24 bd c2 ee 12 3e db e1 c8 bd
       0.112316005 -0.040189914 0.14348891 -0.098087035
000050 5d dc 8d bd f1 5a ba bd 58 a7 5b 3c f3 3e 1b 3d
       -0.069267966 -0.09099377 0.013406597 0.03790183
000060 77 85 e1 bc a7 22 36 3d ba d3 ca 3b 21 bf 17 3e
       -0.027529461 0.04446664 0.0061897906 0.14819004
000070 93 72 32 3e cc e5 24 bd 1c 54 07 be 7c 65 16 3e
       0.17426519 -0.040258214 -0.13215679 0.1468715
000080 6c c6 c1 3d 62 82 86 3d a7 8a 5e bc 2f 2f de 3d
       0.09461674 0.06567837 -0.013582862 0.10848843
000090 7a f6 de bc e7 94 32 bd b2 f7 fe bd 8d d8 2b 3d
       -0.027217139 -0.043599036 -0.12449588 0.041954566
0000a0 f0 2e 2f bd a5 7a 4c b9 47 02 c3 3d 59 10 1c bd
       -0.042769372 -0.00019500645 0.09521919 -0.038101528
0000b0 b8 06 06 3d f5 07 ae bc 67 d2 bd 3d 00 27 bd 3b
       0.03272125 -0.021244029 0.09268647 0.0057724714
0000c0 42 55 13 bd e4 a7 8a bd 1c 66 8f 3d 69 dc 8d 3d
       -0.03596998 -0.06770304 0.07001898 0.069268055
0000d0 ad 87 21 be 61 81 8e 3d 74 7b 57 3d f8 9d 3e 3d
       -0.15774412 0.06958271 0.05260797 0.04653737
0000e0 c3 34 88 bd ae d1 74 3b 98 d9 ba bc f5 bd 0e 3e
       -0.066506885 0.0037356424 -0.022808835 0.1393965
0000f0 11 5b e0 bc 51 5a 6d bd d3 c0 72 3e 4c 37 a8 3d
       -0.027387174 -0.05794746 0.23706369 0.08213672
000100 93 ad e6 bd 16 7a 15 be 08 55 98 bd 3b 3e e6 3b
       -0.112635754 -0.14597353 -0.074380934 0.0070264614
000110 b9 ec 8d 3d 56 90 78 3e 92 cd a3 bc be 00 e8 bd
       0.06929917 0.2427381 -0.019995485 -0.113282666
000120 b7 25 99 bd 44 0c b7 bd 69 44 15 be b8 b7 50 bd
       -0.07477897 -0.08937886 -0.14576878 -0.050956458
000130 2f b1 33 3d c7 2b fb 3d 33 64 a7 bd 57 61 aa 3c
       0.043870147 0.12264209 -0.08173408 0.020798368
000140 79 ab 40 bd 21 0b 05 3e c9 4e 0b be 1d a4 0f bc
       -0.04703853 0.12992527 -0.13604273 -0.008767155
000150 47 76 a5 3d c8 4f 26 3d 48 40 d9 bd b5 2d 59 3d
       0.080792 0.04060343 -0.10607964 0.053022105
000160 3e dd 37 bd c2 40 42 bd d8 d4 a4 3d a9 f8 d9 bd
       -0.044888727 -0.04742504 0.08048409 -0.10643131
000170 02 ef 20 bd 8b ef e9 ba ee 94 24 be eb 0f 73 bc
       -0.039290436 -0.0017847879 -0.16072437 -0.014835338
000180 cc b5 8a ba b0 c8 85 3e 0c a0 9a bc c1 ec a6 3c
       -0.0010582744 0.26129675 -0.018875144 0.020376565
000190 56 56 d4 3d 0c c3 af 3d af 7c ed 3d 84 19 ef bd
       0.1036803 0.08582124 0.11596047 -0.116747886
0001a0 49 80 4b 3d b8 6a 19 bd 42 64 21 3e 29 82 80 bd
       0.04968289 -0.03745529 0.15760902 -0.06274826
0001b0 63 f7 c9 bc ce f3 cd bd 4c e4 10 bd 76 d5 00 bd
       -0.024654096 -0.10056268 -0.03537397 -0.031453572
0001c0 7f 16 2e 3d 59 e7 d6 bd ef ff c3 3d 0c a1 d3 3d
       0.042501923 -0.10493345 0.095703 0.10333452
0001d0 0a bd e1 bd 7b 82 95 3c 8b 33 88 bd 3d 47 10 3e
       -0.110223845 0.018250694 -0.06650456 0.14089675
0001e0 d2 50 a3 3c 57 f5 eb bd dd 06 12 3d 1b c1 23 3e
       0.019935999 -0.11521404 0.035651077 0.15991633
0001f0 b1 f2 ae 3c c3 1c e1 3d e6 f1 80 3d d1 21 17 3d
       0.021355959 0.10991814 0.062961385 0.036897484
000200 83 f5 ab 39 32 9f 2e ba 7f be a2 3a f3 2a 5f 3a
       0.00032798582 -0.0006661295 0.0012416391 0.0008513175
000210 14 37 b7 3a ed 46 55 ba 7b 86 08 ba 29 98 d3 3a
       0.0013978207 -0.0008135874 -0.00052080274 0.001614337
000220 b3 a4 c8 ba 32 4e 07 bb db 1f 05 3a ba c5 6a 3a
       -0.0015307873 -0.0020645973 0.0005078294 0.0008955855
000230 15 c7 34 38 85 70 83 3a 94 90 fc 39 1b b0 b0 b9
       4.3100754e-05 0.001002804 0.00048172905 -0.00033700545
000240 3e 44 36 38 f6 24 c6 39 f5 8a d8 38 db 59 05 ba
       4.3455737e-05 0.0003779304 0.000103255654 -0.0005086937
000250 42 18 a4 b9 a1 db ad 3a a2 6c 0c b9 3a aa 77 ba
       -0.0003129859 0.0013264307 -0.0001339191 -0.0009447668
000260 d0 2c c0 3a 41 38 3c ba f1 2a 37 b9 d5 39 97 b9
       0.0014661793 -0.00071800133 -0.00017468237 -0.00028844053
000270 f4 fd 1d b9 89 5f a2 38 d4 af a2 ba b8 98 84 ba
       -0.00015067292 7.742557e-05 -0.001241202 -0.0010116315
000280 cc 72 a3 3a dd 3b 29 39 7d ee b5 b7 19 23 d9 b8
       0.0012470125 0.00016139397 -2.1687936e-05 -0.00010353904
000290 8c 69 15 ba 85 c6 9e 3a 3f 29 47 38 6b cf 5b 3a
       -0.00056996266 0.0012113607 4.748371e-05 0.00083850947
0002a0 5a 62 5e 3a 1f ae 0d 38 44 b8 9b b9 8c df 4f ba
       0.00084832835 3.3779183e-05 -0.00029701192 -0.00079297344
0002b0 d3 94 61 ba 0b 80 5c 3a 3b 93 c9 ba da 58 b3 ba
       -0.00086052454 0.0008411414 -0.0015378961 -0.0013683096
0002c0 84 97 19 3a 9c 86 c4 ba 98 74 6e ba f2 e7 03 37
       0.00058590644 -0.001499373 -0.00090963533 7.862212e-06
0002d0 4e 20 1b 3b 69 8c 8f ba e2 d1 7c ba c8 23 e7 39
       0.0023670378 -0.001095188 -0.0009644312 0.00044086413
0002e0 4c 6b 05 b8 60 bc 1d bb 28 b2 57 3a 3f 17 ce 39
       -3.18096e-05 -0.002406858 0.00082281465 0.00039308702
0002f0 13 97 98 b9 68 54 7f 38 b7 0c e9 b9 38 40 4b 39
       -0.00029104258 6.0875347e-05 -0.00044450696 0.00019383512
000300 b9 71 3d ba 28 d1 5d 3a 60 7f 90 b8 10 ae 92 b9
       -0.0007226724 0.00084616477 -6.8901805e-05 -0.00027976977
000310 43 63 36 36 0b f2 22 ba 13 4c 32 3a 16 2d 37 38
       2.7177891e-06 -0.0006215877 0.0006801497 4.367259e-05
000320 2a 54 b1 38 12 b3 1b bb 5f b3 a6 39 eb 60 09 ba
       8.4556945e-05 -0.0023757857 0.0003179563 -0.0005240577
000330 ba e4 62 b9 cf 99 5b ba 07 28 02 ba 70 b8 cb b9
       -0.00021638247 -0.0008377106 -0.0004965071 -0.00038856594
000340 17 ee 5b 3a 2c c7 ba 3a d2 7f f4 b9 16 5d 11 3a
       0.0008389665 0.0014250032 -0.0004663454 0.0005545182
000350 ce b4 4c b7 cb ee f7 3a df b7 f5 39 29 2a 3d 3a
       -1.2201444e-05 0.001891577 0.00046867036 0.000721606
000360 0a 29 9b b8 54 91 f6 ba 67 84 97 3a da 77 84 3a
       -7.39862e-05 -0.0018811622 0.0011559845 0.0010106519
000370 30 77 5d 39 1d fa b5 3a e1 68 13 ba 07 d0 e9 37
       0.00021120603 0.0013883744 -0.0005623233 2.7872635e-05
000380 91 3e 09 3b 1a d7 d0 37 be 94 99 ba 83 0c 7a ba
       0.0020941833 2.4895697e-05 -0.0011717302 -0.00095386076
000390 60 c9 2e 3a 3a a4 76 ba 2c 2e 81 ba ec 26 92 3a
       0.00066675805 -0.0009408627 -0.0009855679 0.0011150516
0003a0 f6 4a 02 3b 0e dd e0 b5 b7 32 57 ba 97 a9 e2 39
       0.0019881106 -1.6753636e-06 -0.0008209156 0.00043232433
0003b0 89 6c 8b 3a 51 e1 b8 3a 4e 6a 2b b9 ca 4d b1 b9
       0.0010637204 0.0014105235 -0.00016347432 -0.00033818028
0003c0 88 65 98 39 85 fc b3 b9 91 86 95 38 40 9e 17 b9
       0.00029067346 -0.00034329682 7.1299386e-05 -0.00014459435
0003d0 3a 7a 0d bb 2d 76 08 ba 1f 29 2e bb ea 98 2b 39
       -0.0021587745 -0.0005205598 -0.0026574803 0.00016364796
0003e0 b3 7d c3 39 bc 92 3c bb 6c 19 8d ba bd 21 cb 39
       0.00037286952 -0.0028773984 -0.0010765023 0.00038744314
0003f0 4e e9 b6 39 64 76 dc 38 6b d5 0d 3a d0 16 e9 39
       0.0003488757 0.000105124695 0.0005410525 0.0004445822

bias f4 [64]
000000 36 0b df bd 0c 1a 2a 39 97 e9 9e bc 22 76 ae b8
       -0.1089081 0.00016222167 -0.019398494 -8.3189705e-05
000010 cb 05 ee b7 5e e1 3a bd ba 5a 9d bb ce 1f 87 3a
       -2.8374508e-05 -0.045625083 -0.004802075 0.0010309161
000020 67 e4 52 bc 0d bb aa 39 29 22 0d 39 1d 52 99 bd
       -0.012871838 0.0003256429 0.00013459534 -0.07486365
000030 46 4d be bc c2 80 59 bc 52 38 80 37 1e f3 a3 b8
       -0.023230206 -0.013275327 1.5285015e-05 -7.81773e-05
000040 59 f0 bd bd 8f 51 28 bc ae 91 d2 bd 70 69 31 b9
       -0.09274358 -0.010273351 -0.102816924 -0.00016919314
000050 52 bb 3f b9 f2 69 8e b9 e5 f0 22 39 f2 ee a2 b9
       -0.00018284962 -0.00027163286 0.00015539264 -0.00031077076
000060 e4 bf 86 3b f4 dc 5f bc 60 0c 8f 36 ae 3b 50 be
       0.0041122306 -0.013663519 4.2631727e-06 -0.20335266
000070 c7 df 1d b9 15 07 4a bd b3 04 60 bc 6d 79 db bd
       -0.0001505605 -0.04932316 -0.013672995 -0.107165195
000080 c7 43 ac 39 dd 05 8f 38 ca 78 d4 bc fa 0f 43 b9
       0.00032856895 6.8198635e-05 -0.025936503 -0.00018602601
000090 9e 24 c6 b9 32 a5 aa bc 3d 52 ac 3a d5 e2 bb 3c
       -0.00037792785 -0.020830724 0.0013147068 0.02293531
0000a0 7a cd 3c 3c 48 9a 42 3c 54 ef 85 3b 43 d2 14 39
       0.011523599 0.011877604 0.004087368 0.00014192708
0000b0 61 4a e5 bc b8 24 49 b9 86 46 3c b9 7c 0c b6 bd
       -0.027989568 -0.00019182533 -0.00017955349 -0.088891
0000c0 b1 4c bd b9 89 60 7b bd 94 9b 88 bb 57 85 c3 3c
       -0.0003610603 -0.06137136 -0.004168937 0.023867292
0000d0 00 31 85 bb 8d 3f ae bd 40 b4 8b bd f6 76 09 b9
       -0.004064679 -0.08508215 -0.06821489 -0.00013109655
0000e0 42 71 b4 38 52 1e b0 bc 1e b4 93 3c ef 35 00 3c
       8.604165e-05 -0.021498833 0.018030223 0.007825359
0000f0 f4 92 c6 b9 fb b9 69 39 98 c2 7b b7 85 1f 02 be
       -0.00037874992 0.00022289895 -1.5006073e-05 -0.12707336
