agent_checkpoints_1/actor_target.pth (torch_old, 324434 bytes, 6 tensors)

weight f4 [512, 24]
0	0x3eadb975	0.33930555
1	0x3e6d5019	0.23175086
2	0x3de39816	0.111129925
3	0x3eb21947	0.3478491
4	0x3dce34c5	0.10068659
5	0xbe8d4f86	-0.27599734
6	0xbd099dfe	-0.03359794
7	0x3e96e8c5	0.29474464
8	0x3e982f96	0.29723805
9	0x3e3fc04d	0.187257
10	0x3dc8d732	0.0980667
11	0x3e2968c3	0.1654387
12	0x3ef92551	0.48661283
13	0x3dca1ba5	0.09868554
14	0x3c4d4b76	0.012530198
15	0x3dad15f8	0.08451456
16	0x3e5be564	0.21474224
17	0x3d02bf13	0.031920504
18	0xbdbfb49b	-0.0936062
19	0x3da16750	0.078810334
20	0x3f0e6b11	0.5563212
21	0xbd7ffa99	-0.062494848
22	0x3de9eb8f	0.11421882
23	0x3eb02e40	0.34410286
24	0xbd31803d	-0.04333519
25	0xbdc384ba	-0.095468
26	0x3e237938	0.1596421
27	0xbdfe13b8	-0.12406105
28	0xbec77ff4	-0.38964808
29	0xbcf82155	-0.030289331
30	0x3d8edd04	0.06975749
31	0x3dbc9bc1	0.09209395
32	0xbdc7a4c9	-0.09748227
33	0xbccd55cc	-0.025065325
34	0xbe275862	-0.16342309
35	0xbdacd0c5	-0.08438257
36	0xbabb750f	-0.0014301854
37	0x3e1cb208	0.15302289
38	0xbbef8aeb	-0.0073102615
39	0x3e2c3a68	0.16819155
40	0xbd88bfc3	-0.06677201
41	0xbd9f0be6	-0.07765941
42	0xbc84d841	-0.0162164
43	0xbc8825ef	-0.01661965
44	0x3da6c90c	0.081438154
45	0xbf081dbd	-0.53170377
46	0x3d382ad9	0.044962738
47	0x3e2068c0	0.15664959
48	0x3eacb648	0.3373282
49	0x3ddfc18f	0.1092559
50	0xbd0fa76d	-0.03507178
51	0x3bbe47b5	0.005806888
52	0xbe183645	-0.14864452
53	0x3e1838c0	0.14865398
54	0xbe07ce1c	-0.13262218
55	0x3bee51d2	0.0072729373
56	0x3d3dec5c	0.046367988
57	0xbe0f43db	-0.13990729
58	0xbe50dfb0	-0.2039783
59	0x3dce94f3	0.100870036
60	0x3ecd3ef9	0.40087107
61	0x3da03f88	0.078246176
62	0x3e1f801e	0.15576217
63	0xbe1c0192	-0.15234974
64	0x3d89ea0e	0.067340955
65	0xbccbac6c	-0.02486249
66	0xbdcefc17	-0.10106676
67	0xbe8318f1	-0.25604966
68	0x3ef4791d	0.47748652
69	0x3f28ec00	0.6598511
70	0xbdadfe16	-0.08495729
71	0xbec67aea	-0.3876565
72	0xbd9a2e50	-0.07528365
73	0xbd863d2b	-0.065546356
74	0xbdb9e6fd	-0.09077261
75	0xbdaa2d6a	-0.08309443
76	0xbdc40be4	-0.095725805
77	0x3dc072b6	0.093968794
78	0x3d933f3e	0.07189797
79	0x3e321657	0.17391334
80	0xbc013eb5	-0.007888486
81	0xbe4865ef	-0.19570135
82	0xbd9047af	-0.070449226
83	0x3dbcaee9	0.09213049
84	0xbe23cac7	-0.15995322
85	0x3e668410	0.22511315
86	0x3e4821b5	0.19544108
87	0xbd3e6ac1	-0.046488527
88	0x3c223ecf	0.00990267
89	0x3bbaeda0	0.0057045966
90	0x3d27650c	0.04086785
91	0xbd3ee709	-0.04660705
92	0x3eafb262	0.34315783
93	0x3f15c4ba	0.58503306
94	0x3d7745e5	0.06036939
95	0x3e205ae0	0.15659666
96	0x3ec36cb7	0.3816888
97	0x3ebf8148	0.3740332
98	0xbc81c2b6	-0.015839916
99	0xbe0028b3	-0.12515526
100	0x3e7505b9	0.23927964
101	0x3e1211e7	0.14264642
102	0x3c79f4f4	0.015256155
103	0x3e5e0a5b	0.21683638
104	0x3eb32f25	0.34996906
105	0x3ec6cc26	0.38827628
106	0x3df9fb85	0.12206177
107	0x3dc1429b	0.09436532
108	0x3d6bd9a5	0.05758061
109	0xbda0ba16	-0.07847993
110	0x3bd153de	0.0063881716
111	0x3edadc08	0.42745996
112	0x3e537773	0.20651035
113	0x3f1d9349	0.61552864
114	0xbd4b544b	-0.049640935
115	0xbe022df9	-0.1271285
116	0x3d065dc2	0.03280426
117	0xbe18a72d	-0.14907522
118	0xbe58d300	-0.2117424
119	0xbd0bbdf4	-0.0341167
120	0xbe3753af	-0.17903017
121	0x3ea018f0	0.31269026
122	0xbd8a1113	-0.06741538
123	0x3dbbb592	0.09165491
124	0xbec3e096	-0.38257283
125	0xbda3c071	-0.0799569
126	0x3d2a1293	0.04152162
127	0xbe002d67	-0.1251732
128	0xbe009705	-0.1255761
129	0x3da71c5c	0.08159706
130	0x3d5ab7db	0.053397994
131	0x3cf825ce	0.030291464
132	0xbe2364a1	-0.15956356
133	0xbe800bd4	-0.25009024
134	0x3d6278c2	0.055290945
135	0x3d1db7d5	0.038505394
136	0xbc0190f4	-0.007908095
137	0x3efcb023	0.49353132
138	0xbe1a99c0	-0.15097713
139	0xbd9d14f9	-0.07670016
140	0x3d88bce4	0.06676653
141	0xbf1ad7b9	-0.60485417
142	0x3d66ab92	0.056315966
143	0x3b22a98d	0.0024820298
144	0xbd9b7cea	-0.07592185
145	0xbe9431b6	-0.28944176
146	0x3d064385	0.032779235
147	0xbe592708	-0.21206295
148	0x3e708c72	0.23491076
149	0x3df1b05e	0.118012175
150	0xbd0dabd7	-0.034587707
151	0xbdb5adcd	-0.088710405
152	0xbdcb2ab0	-0.09920251
153	0xbe16926b	-0.14704292
154	0xbddcd9e1	-0.107837446
155	0xbe649e06	-0.22325906
156	0x3ef97404	0.48721325
157	0xbe75e871	-0.2401445
158	0x3de112ad	0.1098989
159	0xbdcc372e	-0.09971462
160	0xbd61ab26	-0.05509486
161	0x3db6101f	0.088897936
162	0xbdc21b1f	-0.09477829
163	0x3dc84ae1	0.09779907
164	0x3f20c4f3	0.6280052
165	0xbe8a9268	-0.27064824
166	0x3dac61a6	0.084170625
167	0xbd60bcdc	-0.05486761
168	0xbeb41216	-0.35170048
169	0xbe1ff1a8	-0.15619528
170	0xbe1c685a	-0.15274182
171	0xbdf77b8c	-0.120841116
172	0x3eb6d4fe	0.35709375
173	0x3d3313a0	0.043719888
174	0xbbf4eea8	-0.007474739
175	0x3e31f95c	0.1738028
176	0xbe105166	-0.14093551
177	0xbe3e79d1	-0.18601157
178	0xbcc5661e	-0.024096545
179	0x3cb13898	0.021633431
180	0xbe951b6e	-0.2912249
181	0xbe88c706	-0.26714343
182	0x3d558442	0.052128084
183	0x3df4445b	0.119271
184	0x3cc34505	0.023836622
185	0xbeaedc71	-0.34152558
186	0xbd99e1e2	-0.07513787
187	0x3e15a694	0.14614326
188	0xbf0889c9	-0.53335243
189	0xbd66d671	-0.05635685
190	0x3dc68fd1	0.096953996
191	0x3bce95ba	0.00630447
192	0xbdd97f15	-0.10619942
193	0x3e7256a0	0.23665857
194	0xbe6072c7	-0.21918784
195	0x3d75adf5	0.05998035
196	0x3dc3e2f1	0.0956477
197	0x3d9cf217	0.076633625
198	0xbbca2614	-0.00616909
199	0x3e7f8afc	0.24955362
200	0xbdbcb67e	-0.09214495
201	0x3e8533bc	0.26016033
202	0xbe09ddd8	-0.13463533
203	0x3e8fd4d9	0.28092077
204	0x3e16f22a	0.14740816
205	0xbea5ab41	-0.3235722
206	0xbc9bd171	-0.019020768
207	0x3e88dfa8	0.26733136
208	0x3e046c4f	0.12931941
209	0x3e5bb308	0.21455014
210	0x3c855111	0.016274007
211	0x3eef09fd	0.46687308
212	0xbd709090	-0.058731616
213	0xbee6ddec	-0.45091188
214	0x3d203b90	0.039119303
215	0x3df52a8d	0.119710065
216	0x3f108b83	0.5646288
217	0xbd32673b	-0.04355548
218	0xbdb29cf8	-0.08721346
219	0x3c3fa8d7	0.011697969
220	0xbd55e2f9	-0.05221841
221	0xbc927671	-0.017878743
222	0x3dd50409	0.1040116
223	0x3e1c12d1	0.15241553
224	0x3f0edfe0	0.55810356
225	0xbdaef73c	-0.0854325
226	0xbc7d6d9f	-0.01546803
227	0x3e90f1e9	0.28309563
228	0xbea09211	-0.3136144
229	0x3e8063f8	0.2507627
230	0x3e0329bf	0.12808894
231	0x3e40123f	0.1875696
232	0x3f0043e0	0.5010357
233	0x3cd35881	0.025799038
234	0xbd675c7d	-0.056484688
235	0x3deb826b	0.11499485
236	0xbc00b6a7	-0.007856048
237	0xbd2c6b9f	-0.042094823
238	0x3df8efc1	0.121551044
239	0xbdf03076	-0.11727993
240	0x3e8b392b	0.27192053
241	0x3e28e63b	0.16494076
242	0x3de2948c	0.11063489
243	0xbd6ffad0	-0.058588803
244	0xbeb740af	-0.35791537
245	0xbe8e9a40	-0.27852058
246	0x3b21fc39	0.0024716987
247	0xbd8e6ae8	-0.069539845
248	0x3e991d9c	0.29905403
249	0xbe16bac8	-0.14719689
250	0x3d95b882	0.07310583
251	0xbe4a4d54	-0.19756061
252	0xbd02120c	-0.031755492
253	0xbd90855b	-0.070566855
254	0xbe170836	-0.14749226
255	0xbe4df393	-0.20112447

bias f4 [512]
0	0x37c65b4c	2.3645953e-05
1	0x3e034c68	0.12822115
2	0xbe33f565	-0.1757408
3	0xbb9f8498	-0.0048681013
4	0xbd4f5481	-0.0506177
5	0x3d88d1d2	0.06680645
6	0xbe0da3d2	-0.13832024
7	0x3e5461e4	0.20740467
8	0x3c47b10c	0.012188207
9	0x3e3edc44	0.18638712
10	0x3e0994f4	0.13435727
11	0xbcff150e	-0.03113797
12	0xbe79bb28	-0.243878
13	0x3e4893d8	0.19587648
14	0x3d36ce5c	0.044630393
15	0xbe1dff5b	-0.15429442
16	0x3d55e499	0.05221996
17	0xbce1c091	-0.027557643
18	0xbd912b80	-0.07088375
19	0xbe3d7dd5	-0.18505032
20	0xbe919f05	-0.28441635
21	0xbe39cee7	-0.18145333
22	0xbe2ca192	-0.16858509
23	0xbe27834e	-0.16358683
24	0x3d513937	0.051079955
25	0xbdc6fc4d	-0.09716091
26	0xbee6cc11	-0.45077565
27	0x3e75aa70	0.23990798
28	0xbddd8343	-0.10816052
29	0x3d43dca1	0.04781783
30	0xbe62fb88	-0.22166264
31	0x3dff3da9	0.124629326
32	0xbe0de575	-0.13857062
33	0x3d6f9844	0.05849482
34	0xbe892b38	-0.26790786
35	0x3ddda42c	0.10822329
36	0x3d2e1ea3	0.042509686
37	0xbe47624b	-0.1947109
38	0x3eb034a2	0.34415156
39	0x3e56f23b	0.20990841
40	0x3de23cda	0.11046763
41	0x3d2f2ac1	0.042765383
42	0xbe1d6cdf	-0.15373562
43	0xbec54ee4	-0.3853675
44	0xbc94760a	-0.018122692
45	0xbd65ac87	-0.056072738
46	0xbdf59e07	-0.11993032
47	0x3c691b34	0.014227677
48	0x3e23077a	0.15920821
49	0x3e6d76a6	0.23189792
50	0x3d945bad	0.07244048
51	0x3e557791	0.20846392
52	0x3e06e5ca	0.13173595
53	0xbe5103c3	-0.20411591
54	0x3e820096	0.25391072
55	0xbe243307	-0.1603509
56	0x3da7e2f8	0.08197588
57	0xbe649f13	-0.22326307
58	0xbeb82179	-0.35963038
59	0x3e97632e	0.29567856
60	0xbe19c4a7	-0.15016423
61	0x3ca33128	0.0199209
62	0x3d305c19	0.04305658
63	0xbd8357f9	-0.06413264
64	0xbeb06347	-0.34450743
65	0x3d063dd4	0.032773808
66	0xbe1b505d	-0.15167375
67	0xbdf06cdc	-0.11739513
68	0xbdeb5e5b	-0.11492606
69	0xbb221c30	-0.002473604
70	0xbe5cd1ce	-0.21564409
71	0x3d6aae21	0.05729497
72	0x3dfed2c3	0.12442543
73	0x3e25b339	0.1618165
74	0x3d82cc92	0.06386675
75	0xbd6a8bcf	-0.057262238
76	0x3e473e02	0.19457248
77	0x3daeee59	0.08541555
78	0xbe840c81	-0.2579079
79	0x3d4674a5	0.048451085
80	0xbe4f82e5	-0.20264776
81	0x3bc59507	0.0060297283
82	0x3c2c1f58	0.01050552
83	0xbd0b7409	-0.034046207
84	0xbdb837b8	-0.089950025
85	0x3e954515	0.29154268
86	0xbe9e574f	-0.30925986
87	0x3e398c8f	0.18120025
88	0xbe3acc53	-0.18242006
89	0xbd17ee74	-0.03709264
90	0x3dc3802a	0.0954593
91	0x3dd6f750	0.1049639
92	0xbe6afb57	-0.22947441
93	0xbea553ec	-0.3229059
94	0xbe37c112	-0.17944744
95	0x3da77769	0.081770726
96	0x3d913997	0.070910625
97	0x3e0455c2	0.12923339
98	0xbe847447	-0.25869963
99	0xbdb48458	-0.08814305
100	0xbe5c2d30	-0.21501613
101	0x3da25780	0.079268456
102	0x3de7a005	0.11309818
103	0x3e252516	0.16127428
104	0xbd8f639b	-0.0700142
105	0xbe504449	-0.20338549
106	0xbcfada33	-0.030621624
107	0x3ba50123	0.005035536
108	0xbd3fb499	-0.04680309
109	0x3eabe09d	0.33569804
110	0x3ca4ad93	0.020102298
111	0xbd765d27	-0.06014743
112	0xbec9a475	-0.39383283
113	0xbe386adc	-0.18009514
114	0xbe4d4eef	-0.20049642
115	0xbcc95067	-0.024574472
116	0xbe8ffc06	-0.28121966
117	0xbd8639c2	-0.06553985
118	0x3e5daa27	0.21646939
119	0x3e06d9ba	0.13168994
120	0x3d4e4cad	0.050366092
121	0xbeb6e6d6	-0.3572299
122	0xbe248e72	-0.16069964
123	0xbe0feaaa	-0.14054361
124	0xbe0f1643	-0.13973336
125	0x3df6a1e5	0.12042598
126	0x3e8268f2	0.25470692
127	0x3eefd526	0.46842307
128	0xbdb37228	-0.08762008
129	0x3de2bb8d	0.11070929
130	0xbe3e81f7	-0.18604265
131	0x3de408e6	0.1113451
132	0xbd78af22	-0.060713895
133	0x3e6511f0	0.22370124
134	0xbe556876	-0.2084063
135	0xbe11ec6e	-0.14250347
136	0xbe23c24f	-0.15992092
137	0x3d89ba45	0.06724981
138	0x3b8abfc5	0.0042342865
139	0xbe92973b	-0.28631005
140	0x3e818e32	0.253038
141	0xbd1e4ecd	-0.03864937
142	0x3e89d1d5	0.26917902
143	0xbe20495b	-0.15652983
144	0x3c8d0a4f	0.01721683
145	0xbea1998a	-0.31562454
146	0xbe77d233	-0.24201278
147	0xbe916e7a	-0.284046
148	0x3d8fea9c	0.0702717
149	0x3e15b926	0.1462141
150	0xbe6e998b	-0.2330076
151	0x3ce22ee4	0.02761025
152	0x3e9d7464	0.30752861
153	0x3e50a6d7	0.20376144
154	0xbdbf443f	-0.09339189
155	0xbe425bd3	-0.1898034
156	0x3e1ebce7	0.15501748
157	0xbe8b4f51	-0.2720895
158	0x3e77193a	0.24130717
159	0xbd8a7058	-0.06759709
160	0x3e287db6	0.16454205
161	0x3e232adc	0.15934318
162	0x3d9a62a6	0.07538347
163	0xbce46e81	-0.027884724
164	0x3e816e87	0.25279638
165	0x3e98bbb3	0.29830703
166	0x3e328f5b	0.17437498
167	0x3d3540c0	0.044251204
168	0x3de9c504	0.11414531
169	0x3e90db3a	0.28292257
170	0xbe867ea0	-0.26268482
171	0x3dff81b4	0.12475911
172	0xbd9494e8	-0.07254964
173	0xbe0a5e3a	-0.13512507
174	0xbd390045	-0.045166273
175	0xbd0b7716	-0.034049116
176	0x3dfbf73e	0.12303017
177	0xbde75f09	-0.112974234
178	0x3da81b46	0.08208327
179	0xbe24d726	-0.16097698
180	0xbe54a3f9	-0.20765676
181	0x3cef5b6a	0.029218394
182	0xbea4e527	-0.3220608
183	0xbd89dc6b	-0.067314945
184	0xbe0769fe	-0.13224027
185	0xbd4f0f63	-0.050551783
186	0xbeb9ad0b	-0.36264834
187	0x3e1bbcf0	0.15208793
188	0x3e32b9ae	0.17453644
189	0x3d166359	0.03671584
190	0x3e8c57a3	0.27410612
191	0x3e7bc7a3	0.24587874
192	0xbd68c13b	-0.056824904
193	0xbe332c95	-0.17497475
194	0xbdc5329d	-0.09628794
195	0xbe0f38d6	-0.13986525
196	0x3d93bdc6	0.07213931
197	0xbdb7f12a	-0.08981545
198	0xbe35ddf8	-0.17760456
199	0x3a177e92	0.00057790533
200	0xbe7e454f	-0.24831127
201	0xbe19cf06	-0.1502038
202	0xbdf613a3	-0.12015464
203	0x3e6c3755	0.23067982
204	0x3d8e2941	0.06941462
205	0xbccfabc8	-0.025350466
206	0x3e31d5da	0.17366734
207	0x3e61ace4	0.22038609
208	0xbd728a6c	-0.05921404
209	0x3cb4aa86	0.022053968
210	0xbd3e3ed0	-0.04644662
211	0x3e7da179	0.24768628
212	0xbdcafe45	-0.09911779
213	0x3e040886	0.12893876
214	0x3dfe6a47	0.124226145
215	0x3e5840ff	0.21118544
216	0xbe0db0ea	-0.13837019
217	0x3d975d7c	0.073908776
218	0x3cbdaa24	0.023152418
219	0xbbef6e94	-0.007306883
220	0x3d60874c	0.05481653
221	0xbde81cb6	-0.11333601
222	0xbe40d003	-0.1882935
223	0xbd6ea3f1	-0.058261815
224	0x3da25a6f	0.07927405
225	0x3e6859ab	0.22690456
226	0xbc49849d	-0.012299684
227	0x3e2f6e6b	0.17131965
228	0xbe494693	-0.19655828
229	0x3e10901e	0.14117476
230	0x3dcb0da2	0.0991471
231	0x3ddd960a	0.10819633
232	0xbdf09aa6	-0.11748247
233	0x3ed1ff97	0.41015312
234	0x3d75c4c1	0.060002092
235	0xbe8afbd2	-0.2714525
236	0xbde01ff2	-0.10943593
237	0xbd5208a5	-0.051277775
238	0xbc7b424f	-0.015335633
239	0xbd904af1	-0.07045544
240	0x3cb4d1ef	0.02207276
241	0xbe8c9393	-0.2745634
242	0x3b929168	0.0044729
243	0x3dcb2da8	0.099208176
244	0xbec2cc78	-0.38046622
245	0xbe8ec0bf	-0.2788143
246	0x3dcdb2f1	0.10043896
247	0xbe80de37	-0.25169536
248	0x3cd3090b	0.025761148
249	0x3e087816	0.13327059
250	0x3d65b8aa	0.056084312
251	0x3c8febdd	0.017568523
252	0xbc6743a0	-0.014115244
253	0x3df5660f	0.11982357
254	0xbd7f2462	-0.062290557
255	0xbe2de458	-0.16981637

weight f4 [128, 512]
0	0x3df61790	0.12016213
1	0x3bd799bf	0.0065796073
2	0xbb08658e	-0.0020812484
3	0xbe3296dc	-0.17440361
4	0x3e11ac62	0.14225915
5	0xbd661879	-0.056175683
6	0xbcf0b526	-0.029383253
7	0x3d6c1443	0.05763651
8	0x3dc3dba8	0.095633805
9	0x3e094a20	0.13407183
10	0x3ca85ad3	0.02055112
11	0x3cc6b291	0.024255069
12	0xbd001ef3	-0.031279515
13	0x3c45363c	0.012036856
14	0x3ca0c1b0	0.019623607
15	0x3d54c541	0.05194593
16	0x3d7dba1d	0.06194507
17	0xbdcb7d73	-0.09936037
18	0x3d9591ff	0.07303237
19	0xbdb8c977	-0.09022801
20	0xbed8bcf7	-0.4233167
21	0x3d200455	0.03906663
22	0xbcd5b4ce	-0.026087191
23	0xbe3b0d94	-0.18266898
24	0x3e467e34	0.1938408
25	0xbc8ed19f	-0.01743394
26	0xbdaa3133	-0.08310165
27	0xbcbd5fac	-0.023116909
28	0x3dbcdda3	0.09221961
29	0x3b411f50	0.0029468127
30	0xbd127310	-0.035754263
31	0x3b215577	0.0024617591
32	0xbdb4cf4b	-0.088286005
33	0x3e1630fb	0.14667122
34	0x3d15572a	0.03646008
35	0x3e0716b0	0.13192248
36	0xbc8497e8	-0.016185716
37	0xbd09cbd2	-0.033641644
38	0x3be2b188	0.006918136
39	0xbc9e1784	-0.019298322
40	0xbdd18ba8	-0.102317154
41	0xbdcce544	-0.100046664
42	0xbc93e5b4	-0.018053867
43	0x3df13f77	0.11779683
44	0xbd8d9f10	-0.069151044
45	0xbddebf69	-0.10876352
46	0x3c2e271b	0.010629441
47	0xbd952ef6	-0.07284348
48	0xbe08d855	-0.13363774
49	0x3c361f5c	0.011115875
50	0xbd1357d1	-0.03597242
51	0x3c4d2b71	0.012522564
52	0xbab54666	-0.0013830184
53	0xbc4891a7	-0.0122417575
54	0xbd2e2a3f	-0.042520758
55	0x3e17f1ca	0.14838329
56	0xbe8aaef8	-0.27086616
57	0xbde40fc9	-0.11135823
58	0x3d64fe5a	0.05590663
59	0xbce8c0a4	-0.02841217
60	0x3d37094e	0.044686608
61	0xbc248a83	-0.010042789
62	0xbd75225d	-0.059847225
63	0xbd1b18a6	-0.037865303
64	0xbd7b554f	-0.061360653
65	0xbd49cc8e	-0.049267344
66	0xbd9c545c	-0.07633278
67	0x3e1110e6	0.14166602
68	0x3da5e413	0.08100142
69	0x3c81d7d8	0.015849993
70	0xbd3d5c3d	-0.046230543
71	0x3cc6d8d8	0.024273321
72	0x3cbd497c	0.02310633
73	0xbce75341	-0.02823794
74	0xbd438c26	-0.047741078
75	0xbe196a1e	-0.14981887
76	0x3d563c72	0.05230374
77	0x3db384e0	0.08765578
78	0x3d955334	0.0729126
79	0xbca1355d	-0.019678766
80	0xbe285fa0	-0.16442728
81	0x3d396a12	0.045267172
82	0xbc127a18	-0.008940242
83	0xbd7e4dd3	-0.062085938
84	0x3d668c56	0.05628618
85	0x3d51a362	0.051181205
86	0x3db6fd42	0.08935024
87	0x3e055f78	0.130247
88	0xbc51b7c8	-0.0128001645
89	0xbd3880f4	-0.045044854
90	0x3d17c010	0.0370484
91	0x3bf7d622	0.0075633684
92	0xbcfc29fe	-0.030781742
93	0xbe2ba872	-0.16763476
94	0xbcde4be3	-0.027135795
95	0xbdb9ae14	-0.09066406
96	0x3e3949c8	0.18094552
97	0x3d9e67da	0.07734652
98	0x3e580ca4	0.21098572
99	0x3d6ec666	0.058294676
100	0x3d48af51	0.04899532
101	0xbdbe87d9	-0.09303255
102	0xbcc5f9b6	-0.024166923
103	0xbd7bb598	-0.06145248
104	0x3c849c09	0.016187685
105	0x3dce132e	0.10062252
106	0x3d28f325	0.041247506
107	0xbe007a73	-0.1254671
108	0x3e2921b3	0.16516761
109	0x3d71837a	0.058963276
110	0xbe410716	-0.1885036
111	0xbd866815	-0.06562821
112	0xb9d72d22	-0.00041041622
113	0xbdc8807c	-0.097901314
114	0xbbff2538	-0.0077864192
115	0xbe46b4f3	-0.19404964
116	0x3dcdf7ff	0.10057067
117	0x3d197c06	0.037471794
118	0x3e13bd55	0.14427693
119	0x3e221fdc	0.15832466
120	0xbdc7e8d9	-0.09761209
121	0x3d1297b0	0.03578919
122	0x3d3d66bf	0.046240564
123	0xbc765883	-0.015035751
124	0x3dd94c48	0.106102526
125	0xbd8645d7	-0.0655629
126	0xbd5695ef	-0.05238908
127	0x3c99be8d	0.01876762
128	0xbe40ccf7	-0.18828188
129	0xbd4e0fe9	-0.05030814
130	0x3d5a4fbc	0.053298697
131	0x3d2f6a42	0.042825945
132	0xbabaa139	-0.0014238722
133	0x3df3d658	0.11906117
134	0x3d767bfd	0.06017684
135	0xbdf5dbcd	-0.12004814
136	0x3daea53b	0.08527609
137	0x3e1517a6	0.14559802
138	0xbd3fc6bd	-0.04682039
139	0x3c84ead4	0.016225256
140	0xbaf8deb0	-0.0018987264
141	0xbdf17b9e	-0.11791156
142	0x3daed2be	0.0853629
143	0x3d056e15	0.032575686
144	0xbdeafbb5	-0.114737906
145	0xbd0f385f	-0.03496587
146	0xbe192951	-0.14957167
147	0xbc664774	-0.014055122
148	0xbc254fed	-0.010089857
149	0xbd7d8d53	-0.061902355
150	0xbd23386c	-0.03984873
151	0x3d3ffb12	0.0468703
152	0x3d365747	0.044516828
153	0xbe0f6e5a	-0.1400694
154	0xbc90ba4d	-0.01766696
155	0x3e346a03	0.17618565
156	0x3dfc8348	0.123297274
157	0x3c24e345	0.010063951
158	0x3d1e62b2	0.038668342
159	0x3e17a552	0.14809158
160	0xbb779fac	-0.003778438
161	0x3cd6988c	0.026195787
162	0xbd0de08c	-0.034637973
163	0x3d8721f4	0.06598273
164	0x3d28f432	0.041248508
165	0x3d823b11	0.06358922
166	0xbce07bf6	-0.02740286
167	0x3c5116d1	0.0127617875
168	0x3d86b1b5	0.06576864
169	0x3c9dbe84	0.019255884
170	0xbaed1656	-0.0018088322
171	0xbc053742	-0.00813085
172	0xbd19d3ce	-0.03755551
173	0xbca8fefe	-0.020629402
174	0xbc267c44	-0.010161463
175	0xbd92b95d	-0.071642615
176	0x3c50006e	0.012695415
177	0xbd7d7146	-0.061875604
178	0x3d3e28f2	0.046425767
179	0xbd9bed75	-0.07613651
180	0xbd26dfc4	-0.040740743
181	0x3e251b36	0.16123661
182	0x3d392b9c	0.045207605
183	0x3c042b20	0.008066922
184	0x3da025f6	0.078197405
185	0x3e1cd775	0.15316565
186	0x3d7a93a1	0.061175946
187	0x3d81f873	0.06346216
188	0xbced1e92	-0.028945241
189	0xbc862014	-0.016372718
190	0x3cb6909e	0.022285756
191	0xbc391dba	-0.011298591
192	0xbd0eaa5e	-0.034830444
193	0x3c82eff2	0.015983555
194	0x3c6afc14	0.014342327
195	0x3c9014ff	0.017588137
196	0x3e021e86	0.12706956
197	0xbc74adea	-0.0149340425
198	0xbd67f58d	-0.05663066
199	0x3e354b8e	0.17704603
200	0x3d120785	0.035651702
201	0xbc900d0d	-0.017584348
202	0xbdd520ff	-0.10406684
203	0x3dcff3f0	0.10153949
204	0x3d2f030a	0.042727508
205	0x3dba6c85	0.0910273
206	0x3bcced83	0.0062538995
207	0x3e605e60	0.21911001
208	0xbe229d32	-0.15880278
209	0x3dac2e64	0.08407286
210	0xbe642462	-0.22279504
211	0x3dc5617c	0.09637734
212	0xbd0d21a4	-0.03445591
213	0xbcd3be90	-0.025847703
214	0x3d90ef30	0.070768714
215	0x3dcb0ec0	0.09914923
216	0x3c4540e0	0.012039393
217	0x3cbb1271	0.022835942
218	0xbd8e5e84	-0.06951621
219	0x3ca5f61f	0.020258961
220	0xbd41f656	-0.047354065
221	0xbd14fffb	-0.036376934
222	0xbd03816a	-0.03210584
223	0xbe301fbd	-0.17199607
224	0x3df48a22	0.11940409
225	0x3d3727ac	0.04471557
226	0x3da36dcc	0.079799265
227	0xbd1878af	-0.037224468
228	0x3b950a27	0.0045483294
229	0xbdd21483	-0.102578185
230	0xbe357706	-0.17721185
231	0x3de9818a	0.11401661
232	0xbb7619ec	-0.0037552072
233	0x3db3f827	0.08787566
234	0x3d31424d	0.04327612
235	0x3b920786	0.0044564633
236	0x3d0a9e00	0.033842087
237	0x3de6ae8a	0.112637594
238	0xbc09f001	-0.008419038
239	0xbd86c055	-0.06579653
240	0x3b7addcd	0.0038279176
241	0xbe3e9e8c	-0.18615168
242	0x3d06d615	0.03291901
243	0xbda65bbc	-0.08122966
244	0xbe1c086d	-0.15237589
245	0x3dd9603f	0.106140606
246	0x3cbb9981	0.022900345
247	0xbd7ae2b7	-0.06125137
248	0x3d60188e	0.054710917
249	0x3dcd0086	0.100098655
250	0x3d780c46	0.06055858
251	0x3deabe85	0.1146212
252	0x3dc2f54c	0.09519443
253	0x3d01c618	0.031683058
254	0x3d3f45b1	0.046697322
255	0x3c66f22e	0.014095826

bias f4 [128]
0	0xbd5cb8a4	-0.053887025
1	0xbcad9640	-0.021189809
2	0xbe18b422	-0.14912465
3	0x3d6028f9	0.054726575
4	0xbd3a5746	-0.045493387
5	0x3ca82506	0.020525467
6	0xbd1868a3	-0.037209164
7	0x3b24c2c2	0.0025140499
8	0xbdab53b6	-0.08365576
9	0x3db1a412	0.08673872
10	0x3d63adf2	0.05558581
11	0xbde43465	-0.11142806
12	0xbc731c70	-0.014838323
13	0xbdd5f14d	-0.10446415
14	0x3b278c22	0.0025565703
15	0x3cc8abc6	0.02449597
16	0xbd0e7776	-0.034781896
17	0x3c678e23	0.014133009
18	0xbdaf4c57	-0.085594825
19	0x3d4972ae	0.049181633
20	0xbdc5dda6	-0.09661417
21	0x3d6cdc2d	0.057827163
22	0x3cff7655	0.031184355
23	0x3d945e3a	0.07244535
24	0x3c37486e	0.011186702
25	0xbd92bc59	-0.07164831
26	0xbc73b051	-0.01487358
27	0xbc9a2c70	-0.018820018
28	0xbd2a0083	-0.041504394
29	0xbbeb3466	-0.0071778772
30	0xbc2755e7	-0.010213352
31	0x3da81911	0.08207906
32	0xbd764b87	-0.060130622
33	0xbd88789c	-0.066636294
34	0xbe22e184	-0.1590634
35	0x3cdd9dab	0.027052721
36	0xbdaf1ee8	-0.08550817
37	0x3d0c82b8	0.03430435
38	0x3c097f43	0.008392158
39	0xbe5b26cb	-0.21401517
40	0xbd65003b	-0.055908423
41	0xbca1e4cc	-0.01976242
42	0x3d9727ca	0.07380636
43	0xbd221b1c	-0.039576635
44	0xbccec86d	-0.025242055
45	0xbd270f8b	-0.040786307
46	0x3cf53701	0.029933454
47	0xbc9fdf77	-0.019515736
48	0xbd088782	-0.033332355
49	0xbdc0ec80	-0.09420109
50	0x3d6a2df2	0.057172723
51	0x3cd78f97	0.026313586
52	0xbdda7960	-0.10667682
53	0x3ba7acc9	0.005117033
54	0xbd67938d	-0.0565372
55	0x3dda2db1	0.10653246
56	0xbdc2bc58	-0.0950858
57	0xbe05e302	-0.13074878
58	0x3d99ab39	0.07503361
59	0xbd379f54	-0.04482968
60	0x3cc22f60	0.02370423
61	0xbe1881c5	-0.14893253
62	0xbe139342	-0.14411643
63	0xbe86e65e	-0.2634763
64	0x3c8bc243	0.017060405
65	0x3de644a2	0.112435594
66	0xbd4619e1	-0.048364524
67	0xbc576f5b	-0.013149108
68	0x3c199135	0.009372999
69	0x3d19ebd4	0.03757842
70	0x3ce6eadb	0.02818816
71	0xb8f9d9ab	-0.00011913789
72	0xbd726f6a	-0.059188284
73	0xbdc79d8d	-0.09746847
74	0x3d729cfb	0.05923174
75	0x3c3e24e4	0.011605475
76	0xbd8811d7	-0.06644028
77	0xbd8be885	-0.06831459
78	0x3d0b715a	0.034043647
79	0x3d37ba64	0.04485549
80	0x3cc56b14	0.02409891
81	0x3c8589cd	0.01630106
82	0xbb1d15c0	-0.0023969263
83	0xbd709c20	-0.058742642
84	0xbd7064c2	-0.05868984
85	0xbdc5dd6a	-0.09661372
86	0xbd2f21cc	-0.04275684
87	0xbe11d905	-0.14242943
88	0xbd37d72e	-0.044882946
89	0x3ccb4668	0.024813846
90	0x3d195b75	0.037440736
91	0xbd443fb8	-0.04791233
92	0x3ca3717a	0.01995157
93	0x3baf1c95	0.0053439834
94	0xbc38f4fe	-0.011288879
95	0xbb00b8dd	-0.0019641437
96	0xbc614e00	-0.013751507
97	0xbcadd9f6	-0.021222096
98	0xbd269f70	-0.040679395
99	0x3b87dbda	0.0041460814
100	0x3e018cfc	0.12651438
101	0xbe03d85c	-0.12875503
102	0xbd864aae	-0.06557213
103	0xbdc23dbe	-0.09484433
104	0x3d2d537b	0.04231594
105	0xbcf59e58	-0.02998273
106	0xbe05953c	-0.1304521
107	0xbd5457bf	-0.051841494
108	0x3e09a6d2	0.13442543
109	0xbc8c45b3	-0.017123079
110	0xbd209409	-0.039203677
111	0x3d94839f	0.07251667
112	0x3cf70f64	0.030158706
113	0xbe13cb94	-0.14433128
114	0xbe374a2a	-0.17899385
115	0x3d9fedda	0.078090385
116	0xbd96d1e4	-0.07364252
117	0xbd6b7c44	-0.057491556
118	0x3c03e6a1	0.008050592
119	0x3c2ea28b	0.01065887
120	0xbd8068c9	-0.06269986
121	0xbbe5ee19	-0.007016909
122	0xbd533f0a	-0.05157379
123	0xbd989c14	-0.074516445
124	0xbd51ba43	-0.051203024
125	0xbcd0ec34	-0.025503255
126	0x3d5b78b6	0.053581916
127	0x39082143	0.00012982362

weight f4 [2, 128]
0	0x3e0925b7	0.13393293
1	0xbdf0f70f	-0.11765873
2	0x3df9532a	0.121740654
3	0x3d3ff322	0.04686273
4	0xbeb50abd	-0.35359755
5	0x3eb35c04	0.3503114
6	0x3e9afcc1	0.3027096
7	0xbe545c7d	-0.20738406
8	0x3ea6eb46	0.32601374
9	0x3e80eca6	0.25180548
10	0xbe8ec2cd	-0.27882996
11	0x3e585762	0.21127084
12	0xbe8a133d	-0.26967803
13	0x3ec200e6	0.3789131
14	0xbcb341aa	-0.021881897
15	0xbe05cc62	-0.13066247
16	0x3df98018	0.12182635
17	0xbdaa66d2	-0.08320393
18	0x3e0fa0e1	0.14026214
19	0x3e2a52e8	0.16633189
20	0xbe1fba05	-0.15598305
21	0xbe834c18	-0.25643992
22	0xbeb56918	-0.35431743
23	0xbd692bc1	-0.056926493
24	0x3e07af3b	0.13250439
25	0x3dd534d4	0.10410467
26	0xbe0659af	-0.13120149
27	0x3dba582d	0.090988494
28	0x3de8e14f	0.11371099
29	0x3ead3a00	0.33833313
30	0x3e8106b7	0.25200436
31	0xbd169102	-0.036759384
32	0x3e8c29ff	0.2737579
33	0xbdccebd8	-0.10005921
34	0xbd6bd6fe	-0.05757808
35	0x3f14632c	0.57963824
36	0x3e6d81c6	0.23194036
37	0x3e0bfe39	0.13671197
38	0x3da44993	0.08021846
39	0x3e9c4996	0.30524892
40	0x3de51c6c	0.11187062
41	0x3f3805cf	0.71883863
42	0xbcb6641b	-0.02226453
43	0x3dd2c043	0.10290577
44	0xbe03eeed	-0.12884112
45	0x3dc94208	0.098270476
46	0x3c731d27	0.014838493
47	0x3e2e77b9	0.17037858
48	0xbd48c1b2	-0.049012847
49	0x3ba4d06c	0.0050297286
50	0xbe499b14	-0.19688064
51	0x3d5076b2	0.050894447
52	0xbd75a2b1	-0.059969608
53	0xbe726285	-0.23670395
54	0xbacbe1f4	-0.001555501
55	0xbd988048	-0.07446343
56	0x3df9cf2b	0.12197717
57	0x3e723d7d	0.23656268
58	0x3e7e628c	0.2484228
59	0x3e2bacdb	0.16765158
60	0x3c09521d	0.008381394
61	0x3e7baaba	0.24576846
62	0x3eb310e5	0.34973827
63	0x3ecb6875	0.39728132
64	0xbe1590f1	-0.14606072
65	0x3e9a3222	0.30116373
66	0x3b8eb951	0.0043555875
67	0xbe4f2ecc	-0.20232695
68	0x3f15ebb2	0.5856277
69	0x3e0b5b11	0.13608958
70	0x3b3fc44f	0.0029261296
71	0x3e80626d	0.25075093
72	0x3d11d944	0.03560759
73	0xbea978a5	-0.33099857
74	0xbe228f2c	-0.15874928
75	0xbd884fad	-0.06655822
76	0xbe2e6b30	-0.17033076
77	0x3e46f2d0	0.19428563
78	0xbe09e8aa	-0.1346766
79	0x3e652199	0.22376098
80	0xbe492d38	-0.19646156
81	0xbe410667	-0.18850099
82	0xbe7e1e64	-0.2481628
83	0x3ea9c1f1	0.33155778
84	0xbe0c65f7	-0.13710772
85	0x3e8d46ac	0.2759298
86	0xbd5aaabb	-0.053385478
87	0x3e1f2e5e	0.15545031
88	0x3e06c6d9	0.13161792
89	0xbd53efaf	-0.051742252
90	0xbb8e0aab	-0.004334768
91	0x3e98829a	0.2978714
92	0xbe969421	-0.29409888
93	0xbd0a7707	-0.03380492
94	0x3de4429a	0.11145516
95	0xbe725a3f	-0.23667239
96	0xbe7cf6f7	-0.24703585
97	0xbeb251fb	-0.3482817
98	0x3e426d85	0.18987091
99	0xbe85ca15	-0.2613074
100	0xbd52cb81	-0.051463608
101	0x3eb4e1a4	0.353284
102	0x3dba410a	0.090944365
103	0xbda17ff6	-0.07885735
104	0x3e0e65ab	0.13905971
105	0xbdfccd92	-0.12343897
106	0x3e0f988c	0.14023036
107	0x3e3cb8a2	0.18429807
108	0x3dc18cc8	0.0945068
109	0xbd36def5	-0.044646222
110	0xbcf9eed2	-0.030509386
111	0xbe00ae7f	-0.12566565
112	0x3de9cace	0.11415635
113	0xbdbbdb5c	-0.09172699
114	0x3e9cf60f	0.30656478
115	0xbdbb8782	-0.091567054
116	0x3e1e196e	0.15439388
117	0x3e2f888b	0.17141931
118	0x3e65dc38	0.22447288
119	0xbea59001	-0.3233643
120	0x3e24ca2f	0.16092752
121	0xbddc6e16	-0.10763185
122	0xbe4f5512	-0.20247295
123	0x3e41ab81	0.1891308
124	0xbd901f25	-0.0703719
125	0x3e1a8658	0.1509031
126	0x3f1b5e11	0.6069041
127	0xbec64df8	-0.3873136
128	0xbed9fabc	-0.42574108
129	0xbe56f565	-0.20992048
130	0x3e42ee17	0.19036137
131	0xbe5c4471	-0.21510483
132	0x3e442b2b	0.19157092
133	0x3e39d056	0.1814588
134	0xbe16920a	-0.14704147
135	0x3e3351b3	0.17511635
136	0x3e30376d	0.17208643
137	0xbd3ad88c	-0.04561667
138	0xbdf68608	-0.12037283
139	0xbd20dd6d	-0.039273668
140	0x3cef487e	0.029209372
141	0x3dcb997c	0.09941384
142	0x3ec12c37	0.37729046
143	0x3e749586	0.23885164
144	0x3cab8b9a	0.02094059
145	0xbe6a4f8d	-0.22881909
146	0xbeea9179	-0.45814112
147	0x3e5da677	0.21645533
148	0x3db02a9a	0.086018756
149	0xbe510e5c	-0.20415634
150	0xbdb177eb	-0.08665451
151	0xbe9fe30a	-0.31227905
152	0x3de83ce1	0.11339737
153	0x3ed00911	0.40631917
154	0x3e4538a5	0.1925989
155	0xbea1a51f	-0.3157129
156	0xbe0937ec	-0.13400239
157	0x3d8320cd	0.06402741
158	0x3e4e2302	0.20130542
159	0xbebc2373	-0.36745796
160	0x3f206751	0.6265765
161	0x3e864ba5	0.26229587
162	0x3ef5ef7a	0.4803427
163	0x3e81b37e	0.25332254
164	0x3c9c9015	0.019111672
165	0x3d1c6a8a	0.03818754
166	0xbe97917d	-0.29603186
167	0x3e9bf22f	0.3045821
168	0x3e7a86dc	0.24465507
169	0x3ec2f073	0.38074073
170	0xbe9b7153	-0.30359897
171	0xbe899c65	-0.26877132
172	0xbe93fe9a	-0.28905183
173	0xbdb0bcc4	-0.08629754
174	0x3e946a33	0.28987274
175	0xbe8a34c6	-0.26993388
176	0x3e4807e2	0.19534257
177	0x3e96c4bc	0.2944697
178	0xbe53f35a	-0.206983
179	0x3e812082	0.25220114
180	0x3ebf3fbd	0.37353316
181	0x3de1badf	0.11021971
182	0x3e6e5694	0.23275214
183	0xbd2b5e4e	-0.041837983
184	0x3cc43c1f	0.02395445
185	0xbda2352f	-0.079203
186	0xbe96d4f2	-0.2945934
187	0x3e98df20	0.2985773
188	0xbf06c329	-0.5264154
189	0x3dc5ff8c	0.09667882
190	0xbeb5a159	-0.3547466
191	0x3ec5661f	0.38554475
192	0xbe8fdef4	-0.28099787
193	0xbdffa6db	-0.12482997
194	0x3e87eaa3	0.265462
195	0x3e65b100	0.22430801
196	0x3dabbdf7	0.08385842
197	0xbdb7cf33	-0.08975067
198	0xbead313e	-0.3382663
199	0xbbd3de67	-0.0064657214
200	0xbf1e5fc6	-0.6186489
201	0x3eb0f2d1	0.34560254
202	0x3dc04b40	0.09389353
203	0xbeb07b85	-0.34469238
204	0x3e14308f	0.14471649
205	0x3e81e618	0.2537086
206	0x3e9a525e	0.30140966
207	0xbe03344b	-0.12812917
208	0x3ea96f78	0.33092856
209	0xbe9694b8	-0.29410338
210	0xbde60289	-0.11230952
211	0xbd3eb49d	-0.046558965
212	0xbf0fc885	-0.56165344
213	0x3d966874	0.073441416
214	0x3e8806ae	0.26567596
215	0xbe77bd0a	-0.24193206
216	0x3e16954e	0.14705393
217	0x3d2df41e	0.042469136
218	0xbf19d05d	-0.6008356
219	0x3d8c9dc0	0.06866026
220	0x3e111868	0.14169466
221	0x3ec5ecb1	0.38657144
222	0x3af2cc4d	0.0018524021
223	0x3dfbb77c	0.12290856
224	0x3e9370ea	0.28797084
225	0xbd4a91cd	-0.049455453
226	0xbdae814b	-0.085207544
227	0xbe81c8fe	-0.25348657
228	0xbecc95a8	-0.3995793
229	0x3d53583e	0.051597826
230	0x3e46e77b	0.1942424
231	0xbed14b69	-0.40877846
232	0xbcb809bc	-0.02246558
233	0x3e876504	0.26444256
234	0x3e518557	0.20461021
235	0x3e00fc90	0.12596345
236	0xbed964ca	-0.42459708
237	0x3dc92110	0.09820759
238	0xbe95b36c	-0.2923845
239	0xbe3e2c55	-0.18571599
240	0xbe30735e	-0.17231509
241	0x3e05e221	0.13074543
242	0xbd93abc3	-0.07210495
243	0x3af86e65	0.0018953799
244	0x3ddf3e89	0.109005995
245	0x3d94831d	0.072515704
246	0x3da7e675	0.08198253
247	0x3e58c69e	0.21169516
248	0x3ed9e499	0.4255722
249	0x3d4752af	0.048662838
250	0xbdba5e83	-0.09100058
251	0x3df45ad3	0.11931386
252	0xbeabcac3	-0.33553132
253	0xbe705166	-0.23468551
254	0x3e5f3c14	0.21800262
255	0xbd53ecfe	-0.051739685

bias f4 [2]
0	0xbda81f6d	-0.08209119
1	0xbdad2a5b	-0.08455344
