agent_checkpoints_1/actor_local.pth (torch_old, 324434 bytes, 6 tensors)

weight f4 [512, 24]
00000000: 1fd6 ae3e b812 643e 610b d43d 04a2 b53e
00000010: 7cef cf3d e31c 90be 50b2 28bd 1472 9a3e
00000020: 5488 993e 2ee7 353e aee2 b63d f3e6 273e
00000030: 6ab3 fa3e 6400 cb3d 03d1 763b 8013 aa3d
00000040: 88b7 603e 2d3c 9d3c 650f c1bd 8fe5 a33d
00000050: a493 103f b3c3 82bd 478d e83d 99cc b03e
00000060: a1ad 26bd 0826 c3bd e9a1 253e af51 fbbd
00000070: d282 c8be e24b e7bc 6930 933d d159 bf3d
00000080: 8601 c2bd 3fdb d6bc 4927 24be 1c9d b5bd
00000090: 6aa5 1cbb 59c2 1c3e 8698 89bb fcd1 273e
000000a0: 4692 84bd 60de a7bd 8972 a3bc 9ecf 62bc
000000b0: afe7 a53d 6281 08bf 97db 283d 0c3f 233e
000000c0: a531 ac3e b8be c93d b2be 12bd 81bc 4a3b
000000d0: fae2 18be 84de 153e 3193 08be 0d68 953b
000000e0: bbd4 3b3d 1f0f 17be ffa5 4fbe bcac ce3d
000000f0: f917 cd3e 8d45 9d3d a7b6 203e fdf3 1bbe
00000100: 01e7 883d 91ea fdbc 00e1 cfbd dceb 81be
00000110: 3a44 f43e f2f8 293f 04e3 aebd 154d c5be
00000120: 5e2b a0bd 3892 98bd 454b cbbd f26d a3bd
00000130: 30da cdbd ac02 c93d 25d8 813d d073 353e
00000140: 6ad0 33bc dcbb 50be e12f 91bd 71bb b33d
00000150: 1e57 25be f90e 6d3e faaa 473e 474d 50bd
00000160: cae2 b93b 4e92 5fbb c214 173d 7e86 5fbd
00000170: 64bd b03e 4adf 173f f3f4 663d 5231 183e
00000180: 6c82 c43e bfcb be3e bcb2 86bc 635b 05be
00000190: f320 733e 96f3 183e 9310 703c cdd4 583e
000001a0: e88f b33e c9a8 c53e 65a1 f03d f282 be3d
000001b0: d240 703d dce0 94bd 9d41 ef3a 5a2a da3e
000001c0: 2427 533e 28c6 1c3f a418 54bd 8d06 04be
000001d0: 1837 193d db21 17be 9302 5bbe e123 13bd
000001e0: cfdf 3bbe 071c a43e a820 8dbd 4c77 be3d
000001f0: 545d c4be 2c7d a6bd 97ef 233d 5495 fdbd
00000200: bf86 05be cee8 b73d 04c8 4b3d 6d2f f33c
00000210: 3abc 22be 004a 82be cc88 533d 503c 1b3d
00000220: 27bd 54bc 5d87 ff3e 9f8b 1bbe b59f acbd
00000230: 5222 8c3d cc6c 1abf abdc 623d d16b a7bb
00000240: 72f0 a3bd 5586 8ebe 9451 f93c 3311 5cbe
00000250: 005f 753e b38d fc3d 4344 17bd 6284 bbbd
00000260: abc9 d4bd 2f90 0dbe a301 dbbd 5987 65be
00000270: 2f38 fb3e fd4b 71be 1fe7 e23d fd0b cebd
00000280: 6eb2 7bbd 91b8 c23d 0d16 d5bd a215 c13d
00000290: a7c5 203f 3295 86be bd63 993d 2f22 6fbd
000002a0: 6be3 b3be 09db 22be 24ce 19be ca1c febd
000002b0: e8c8 b73e 0432 333d 03d6 a1bb 28a6 2e3e
000002c0: e8d7 10be 1965 41be ff24 eebc b89e da3c
000002d0: f315 95be 928e 88be 5a22 413d 439c fe3d
000002e0: 408e bd3c a20b aebe c4a2 9abd 8849 1d3e
000002f0: 931b 09bf 5fcd 62bd b6cb c53d 078a 613c
00000300: 3b73 c6bd 0914 6f3e d7d5 65be 5b4c 7b3d
00000310: 2399 a73d 49b1 933d ae60 3bbc 7878 803e
00000320: 7a02 acbd f914 853e d8ec 0fbe 6a75 8e3e
00000330: 5dfb 0b3e 2502 a9be ac51 ccbc 0080 873e
00000340: 7c3c 0c3e abb6 5a3e 6185 223c 2cb3 ec3e
00000350: c4a9 87bd c9b2 ebbe 7c33 063d e4d5 eb3d
00000360: 5a1e 153f b6ce 44bd 2c3e aebd fa93 3b3c
00000370: 49ad 67bd 704d 8ebc 645f d93d facf 1b3e
00000380: ed1e 123f bf84 b9bd e0bd 89bc f6fa 903e
00000390: 2fdb a2be 8e70 7f3e 9fc7 013e bd24 403e
000003a0: 84c5 fa3e a52e 903c 083e 83bd bf52 e23d
000003b0: d0d2 4ebc 7270 38bd cf5c e93d 235c f9bd
000003c0: 29d0 883e cd70 233e 49c3 e33d 59ab 66bd
000003d0: 9235 b4be afdf 8ebe b408 483b fac2 89bd
000003e0: 96b4 963e 77e3 1bbe 89f3 843d 4706 4abe
000003f0: b2c5 e5bc 01a0 8dbd b568 1fbe b3ac 4dbe
0.34147736 0.22272766 0.10353733 0.3547517 0.101531 -0.2814704 -0.041185677 0.3016516
0.29986823 0.1776397 0.089299545 0.16396694 0.48965007 0.09912184 0.0037661202 0.083045006
0.21945012 0.019193733 -0.094267644 0.08002769 0.5647528 -0.06384983 0.113550715 0.34531096
-0.04069293 -0.09528738 0.16175045 -0.12271439 -0.39162308 -0.028234426 0.07186968 0.09343303
-0.09472947 -0.026227592 -0.16030611 -0.08867857 -0.0023902305 0.15308513 -0.0041990904 0.16388696
-0.06473212 -0.081967115 -0.019952076 -0.013843445 0.08100831 -0.5332242 0.041225042 0.15942019
0.33631626 0.0985083 -0.035826392 0.003093511 -0.14930335 0.14635664 -0.13337399 0.004559523
0.045857172 -0.14751862 -0.20278166 0.1009154 0.40057352 0.076792814 0.15694676 -0.15229793
0.066846855 -0.030995639 -0.10150337 -0.2537526 0.47708303 0.66395485 -0.085393935 -0.3853537
-0.07820772 -0.07449764 -0.09926466 -0.07979955 -0.100513816 0.09814963 0.063400544 0.1771996
-0.010974983 -0.20384163 -0.0708921 0.08775986 -0.16146514 0.23150243 0.19498816 -0.050854947
0.0056727873 -0.0034114304 0.03688503 -0.05457162 0.34519494 0.5932509 0.056385946 0.14862564
0.38380754 0.3726482 -0.016442649 -0.13023143 0.23743038 0.1493667 0.014652389 0.21174927
0.3507073 0.38605335 0.117495336 0.093023196 0.058655567 -0.07269451 0.0018253807 0.42610437
0.206204 0.6123986 -0.05178131 -0.12893124 0.037406057 -0.14759009 -0.213877 -0.03592289
-0.18347095 0.32052633 -0.06890994 0.09300098 -0.38352454 -0.081293434 0.040023413 -0.12381998
-0.13039683 0.08979951 0.049751297 0.0296857 -0.15892115 -0.25447083 0.05164413 0.037899315
-0.012984551 0.4990796 -0.1518998 -0.08428899 0.068424836 -0.6032226 0.055386227 -0.0051092883
-0.08004846 -0.27836862 0.030434407 -0.21490936 0.23962021 0.123317145 -0.036930334 -0.091561094
-0.103900276 -0.13824533 -0.106936716 -0.22414912 0.49066302 -0.23564143 0.11079239 -0.1006088
-0.06144946 0.095078595 -0.104045965 0.09427954 0.62801594 -0.26285702 0.07489727 -0.05838221
-0.35134444 -0.15903868 -0.15020043 -0.12407835 0.35895467 0.04374887 -0.0049388423 0.17055571
-0.14144862 -0.18886222 -0.029070375 0.026687011 -0.29118308 -0.26671273 0.0471519 0.12432148
0.02313912 -0.3399325 -0.07550576 0.15360081 -0.535577 -0.05537164 0.096579954 0.013765818
-0.09689947 0.23347487 -0.22444855 0.061352115 0.081835054 0.07211549 -0.011436624 0.2509191
-0.0839891 0.25992563 -0.14055192 0.27823955 0.13670106 -0.3300945 -0.024941288 0.26464844
0.13694948 0.21358745 0.009919495 0.46230447 -0.06624177 -0.4603484 0.032763943 0.11515406
0.5824944 -0.048048697 -0.08507952 0.011448855 -0.056561742 -0.01737091 0.106138974 0.15216056
0.5707844 -0.090585224 -0.016814172 0.28316468 -0.3180785 0.2494528 0.12673806 0.18764015
0.48978817 0.017600367 -0.06408316 0.11050939 -0.012623504 -0.04502911 0.11394655 -0.12175777
0.26721314 0.15960999 0.11121232 -0.056315754 -0.3519712 -0.27905032 0.0030522766 -0.06726642
0.2943465 -0.1522349 0.06491763 -0.19728957 -0.02804837 -0.06915284 -0.15567286 -0.20085411

bias f4 [512]
00000000: bc05 a3bb 9c0c 033e a4e8 33be 3989 a0ba
00000010: 31af 4bbd 03ff 903d c1f7 07be 432c 553e
00000020: b2b0 b13b 714d 3d3e f0db 063e b71e 0cbd
00000030: 2675 76be 2b3f 493e 7bee 173d 104d 1ebe
00000040: dda6 4d3d c55e d4bc ce9a 92bd 99b9 3dbe
00000050: c56d 92be a6fb 32be e158 2abe 76c0 2cbe
00000060: 1613 4c3d 6abe c7bd 6345 e8be ec59 773e
00000070: 92d5 e0bd 978f 5c3d f8be 63be 5b99 013e
00000080: 0e0e 0dbe 5f20 8a3d da73 89be 11a1 e53d
00000090: 20a6 213d ad92 46be d82d b13e e1c8 513e
000000a0: e469 e23d ff5c 2f3d 681f 1fbe fc2e c8be
000000b0: 1d68 92bc 52d1 70bd 7f4d e4bd 21ac 633c
000000c0: f172 1c3e 7dc9 6f3e 215d 913d 545d 573e
000000d0: 6054 053e 4d77 53be 4eb6 7e3e b810 22be
000000e0: 20d5 a53d 853f 66be bd1f babe a0b4 9a3e
000000f0: ef78 18be 7e68 853c c539 313d f7e2 8cbd
00000100: d0a4 b2be 910b 103d a1a7 1bbe e676 f7bd
00000110: 3d8f f5bd b76f 0ebc b743 5bbe 0341 723d
00000120: 7c78 ff3d b7f6 263e c10b 7f3d 6bcc 78bd
00000130: c5e2 423e 60c2 aa3d f618 86be 46f3 463d
00000140: 5a93 4fbe 102b 1c3b 2825 423c 2ee1 18bd
00000150: c015 b7bd 53ec 953e 1174 9ebe a580 423e
00000160: 8783 3bbe bca5 15bd fe5a c73d a7f3 e13d
00000170: 1242 6bbe dad3 a6be 99a4 37be fa6f af3d
00000180: 54c5 923d 5958 033e def0 86be 6dbc b6bd
00000190: 07c7 5cbe 39d9 a83d 9ad8 e43d 839c 243e
000001a0: 8fe6 90bd 2430 57be 2c00 0ebd 2005 1d3b
000001b0: 98ce 2bbd 7eff a93e 438d 813c 311d 84bd
000001c0: 1359 c9be 5c2e 36be b27f 4dbe 8d0f a9bc
000001d0: 3fb0 8fbe c466 77bd 1a2f 663e 476b 073e
000001e0: ed0a 563d 579f b6be 18c2 22be 2302 06be
000001f0: 8511 0ebe 5780 f53d 658f 803e eeb5 ef3e
00000200: 0a3e b0bd 99f9 e23d 2bb1 43be c346 d73d
00000210: 0668 7ebd ba59 653e 1e48 59be ede5 14be
00000220: dd90 29be 77fe 8a3d 5a36 a83b 4ffb 8fbe
00000230: f3e8 803e a311 16bd 68f8 8a3e 7a7d 1ebe
00000240: 9229 963c 69b1 a3be f35e 76be ef6b 8fbe
00000250: 60bf 993d b98b 0d3e bd2c 63be 038d d53c
00000260: 2832 9d3e 2017 4e3e 7c58 c3bd 01fc 40be
00000270: b190 1f3e dde8 8abe d852 7e3e 0bff 88bd
00000280: c23b 273e 61b1 1f3e 78bf 973d a6b5 b9bc
00000290: 569a 823e ff99 993e 5804 373e f33c 423d
000002a0: db8a e03d 8f62 913e a89f 86be 8716 033e
000002b0: 2586 92bd 58ee 0cbe d05f 3dbd 5451 06bd
000002c0: 99d9 013e e0ed e8bd fe3b a43d c7b2 27be
000002d0: 19a9 55be 471d 0f3d be3c a4be 4a2f 8ebd
000002e0: 62bf 06be 8c07 40bd c4b4 b7be 41cb 1b3e
000002f0: 38b9 2e3e 0d8c 103d 872a 8b3e e453 793e
00000300: 3113 69bd 7143 29be c57c cabd c562 06be
00000310: e337 833d ad5c aebd 2bf6 37be 77a1 55bb
00000320: f409 7abe 0aa2 1abe fc8b fabd 68bf 693e
00000330: 7bd2 8c3d 9014 e2bc 1f17 323e e9da 5f3e
00000340: ed89 8cbd 3b71 c63c c35f 50bd a639 803e
00000350: 5ceb c6bd 76a7 033e 53be 033e 0f8d 543e
00000360: ee19 0fbe 609e 993d 3eda cf3c aeaa 64bc
00000370: 9673 5f3d 7b7f efbd 32d8 3fbe 89ca 71bd
00000380: d5ec aa3d 339a 663e d793 e7bb 5b38 2f3e
00000390: c55d 4fbe dfb9 0e3e afaf c53d f097 e03d
000003a0: 8a85 e4bd ce56 cf3e 327f 733d e449 8bbe
000003b0: 8fc1 ddbd d19a 54bd 3187 91bc 5fc5 91bd
000003c0: a26a aa3c cbf6 8ebe 9a5b 3e3c e603 ca3d
000003d0: d369 c3be 5a78 90be df7c d93d 7c6b 81be
000003e0: 43c3 d73c f4d6 073e 532b 823d ed5d 413c
000003f0: 8b78 1abc 598e f33d e414 86bd 6bda 32be
-0.004975049 0.12797779 -0.17569214 -0.0012247927 -0.049727622 0.070798896 -0.13278104 0.20817666
0.005422675 0.18486573 0.13169837 -0.03420898 -0.24068126 0.19653003 0.037092667 -0.15459085
0.05020796 -0.025924096 -0.07158433 -0.18527831 -0.28599373 -0.17478809 -0.16635467 -0.16870293
0.04982289 -0.097531155 -0.45365438 0.24155396 -0.10978235 0.053847875 -0.22240818 0.12656157
-0.13774893 0.067444555 -0.268462 0.112123616 0.03946507 -0.1939189 0.34605289 0.20486785
0.11055353 0.042813297 -0.15539324 -0.39098346 -0.01787191 -0.058793373 -0.11147594 0.013896019
0.15278222 0.23416705 0.07097841 0.21031696 0.13020468 -0.20650978 0.24874231 -0.1582669
0.08097291 -0.22485168 -0.3635234 0.3021593 -0.14889883 0.016285177 0.043267984 -0.068792276
-0.34891367 0.03516728 -0.15200664 -0.12083225 -0.11990211 -0.008693627 -0.2141255 0.05914403
0.124741524 0.16305052 0.06226707 -0.060741823 0.19031818 0.08337855 -0.2619092 0.048571847
-0.20271054 0.0023829378 0.011849679 -0.037324123 -0.08939695 0.29281864 -0.30947927 0.18994386
-0.18311892 -0.03653501 0.09734152 0.11032801 -0.22974423 -0.32583505 -0.17933883 0.0856628
0.071665436 0.1282667 -0.26355642 -0.08922658 -0.21560298 0.08244557 0.11174126 0.1607533
-0.070752256 -0.21014458 -0.034668133 0.0023959354 -0.04194507 0.33202738 0.01581443 -0.0645088
-0.3932577 -0.17791122 -0.20068243 -0.020637298 -0.28064153 -0.06040074 0.22478905 0.13224517
0.052256513 -0.35668442 -0.15894353 -0.13086753 -0.1387387 0.119873695 0.251094 0.4681849
-0.08605583 0.11082763 -0.19110553 0.105115436 -0.062110923 0.22397509 -0.21218917 -0.14540835
-0.16559167 0.067868166 0.0051334323 -0.2812142 0.25177726 -0.036637913 0.27142644 -0.15477553
0.01833037 -0.3197129 -0.24059658 -0.28012034 0.07507205 0.13822831 -0.22185035 0.026068216
0.3070233 0.20126009 -0.095383614 -0.18846132 0.15582539 -0.27130786 0.2483629 -0.066892706
0.1633139 0.15595008 0.07409567 -0.022669625 0.25508374 0.30000302 0.17872751 0.047421407
0.109639846 0.28395507 -0.26293683 0.12801562 -0.07154492 -0.13762796 -0.046233952 -0.032792404
0.12680663 -0.11373496 0.08019255 -0.16376792 -0.20865287 0.03494003 -0.32077593 -0.069426134
-0.13158944 -0.046882197 -0.358801 0.15214254 0.17062843 0.035289813 0.27180883 0.24348408
-0.056903068 -0.16529633 -0.09887079 -0.13123615 0.06407144 -0.0851377 -0.17965 -0.0032597461
-0.2441786 -0.15100875 -0.12233731 0.22826922 0.068760835 -0.027597696 0.17391632 0.21860851
-0.06862245 0.024223914 -0.050872575 0.25043982 -0.0971286 0.1285685 0.12865572 0.20756935
-0.13974735 0.07500911 0.02537262 -0.013956709 0.05455359 -0.11694237 -0.18734816 -0.059031043
0.083459534 0.2251976 -0.0070671844 0.17111342 -0.20250614 0.13938092 0.096526496 0.1096648
-0.11158283 0.40495914 0.059447475 -0.27204812 -0.10827934 -0.051905457 -0.01776466 -0.07117724
0.0208028 -0.27922663 0.011618519 0.09864025 -0.38166675 -0.2821682 0.106195204 -0.25277317
0.026338225 0.13265592 0.0635592 0.011802179 -0.009428154 0.11892385 -0.06546953 -0.17466132

weight f4 [128, 512]
00000000: 52bb f53d 291d aa3b 871f 1bbb bf4a 32be
00000010: c7b6 173e 756c 61bd 4edb f8bc 7f1a 613d
00000020: aad4 bb3d 7246 043e d02a 6e3c 571a d53c
00000030: 1375 fcbc 9e6b 413c 8ce3 ae3c d9fd 513d
00000040: f804 883d cad9 cfbd bc8d 6c3d 2e0b bdbd
00000050: b400 d6be cbde 203d 59a5 d5bc fb96 41be
00000060: e5c7 463e cf6a 73bc f808 a3bd 4d15 f9bc
00000070: 4016 c33d c4b4 c93b 365d 03bd 295c 783b
00000080: 2dd4 a7bd d4b1 193e c3a9 233d 46fe 063e
00000090: 5860 82bc 7138 0abd dcd7 8fba 1f46 42bc
000000a0: b9fc d5bd 46f7 ccbd dcb7 80bc 1904 ec3d
000000b0: 8f1d 93bd de97 e0bd 2ee3 5e3c fd85 98bd
000000c0: 9a5a 12be a348 f03b 86dc 1fbd 447d e93b
000000d0: bf9c b4bb 1f70 74bc f6d4 17bd 15a4 173e
000000e0: 0a62 8abe 4466 f1bd c047 6c3d e512 0bbd
000000f0: 08da 403d efc1 12bc 7b7c 82bd 2770 2dbd
00000100: ec67 47bd b696 5ebd 12bc a5bd 55c5 143e
00000110: 91d3 9e3d 4271 6a3c 222e 4cbd ac81 ca3c
00000120: 78db eb3c af4d dfbc 4abe 38bd 046f 19be
00000130: a66d 433d c732 af3d 84a4 873d 8f8d 97bc
00000140: 34a5 27be 7de5 413d a134 1abb cbeb 88bd
00000150: f8e1 683d 1933 4d3d 42d8 b73d 990f 043e
00000160: 0c8e 2cbc a9fd 3ebd 6767 183d ee82 553c
00000170: c85b fdbc f3ff 30be 32e9 e7bc fcf2 cabd
00000180: d759 363e 1d0e 903d 0f7f 5f3e 420d 593d
00000190: faf2 533d 9f82 bebd 38ef e5bc cb07 82bd
000001a0: eb33 4a3c f47d bf3d 3ae4 253d 3e58 fcbd
000001b0: b1f4 293e 6c25 7f3d 5f78 3fbe a8bb 8ebd
000001c0: 69ca a9bb 4395 cfbd c7dc 2abc b5a3 45be
000001d0: 7035 d83d ba9d 103d b002 133e dd14 243e
000001e0: 79ec b3bd 9a80 303d 5469 163d 8625 b5bc
000001f0: 8cb1 d93d 8b9f 8bbd cf6b 41bd 27f3 8d3c
00000200: 67f7 3dbe 93de 24bd 9dce 7b3d 416a 233d
00000210: 12ef 623b 4ff2 f53d 4c0d 493d df81 f6bd
00000220: 3b38 a23d ca48 103e 2aca 3abd 982d 913c
00000230: 9d1d cabb 4358 efbd fa32 b23d 765a eb3c
00000240: 67e7 e9bd 3962 0bbd a331 24be a045 96bc
00000250: 0c68 4fbc 745c 8cbd 6e24 37bd 3e7f 653d
00000260: 3e75 3c3d de25 0abe c720 8fbc 5112 343e
00000270: 1a80 053e ad1d 983b dfb3 053d 1713 1c3e
00000280: 5639 983a e41a b33c 709b 04bd e6e2 6a3d
00000290: 6bf9 123d 8ad5 853d 1cb1 0bbd 6b49 323c
000002a0: 8921 6e3d a12e 813c 6471 c3b9 ddb6 33bc
000002b0: 71bb 1dbd 06a9 5fbc 4d1c 04bc c6a0 97bd
000002c0: 47a7 9a3c a61d 82bd 1897 2c3d f1a5 8abd
000002d0: 7e2e 4abd 03d0 203e 8d75 2a3d d262 533c
000002e0: c279 993d 3149 1d3e a686 5b3d 4f85 723d
000002f0: 8216 fbbc 8fa1 88bc c419 b53c 8cd4 7dbc
00000300: a8db 17bd 1d9f 713c 7dd1 503c 2938 803c
00000310: e653 0a3e bbc7 78bc 84f5 6fbd 38ad 313e
00000320: 4a21 3a3d 2301 81bc c765 d5bd adbe cf3d
00000330: 6eee 193d 9fee b53d 8264 e33a 0c8a 603e
00000340: 0080 19be 8c35 a73d 323e 60be 9d8d c73d
00000350: 6e3c 19bd ba9a d3bc f8d2 8b3d 7c8f cd3d
00000360: 7e28 9f3a 1ae6 a13c 5074 92bd fb7a c33c
00000370: d55b 3ebd cebf 2abd 5b36 0dbd e08c 31be
00000380: 078e f23d eca3 283d 2c96 903d 37f8 23bd
00000390: 3e5d 5e3b 37cf e0bd 1da6 38be a3f2 e83d
000003a0: f984 9fbb ddff a43d 8f02 3b3d a75a b1ba
000003b0: 64b0 ee3c d19a e03d 0703 06bc 4f1a 78bd
000003c0: 0f30 123b 2b9f 3dbe ee65 043d 439a a2bd
000003d0: d621 1cbe 186b c93d c5cf b53c f06d 89bd
000003e0: e668 7a3d 66df c23d be7b 883d 51e1 e03d
000003f0: 711b c33d a2db e33c 1e57 663d d911 5b3c
0.11998619 0.0051914644 -0.0023669915 -0.17411326 0.14815818 -0.055035073 -0.03037801 0.05495691
0.09171422 0.12917498 0.0145365745 0.026013536 -0.030817544 0.011805443 0.021348737 0.05126748
0.06641573 -0.10148962 0.057752356 -0.09230648 -0.4179741 0.039274972 -0.02607982 -0.1890525
0.19412191 -0.014857008 -0.07960695 -0.030405665 0.09525728 0.006155582 -0.032071315 0.0037896729
-0.08194766 0.15009242 0.03995682 0.13182935 -0.01591508 -0.033745233 -0.0010974365 -0.0118575385
-0.10448594 -0.10008101 -0.015712671 0.11524219 -0.07183372 -0.10966466 0.013603969 -0.07447431
-0.14292374 0.0073328777 -0.039028667 0.0071255285 -0.0055118497 -0.01491931 -0.03706833 0.14808686
-0.27027923 -0.11787084 0.057685614 -0.033953566 0.04708293 -0.00895737 -0.06371399 -0.042343285
-0.048683092 -0.054342948 -0.08092512 0.14528401 0.07755197 0.014309229 -0.049848683 0.024720035
0.028791174 -0.027258722 -0.04510335 -0.14983755 0.04771199 0.08554607 0.06623176 -0.018500118
-0.16371614 0.047337998 -0.0023529904 -0.06685599 0.056856126 0.05009756 0.08976795 0.12896575
-0.0105319135 -0.046628628 0.037207987 0.013031704 -0.030927554 -0.17285137 -0.028309438 -0.09909627
0.17807709 0.07033942 0.21825813 0.05299116 0.051745392 -0.09302258 -0.02806817 -0.06349143
0.01234148 0.093501955 0.040500857 -0.12321518 0.16597249 0.062291548 -0.18698262 -0.06969386
-0.0051816 -0.10135891 -0.010428614 -0.1930073 0.105570674 0.03530667 0.14356494 0.16023584
-0.08785338 0.043091394 0.036721542 -0.02211262 0.106295675 -0.0681754 -0.047221955 0.017327858
-0.18551408 -0.040251326 0.06147634 0.039896253 0.003462736 0.12009107 0.049084947 -0.1203649
0.07920881 0.14090267 -0.045602955 0.017721936 -0.006168081 -0.116867565 0.08701129 0.028729659
-0.114210896 -0.03402922 -0.1603456 -0.018343747 -0.012659084 -0.068535715 -0.044712476 0.05602955
0.04601025 -0.13491008 -0.017471684 0.17585112 0.13037148 0.0046422095 0.03264224 0.15241657
0.0011613767 0.021863408 -0.0323748 0.057345293 0.035882395 0.0653487 -0.03410445 0.010881762
0.05813745 0.015769305 -0.0003727778 -0.010968891 -0.038508836 -0.013651138 -0.008063388 -0.07403712
0.018878592 -0.06353311 0.04213628 -0.06769932 -0.049360745 0.1570435 0.04161601 0.012901979
0.074939266 0.15359952 0.053595208 0.059209164 -0.030650381 -0.0166786 0.022107013 -0.01549257
-0.037074715 0.014747408 0.012745258 0.01565178 0.13508567 -0.015184338 -0.05858375 0.17351234
0.045441903 -0.015747612 -0.10419803 0.101437904 0.0375809 0.08883404 0.0017348679 0.2192766
-0.14990234 0.0816451 -0.21898726 0.097438075 -0.037411146 -0.025830615 0.068273485 0.10037133
0.0012142805 0.019763041 -0.07151091 0.023862353 -0.046474297 -0.041686825 -0.034475666 -0.17338896
0.11843496 0.041171953 0.07059893 -0.040031638 0.0033930088 -0.10977023 -0.18032117 0.11374404
-0.0048681465 0.080566145 0.045656737 -0.0013531045 0.029136844 0.10967029 -0.008179433 -0.060571965
0.0022306477 -0.18517749 0.03232377 -0.07939579 -0.15247282 0.0983488 0.022193799 -0.06710422
0.061135195 0.09515266 0.06664227 0.10980476 0.095267184 0.02781469 0.056235425 0.013370954

bias f4 [128]
00000000: 354c 5bbd 3d15 a6bc 6d15 19be de6a 743d
00000010: 52f2 45bd 7855 b33c 4378 1abd 4117 483a
00000020: 4699 abbd 67dd b43d 751c 6a3d 6529 e1bd
00000030: fff7 a2bc ba4a d2bd e8e4 ca3a bdc1 f43c
00000040: a9ff 02bd e6ab 7c3c 1523 a7bd 9e6b 523d
00000050: d9fb c6bd a782 6b3d aa45 e33c 2013 903d
00000060: df39 593c 515b 8ebd 061c a9bc f636 90bc
00000070: 60c8 25bd 6e09 b6bb ca77 21bc ae83 af3d
00000080: 5277 78bd 3ff0 91bd ba38 2abe 5522 c83c
00000090: f8c7 adbd aa4f 073d 2bb3 df3b 3f17 5cbe
000000a0: 79f1 5fbd 1a2f 9dbc 243e 9d3d f536 17bd
000000b0: 01f0 c6bc 1293 19bd 6d03 d53c 6a8c 87bc
000000c0: 75e3 43bd 336f c8bd aafd 683d c8ac a73c
000000d0: 7783 d8bd d8d1 6c3b f9e8 70bd 4646 d83d
000000e0: 6cef c0bd e03e 08be 00a9 9c3d 6bd6 2abd
000000f0: 5fcb cc3c a5aa 16be 3809 1bbe 0235 86be
00000100: da32 623c 0d0b e03d b341 63bd 08ee 80bc
00000110: 96c9 1d3c 37a7 293d 8d0f e13c f7b2 493a
00000120: 3af9 80bd 3fbc c5bd fb22 733d f4e7 623c
00000130: e9c4 7abd 231c 87bd 5f1b 013d 82de 3e3d
00000140: c7e5 dd3c c571 873c 988f 3ebb cb75 69bd
00000150: 29fe 83bd 4347 cbbd c9f4 3dbd 9a0b 14be
00000160: 6f09 42bd 69d6 c23c 0c65 1b3d 7c55 43bd
00000170: c971 a73c 1836 873b 23c7 52bc 91c5 8dba
00000180: c687 79bc 690f 95bc e70a 21bd daea f73b
00000190: 0ee9 013e dbf7 02be 741e 85bd a305 c5bd
000001a0: 93e0 1d3d 5f3f 05bd fcdf 04be 8c9b 4dbd
000001b0: ab37 0c3e b6a4 b7bc f22d 1fbd 2205 943d
000001c0: e5df 023d ec0b 18be f788 37be 466f 9e3d
000001d0: dcb7 99bd 05af 6bbd ca6c 1c3c d699 2a3c
000001e0: 10f5 82bd e267 fabb 92d3 56bd 6f53 96bd
000001f0: 084a 4ebd b713 b5bc a887 513d cb47 bfbb
-0.053539474 -0.0202738 -0.1494958 0.05967223 -0.048326798 0.02189134 -0.037712347 0.00076328596
-0.08378844 0.08831292 0.057156045 -0.109942235 -0.019893644 -0.10268159 0.0015479596 0.029877538
-0.031982098 0.015421843 -0.08160988 0.051372163 -0.09716005 0.057497647 0.02774318 0.07034898
0.013258426 -0.06951011 -0.020643245 -0.017604332 -0.040474296 -0.0055553233 -0.00985522 0.08570038
-0.060660668 -0.071259014 -0.16623202 0.024430433 -0.08485407 0.033034958 0.0068267784 -0.21493243
-0.054673646 -0.019187499 0.07677868 -0.036917645 -0.024284365 -0.037493773 0.02600261 -0.016546447
-0.04782434 -0.097868346 0.056882538 0.02046813 -0.1057195 0.0036135819 -0.05881593 0.105602786
-0.09420666 -0.13305235 0.07649422 -0.04170839 0.024999319 -0.14713533 -0.15140235 -0.26212317
0.013806069 0.10939608 -0.055482578 -0.015738502 0.009630581 0.041419234 0.027473236 0.00076942093
-0.06297536 -0.09655046 0.05935953 0.013849247 -0.061222944 -0.065971635 0.031520244 0.04659892
0.027087105 0.016533742 -0.0029077288 -0.0569971 -0.064449616 -0.099257015 -0.046376023 -0.1445755
-0.047372278 0.02378388 0.037938163 -0.047688946 0.02044 0.0041263215 -0.012864861 -0.0010816326
-0.015230125 -0.018195825 -0.039317038 0.0075658383 0.1268656 -0.12789862 -0.06499949 -0.09620216
0.03854425 -0.03253114 -0.12976068 -0.05019717 0.1369311 -0.022417407 -0.038862176 0.072275415
0.031951804 -0.14848298 -0.17923342 0.077360675 -0.075057715 -0.05753996 0.009547422 0.010412654
-0.06394398 -0.0076417783 -0.052447863 -0.073401324 -0.05036357 -0.022104127 0.051154763 -0.005837416

weight f4 [2, 128]
00000000: 1381 043e ba60 febd 3581 ff3d 8761 433d
00000010: c3ec b1be 3d88 b63e 377d a33e 6344 57be
00000020: 0c9d a63e 4e8b 823e 2092 8fbe cc2a 573e
00000030: cf28 8abe 90d4 c63e 7364 b6bc 4e5c 07be
00000040: 3f25 fb3d b781 a8bd bc79 0e3e 1214 363e
00000050: 771c 1fbe cbba 83be e3f2 b4be b1b1 73bd
00000060: f403 053e 7fa5 d93d 1787 05be 2cae bb3d
00000070: c98e ea3d 56fa ad3e 1489 873e 4c8f 1fbd
00000080: ccd7 8f3e 628f e1bd db02 71bd e841 153f
00000090: 3835 6c3e 25f3 0e3e d91f a63d e0ac 9d3e
000000a0: 71b1 ed3d 4cd0 353f 87e6 bfbc 7742 e33d
000000b0: f7f1 05be 40b4 cd3d c9be 533c 94a1 323e
000000c0: 40e7 4cbd c4ad abb9 5a7f 4ebe 2740 5d3d
000000d0: d0c7 77bd 390c 71be fc9d 35bb f387 98bd
000000e0: 1eb4 053e 8e5b 6f3e 348d 7e3e a93f 2b3e
000000f0: cc47 e53b e3cd 803e 57cf b13e 1564 ca3e
00000100: 0225 17be 0034 9b3e a936 3b3b 57cb 51be
00000110: 5d94 153f d6b4 0e3e 16ac 7c3b d3e0 7f3e
00000120: c470 f23c 6c5e aabe 2e48 21be 17ce 80bd
00000130: 4d7e 2fbe 86a7 483e 7c8a 0cbe 7394 653e
00000140: 6c6e 4abe ef29 3ebe 4acb 83be d3ca ac3e
00000150: 99c6 0cbe 5fc4 8c3e aad3 5fbd baa4 1f3e
00000160: 6c1c 063e 867b 5bbd 925b 9fbb be97 9a3e
00000170: 45fc 96be 3889 e2bc 4ea6 e53d f021 74be
00000180: f2ee 78be 10af b3be c6c9 433e f364 82be
00000190: 8e47 6dbd 0aa8 b73e 06e0 b93d 3992 9cbd
000001a0: 9a9f 123e 0127 01be 5849 103e f1d2 453e
000001b0: 733c c83d bb36 44bd 17a3 ebbc 14e6 01be
000001c0: 614a ec3d 5f9b bdbd 5232 9c3e aeb4 bbbd
000001d0: e770 1e3e 76dd 2e3e 247f 663e 0efc a5be
000001e0: 8246 2c3e 977c dfbd 82f6 4ebe 19d2 403e
000001f0: 1196 8ebd 677a 1a3e 3716 1c3f 97a7 c6be
00000200: ea46 d6be 2b09 4fbe 0dd9 3e3e 51db 60be
00000210: 77aa 593e 26bd 363e 776a 1bbe 108a 383e
00000220: ebe4 343e 3516 4abd ab7b 05be 6420 1cbd
00000230: b423 f03c 3d4b cc3d 1c30 c13e 2af0 773e
00000240: 5d1a a63c 651b 68be 4245 edbe 1320 513e
00000250: cf6f ad3d 1356 5ebe 308c a5bd 16f0 9fbe
00000260: f0c2 d23d 7789 d13e 98c4 443e b530 a2be
00000270: d81b 0ebe 5e30 833d 0c5a 533e d2a0 b8be
00000280: 253d 203f baea 863e 3f59 f73e ae62 7b3e
00000290: 093a 5b3c 152e 233d e189 99be 9a17 9c3e
000002a0: 804b 833e 9cfa cc3e 56d2 97be d1c1 8bbe
000002b0: f880 98be 984c aebd c97d 943e 0388 8cbe
000002c0: 4e22 4d3e 2b14 993e 6c2f 5bbe dae8 803e
000002d0: a0a2 be3e b703 da3d 3542 6c3e 8ef0 31bd
000002e0: 0b86 d93c 6f73 b0bd 6346 94be 0142 9d3e
000002f0: 07df 07bf 6c24 b63d 4500 b5be 9c84 c83e
00000300: 792e 92be 34ec ebbd 876b 853e 4240 5a3e
00000310: 380a cd3d 0b7e ccbd 9a36 acbe 61a9 87bb
00000320: e198 1ebf 93bf b03e 7547 b23d d400 b8be
00000330: e33d 213e 844f 813e 7d94 9f3e ca9d 00be
00000340: 967c a93e 423b 95be 8b89 f2bd 681c 3cbd
00000350: e2ca 0ebf 720d 9b3d 9e27 893e ca1a 78be
00000360: 6aa8 1a3e f031 313d 75f8 16bf 6808 853d
00000370: f7c5 0d3e 4a66 c63e 1d86 f6ba 1c7a fa3d
00000380: 8f7f 933e f910 76bd f39b acbd 4b0f 87be
00000390: 68ac cfbe 5075 473d 9e2f 433e 58a8 d5be
000003a0: dae1 b6bc f0b0 863e 6bb5 5e3e 2862 e83d
000003b0: 98e5 dabe 0322 cf3d 037f 96be a651 41be
000003c0: f0de 33be c4e5 093e b5e3 8cbd 6f98 aa3b
000003d0: dc04 db3d eae2 823d fd00 a83d 319f 573e
000003e0: 2e06 dc3e a8bd 483d bfe6 cdbd ec08 ff3d
000003f0: a283 acbe e59c 87be 5677 663e 89c4 6ebd
0.12939863 -0.12420793 0.12475816 0.04770043 -0.34750947 0.35650817 0.3193147 -0.21022181
0.32541692 0.25496906 -0.28041172 0.2101242 -0.2698426 0.38834047 -0.022264695 -0.13218805
0.122629635 -0.08227866 0.13913625 0.17781094 -0.15538202 -0.2572845 -0.35341558 -0.05949563
0.12989789 0.10627269 -0.13039814 0.0916408 0.11453015 0.33980054 0.2647177 -0.038955018
0.28094327 -0.11013676 -0.058840614 0.5830369 0.23067176 0.1395994 0.08111543 0.30795956
0.1160611 0.7102096 -0.023425354 0.110966615 -0.13080584 0.100441456 0.012923905 0.1744445
-0.050025225 -0.00032745127 -0.20165768 0.05401626 -0.06049329 -0.23539819 -0.0027712574 -0.07447805
0.1305699 0.23374769 0.24858552 0.16723503 0.0069970842 0.2515708 0.347285 0.39529482
-0.14760211 0.3031311 0.0028566516 -0.20487724 0.5842951 0.13936171 0.003855472 0.24988107
0.029594786 -0.33275163 -0.1575019 -0.062893085 -0.17138024 0.19595155 -0.13724703 0.2241991
-0.19768685 -0.18570684 -0.25741035 0.33748493 -0.13747634 0.2749357 -0.054645218 0.15590182
0.1309678 -0.053584598 -0.004863211 0.30193895 -0.2948934 -0.027653322 0.11213361 -0.23841071
-0.243099 -0.350945 0.19119939 -0.25467643 -0.057929568 0.3587039 0.09075932 -0.07645077
0.14318696 -0.12612535 0.14090478 0.19318749 0.09777155 -0.047903758 -0.02876429 -0.12685424
0.11537624 -0.0925815 0.3050714 -0.09165321 0.15472756 0.17076668 0.22509438 -0.32418865
0.16823772 -0.109124355 -0.20211223 0.18830146 -0.06962217 0.15085755 0.609714 -0.38799736
-0.41850978 -0.20218341 0.18637486 -0.21958663 0.21256433 0.17845592 -0.15177332 0.18021417
0.1766545 -0.049337585 -0.13035457 -0.038116828 0.0293139 0.09975288 0.37732017 0.24212709
0.020276243 -0.226667 -0.46341902 0.20422392 0.084685914 -0.21712522 -0.08083379 -0.3123786
0.102910876 0.4092519 0.1921562 -0.31677786 -0.13877809 0.0640571 0.20639819 -0.36060196
0.625933 0.26350957 0.48310277 0.24549362 0.013380536 0.03983887 -0.29988006 0.30486757
0.2564354 0.4003495 -0.2965266 -0.27296308 -0.29785895 -0.08510703 0.29002216 -0.2744752
0.20032617 0.298982 -0.21404809 0.25177652 0.37233448 0.1064524 0.23072131 -0.0434423
0.026553174 -0.08615767 -0.2895995 0.3071442 -0.5307469 0.08893666 -0.35351768 0.39163673
-0.2855108 -0.115196615 0.260586 0.21313575 0.10011715 -0.09984978 -0.33635408 -0.0041400646
-0.61952025 0.3452116 0.087050356 -0.35938132 0.15746264 0.25255978 0.31167975 -0.12560192
0.33102864 -0.29146773 -0.118426405 -0.045925528 -0.55778325 0.07570924 0.26788038 -0.24228969
0.15103307 0.043260515 -0.58972865 0.06495744 0.13845049 0.38749915 -0.001880828 0.12230322
0.28808257 -0.06007478 -0.084281825 -0.26378855 -0.40561223 0.048695862 0.19061133 -0.4173
-0.022324491 0.26306868 0.21748893 0.11346847 -0.4275329 0.10113909 -0.29393777 -0.18878803
-0.17565513 0.13466555 -0.06879369 0.00520616 0.10694286 0.06390937 0.082033135 0.2105682
0.42973465 0.049008995 -0.10053777 0.124528736 -0.33694178 -0.2648689 0.2250646 -0.0582929

bias f4 [2]
00000000: 38ef a6bd 1787 b6bd
-0.08151096 -0.08912485
