agent_checkpoints_1/critic_target.pth (torch_old, 361868 bytes, 9 tensors)

weight f4 [256, 48]
0	0x3d3388d1	0.04383165
1	0x3d926fac	0.07150206
2	0xbd544138	-0.05182001
3	0x3c2f0dce	0.010684444
4	0x3e01684d	0.12637444
5	0xbca23151	-0.019798907
6	0x3cc9498a	0.024571199
7	0x3c4fa252	0.0126729775
8	0x3c099757	0.008397899
9	0x3d5deae1	0.054179076
10	0x3ca9d16c	0.020729743
11	0xbbaac50f	-0.0052114795
12	0x3d2238ef	0.039605077
13	0x3c99cb8e	0.01877382
14	0xbc09ab79	-0.008402699
15	0xbbbf9c5c	-0.005847497
16	0x3cad66a4	0.021167107
17	0x3d68b05b	0.05680881
18	0x3d3bbbd3	0.04583342
19	0x3d4ab895	0.049492437
20	0xbe0e28ed	-0.138828
21	0x3e08bccf	0.13353275
22	0xbc974f37	-0.01847039
23	0x3d4c5b56	0.049891792
24	0xbaabf641	-0.0013119654
25	0x3d2edf49	0.04269341
26	0xbb48c68b	-0.003063592
27	0xbd12ba80	-0.03582239
28	0xbde8aac4	-0.11360696
29	0xbca43f4a	-0.02004971
30	0xbc896224	-0.01677043
31	0xbd1a1d07	-0.03762534
32	0xbc6cb05e	-0.014446346
33	0x3d74d39c	0.05977212
34	0x3d6ed73c	0.058310732
35	0x3d76eba4	0.06028332
36	0xbd382803	-0.044960033
37	0x3c9b8f44	0.018989213
38	0xbd6b5542	-0.057454355
39	0x3d7876fa	0.06066034
40	0xbcb2354f	-0.021753935
41	0x3d888cb2	0.066674605
42	0xbbfd860a	-0.007736926
43	0xbd7e3e34	-0.06207104
44	0x3e0a5586	0.13509187
45	0x3e08ed8b	0.13371865
46	0x3c4d4450	0.012528494
47	0xbd80265b	-0.06257316
48	0xbb908fdc	-0.0044116806
49	0x3de7e5e3	0.11323144
50	0x3c8e14f9	0.017343985
51	0x3c6d068e	0.014466895
52	0xbdd61743	-0.104536556
53	0xbd0cb0d7	-0.034348335
54	0xbcf02662	-0.029315177
55	0x3c6c3737	0.014417461
56	0x3c9868d7	0.018604679
57	0x3dd4c855	0.10389773
58	0xbd224263	-0.039614093
59	0x3baf4e28	0.005349893
60	0xbcf81240	-0.03028214
61	0x3d2c9f85	0.042144317
62	0x3be0c0b7	0.006858911
63	0x3bb3c43f	0.005486041
64	0x3d2bceaf	0.041945156
65	0x3deb3863	0.11485364
66	0xbd48195e	-0.048852317
67	0x3d5d82e9	0.054079924
68	0x3dcf45fa	0.10120769
69	0x3e213b29	0.15745224
70	0x3d30e4cf	0.04318696
71	0x3d615fd0	0.055023015
72	0xbd7abe8d	-0.06121688
73	0x3d293d76	0.04131838
74	0xbcefd8ea	-0.029278237
75	0x3d169953	0.036767315
76	0x3dd61049	0.10452325
77	0xbd09eda1	-0.033673886
78	0x3d584a04	0.05280496
79	0x3d131bc8	0.035915166
80	0xbcb14370	-0.021638602
81	0x3d97c8ce	0.07411347
82	0x3aff8faf	0.0019497777
83	0x3dc9c5b7	0.09852164
84	0x3cfd3aae	0.03091177
85	0x3d28a137	0.04116937
86	0x3c0454ef	0.00807689
87	0x3dc92764	0.09821966
88	0x3c9ac0b9	0.018890725
89	0x3db9920c	0.09061059
90	0x3d1a14bb	0.037617426
91	0x3b8ef5ef	0.0043628137
92	0xbdcc8c75	-0.099877276
93	0x3e20d085	0.15704544
94	0xbc3da857	-0.01157578
95	0x3b6eddaa	0.003644804
96	0x3c942bff	0.018087385
97	0xbd3efaaf	-0.04662579
98	0x3d1adfc0	0.03781104
99	0x3cca8201	0.024720194
100	0xbcee9c0a	-0.02912714
101	0xbd7516f6	-0.05983635
102	0xbd3e69c0	-0.04648757
103	0xbc0e4f7d	-0.008685944
104	0x3d0dd7d2	0.03462965
105	0xbd75c8b6	-0.060005866
106	0x3d36333a	0.044482447
107	0x3bdb991c	0.0067016017
108	0xbd7acae3	-0.061228644
109	0x3e03ad75	0.12859137
110	0xbd075cb7	-0.033047404
111	0x3cc2527a	0.023720969
112	0x3d8c0958	0.0683772
113	0xbd588753	-0.05286343
114	0xbdacd63f	-0.08439302
115	0xbd1ad9b8	-0.03780529
116	0x3e364707	0.17800532
117	0x3ee2a17d	0.4426383
118	0x3d355459	0.044269893
119	0xbc0abd51	-0.008467988
120	0x3ce734cf	0.028223423
121	0xbe4347fa	-0.19070426
122	0xbbd1af05	-0.006399038
123	0x3d093c7b	0.033504944
124	0x3dbaa953	0.09114327
125	0xbd34390e	-0.043999724
126	0x3ba72611	0.0051009734
127	0x3cd5a985	0.02608181
128	0x3d92746e	0.071511135
129	0xbe2c2d74	-0.16814214
130	0x3d6fb16f	0.058518823
131	0xbac7a942	-0.0015232938
132	0x3cbb5b57	0.022870703
133	0x3e0ac28a	0.13550773
134	0xbda30f4e	-0.079619035
135	0x3c85ea5a	0.0163471
136	0x3d704b5a	0.05866561
137	0xbe336452	-0.17518738
138	0xbdaa0d5a	-0.08303328
139	0xbcc2dde8	-0.023787454
140	0xbe33840f	-0.17530845
141	0x3ee97b3b	0.4560183
142	0x3db30ccb	0.087426744
143	0xbd1d393e	-0.03838467
144	0xbc9dbd53	-0.019255316
145	0xbd9be330	-0.07611692
146	0x3c7e603e	0.015525876
147	0xbd07c9b3	-0.03315134
148	0x3dbf42d3	0.093389176
149	0x3c808792	0.015689645
150	0x3aa0506c	0.0012230999
151	0xbd073dc9	-0.033017907
152	0xbcf7bdf1	-0.030241938
153	0xbdb5d3ff	-0.08878326
154	0x3b95e00c	0.0045738276
155	0xbc1921e0	-0.009346455
156	0x3c936d78	0.017996535
157	0x3c0cb0e6	0.008587098
158	0x3b0b4ab3	0.002125424
159	0xbc19c647	-0.009385652
160	0xbd413ce2	-0.047177203
161	0xbdc673b8	-0.0969004
162	0xbb02e941	-0.0019975456
163	0xbda65880	-0.08122349
164	0xbd8880d4	-0.06665197
165	0xbc336f0d	-0.01095177
166	0xbb76ebed	-0.0037677244
167	0xbda5e405	-0.08100132
168	0xb9e2009d	-0.00043106536
169	0x3cb90df1	0.022589656
170	0x3a86f0a7	0.0010295109
171	0x3c396835	0.011316349
172	0xbdb7335e	-0.089453444
173	0x3c80cdd9	0.015723156
174	0xbcc61c23	-0.024183339
175	0x3c3b4846	0.011430806
176	0x3c90a9c7	0.017659081
177	0xbc89a42d	-0.016801918
178	0x3be33484	0.0069337506
179	0xbdd332e2	-0.103124395
180	0xbca3f01c	-0.020011954
181	0x3c0ce013	0.008598345
182	0x3c11104a	0.008853981
183	0xbdd36413	-0.10321822
184	0x3d2de7be	0.042457335
185	0xbb7a8d13	-0.003823106
186	0xbbbd96f2	-0.0057858163
187	0x3d8f6ad2	0.07002796
188	0x3d955fd6	0.0729367
189	0xbc33e28d	-0.010979307
190	0xbcfc3285	-0.030785808
191	0x3d8f58ce	0.0699936
192	0x3d404afa	0.046946503
193	0xbca320b1	-0.01991305
194	0xbb2ed629	-0.0026677942
195	0x3d475f3d	0.04867481
196	0x3d8dc9c0	0.069232464
197	0xbba6be9e	-0.0050886413
198	0x3cc63e8c	0.024199747
199	0x3d4744c4	0.048649564
200	0x3d16e661	0.0368408
201	0xbd14faa8	-0.036371857
202	0xbb9b0931	-0.0047313203
203	0xbd2705a9	-0.040776882
204	0x3ca19fd8	0.01972954
205	0xbcb2a96e	-0.021809306
206	0xbcb65f4b	-0.022262236
207	0xbd2705d4	-0.040777043
208	0x3cb3e018	0.021957442
209	0xbd362590	-0.044469416
210	0xbc827f38	-0.015929803
211	0xbd46974c	-0.04848413
212	0xbd3b2d5a	-0.045697547
213	0xbcc4dee4	-0.024032064
214	0x3c05f869	0.008176901
215	0xbd465c71	-0.048428003
216	0xbc938e2f	-0.018012134
217	0x3dc0571c	0.09391615
218	0xbcb7583d	-0.022380942
219	0xbc0741b9	-0.008255416
220	0xbd8ceee1	-0.068815
221	0xbba6a6af	-0.005085788
222	0xbcdc1d1a	-0.026869345
223	0xbc072487	-0.008248455
224	0xbd262c12	-0.040569372
225	0x3d970b0e	0.073751554
226	0x3d334536	0.043767177
227	0xbd9735fb	-0.07383343
228	0xbca35cb6	-0.019941669
229	0xbcb2a8b6	-0.021808963
230	0x3c1cbf58	0.009567104
231	0xbd9757a4	-0.07389763
232	0xbda40adf	-0.08009886
233	0x3d95bf51	0.07311881
234	0x3bcf488b	0.0063257865
235	0xbd73affa	-0.059493996
236	0x3d2ce515	0.042210657
237	0xbcc4de7c	-0.02403187
238	0x3c3dbe5d	0.011581031
239	0xbd73b9e3	-0.059503447
240	0xbcfe06f9	-0.031009184
241	0x3d998b54	0.07497278
242	0xbc220e60	-0.009891123
243	0xbcd7ccd1	-0.026342781
244	0x3c4ddafc	0.012564417
245	0xbde14992	-0.110003605
246	0x3c412a42	0.01178986
247	0xbcd0836d	-0.025453294
248	0xba1cb247	-0.0005977493
249	0x3d8c3f21	0.068479784
250	0xbd01f94b	-0.031731885
251	0x3d297992	0.041375704
252	0x3d1a4e78	0.03767249
253	0xbd2b1c66	-0.04177513
254	0x3d06ed48	0.032941133
255	0x3d296a2e	0.041361026

bias f4 [256]
0	0xbb939ec3	-0.00450501
1	0xbd24327d	-0.040087212
2	0xbd00becf	-0.03143197
3	0x3c4e8d41	0.01260692
4	0x3c6ff5be	0.014645992
5	0xbc267c3e	-0.010161458
6	0x3d6a91b0	0.057267845
7	0x3b9e5961	0.004832432
8	0x3c23b2b2	0.009991335
9	0xbb7bf073	-0.003844288
10	0xbbf2768d	-0.0073993863
11	0x3a0cdf20	0.00053738244
12	0xbc05bdf8	-0.008162968
13	0xbc89163c	-0.016734235
14	0xbc4454f9	-0.01198315
15	0x39932843	0.00028068022
16	0x3c52c618	0.012864612
17	0x3d17732b	0.036975067
18	0x3d18be3b	0.037290793
19	0x3abd4436	0.0014439884
20	0xbbb53cc3	-0.005530925
21	0x3c424a89	0.011858591
22	0xbd75c443	-0.060001623
23	0xbb9faf2d	-0.0048731775
24	0xbbb2cebe	-0.0054567745
25	0x3c215ee5	0.009849285
26	0xbd13e74d	-0.036109257
27	0xbbe700d5	-0.0070496597
28	0xbb9e9939	-0.004840043
29	0x3c1b857d	0.009492275
30	0x3c565de5	0.01308391
31	0xbd061a22	-0.032739766
32	0xb89527ae	-7.1122646e-05
33	0x3b609cec	0.003427322
34	0x3b716eb3	0.0036839664
35	0xbc959f0e	-0.01826432
36	0xbbcef3ba	-0.0063156756
37	0xbd2b1c51	-0.04177505
38	0x3c39b00f	0.01133348
39	0xbc430b47	-0.011904544
40	0x3cbbbdf1	0.02291772
41	0xbb56d865	-0.003278279
42	0x3cb1fffd	0.02172851
43	0x3b366573	0.0027831465
44	0x3c817da8	0.015806988
45	0xbce0f21a	-0.027459193
46	0xbc2ead61	-0.010661454
47	0x3b10b680	0.0022081435
48	0xbb944ea3	-0.004525976
49	0xbbc34f87	-0.005960408
50	0x3d01c90e	0.03168588
51	0xbc5a4683	-0.013322475
52	0x3cedd285	0.029031048
53	0xbb8a5d4a	-0.0042225467
54	0x3b1e5371	0.0024158622
55	0xbc70fff4	-0.0147094615
56	0x3d9eb32b	0.07749017
57	0xbc3aec37	-0.011408857
58	0xbcbb8753	-0.022891676
59	0x3cdebe19	0.027190255
60	0xbc4f2ebf	-0.0126454225
61	0x3b99ea42	0.004697115
62	0xbc36acbf	-0.011149584
63	0xbb55b640	-0.003260985
64	0xbcb16dd6	-0.02165882
65	0xbc164f03	-0.009174111
66	0xbb9582d3	-0.0045627146
67	0x3bfb79ce	0.0076744324
68	0x3c4f2f8a	0.012645612
69	0xbcdcb414	-0.026941337
70	0xbccd381f	-0.025051175
71	0x3c0a912e	0.008457465
72	0xbcd85f6b	-0.026412686
73	0xbcabdf9a	-0.020980645
74	0x3b673e26	0.0035284846
75	0x3c86804e	0.016418602
76	0xbb69f118	-0.0035696682
77	0xbd168775	-0.036750276
78	0x3af8b745	0.0018975517
79	0xbc684773	-0.014177191
80	0x3d0f8d93	0.035047125
81	0x3cca0fb4	0.024665691
82	0xbc41bb28	-0.011824407
83	0xbc259402	-0.010106089
84	0x3a1855e5	0.0005811139
85	0xbc2d0061	-0.010559172
86	0x3b35bbce	0.0027730349
87	0xbac781c2	-0.0015221166
88	0xbc6063a8	-0.013695635
89	0xbc70849f	-0.014680057
90	0x3c1455fb	0.0090537025
91	0xbc58137e	-0.013188241
92	0xbc1ac202	-0.009445669
93	0x3ba055ba	0.004893032
94	0xbc1c6277	-0.00954496
95	0xbd88f10d	-0.06686602
96	0x3d1e9a7a	0.03872154
97	0x3cc6cec7	0.024268521
98	0x3a19be93	0.00058648846
99	0x3b9923bb	0.004673449
100	0x3c401948	0.0117247775
101	0x3c163a75	0.009169211
102	0x3a3a2925	0.0007101468
103	0xbd1a5244	-0.03767611
104	0xbd45344f	-0.04814559
105	0xbc2d9880	-0.010595441
106	0xbc315c4c	-0.010825228
107	0x3c3c8376	0.011505952
108	0xbc39ce21	-0.011340649
109	0x3b938e5d	0.004503055
110	0x3ac9b692	0.0015389493
111	0x3c1525b9	0.009103232
112	0x3b3b672a	0.0028595426
113	0x3c168d06	0.009188896
114	0x3bcf9ebf	0.0063360627
115	0x3d6fa5c9	0.058507714
116	0x3be6d432	0.0070443386
117	0x3ae8c5d3	0.0017759152
118	0xbcd0640a	-0.025438327
119	0x3c1df62e	0.009641213
120	0x3dba7d01	0.09105874
121	0xbcc38514	-0.023867168
122	0x3c9a46a8	0.01883252
123	0x3b3ca84b	0.0028786834
124	0x3cdc6af7	0.026906474
125	0x3c3436d3	0.010999399
126	0xbc19c294	-0.00938477
127	0x3bb2f964	0.0054618586
128	0x3cb8ded3	0.022567188
129	0x3b89f190	0.0042097047
130	0x3c4377d3	0.011930424
131	0x3c54508f	0.01295866
132	0xbd8b4276	-0.06799786
133	0xbc589025	-0.0132179605
134	0x3bc74974	0.0060817543
135	0x3b34e9af	0.0027605107
136	0xbc178842	-0.009248795
137	0xbc256845	-0.010095661
138	0xbc505e44	-0.012717787
139	0xbb13e2d4	-0.002256562
140	0x3b4c5d3c	0.0031183502
141	0xbc29dc64	-0.010367487
142	0x3bc28b6f	0.005937032
143	0xbd1cfee5	-0.038329024
144	0xbaace508	-0.0013190815
145	0x3c6d090f	0.014467492
146	0xbcc531d5	-0.024071613
147	0xbc473d1b	-0.012160565
148	0xbc4be1f1	-0.012444005
149	0xbc4c6a00	-0.012476444
150	0xbce93748	-0.028468743
151	0xbcafa5ba	-0.02144133
152	0x3b26e00b	0.002546313
153	0xbc0bcd6d	-0.008532864
154	0x3c67b98e	0.014143361
155	0x3aad6a35	0.0013230505
156	0xbb59c395	-0.0033228148
157	0x3a64eb80	0.0008732602
158	0xbb408596	-0.0029376498
159	0x3c9f5e0b	0.019454023
160	0x3bdf655c	0.006817503
161	0xbad5457e	-0.0016271321
162	0xbb71824a	-0.003685134
163	0xbc084541	-0.008317293
164	0x3c9f7836	0.0194665
165	0xbbc20f05	-0.0059222006
166	0x3c73834c	0.014862847
167	0xbc16fe84	-0.009215955
168	0xbc1858a2	-0.009298475
169	0xbb8edcca	-0.004359816
170	0x3cd42a31	0.025899025
171	0xbc189239	-0.009312206
172	0x3c850c04	0.016241081
173	0xbbd85bd1	-0.0066027422
174	0x3cb1baec	0.021695577
175	0xbab1ade6	-0.0013555854
176	0x3bef6eaa	0.0073068934
177	0x3d06277a	0.03275249
178	0x3b005d0f	0.0019586717
179	0x3d549cfd	0.05190753
180	0x3ce96bb8	0.028493747
181	0x3c69c4a1	0.014268071
182	0x3b5caa84	0.0033670971
183	0x3c5d3287	0.013500816
184	0xbca58886	-0.020206701
185	0xbc6638e7	-0.0140516525
186	0xbb5f9a08	-0.003411891
187	0xb9ef9c6e	-0.00045702182
188	0x3c0ff617	0.0087867
189	0x3cde879d	0.027164275
190	0xbd1c037d	-0.038089264
191	0xbcd71e82	-0.026259664
192	0xbcb9a618	-0.022662207
193	0xbc7d4545	-0.01545841
194	0x3db3eca2	0.087853685
195	0xbc1b4de9	-0.009479024
196	0x3bb6a55f	0.005573913
197	0x3c85da1a	0.01633935
198	0xbc30009e	-0.010742335
199	0x3c67fce7	0.014159418
200	0x3c868e47	0.016425265
201	0x3d0936cc	0.033499524
202	0xbc6dcda1	-0.014514358
203	0x3c3d1739	0.011541181
204	0x3c502c41	0.012705863
205	0xbd37ced8	-0.044874996
206	0xbcb2ee93	-0.021842277
207	0xbc9dce17	-0.01926331
208	0xbd24267a	-0.040075757
209	0xbd1d6cd2	-0.038433857
210	0xbd106a0d	-0.035257388
211	0xbb4c4277	-0.0031167546
212	0xbcc9dce1	-0.024641456
213	0xbbee2ffc	-0.007268904
214	0x3cbe1e5b	0.023207834
215	0x3cf49a1f	0.029858647
216	0x3bf96c72	0.0076118046
217	0xbc623961	-0.0138076255
218	0xbb5e45a4	-0.003391602
219	0xbca6e24f	-0.020371584
220	0x3bbb6dfe	0.005719899
221	0x3b763349	0.003756719
222	0xbcaba68f	-0.020953445
223	0xbc708b28	-0.014681615
224	0xbde14c26	-0.11000852
225	0xbc09d233	-0.008411932
226	0x3c762e9a	0.015025759
227	0x3c76768d	0.015042913
228	0x3cc4886a	0.023990829
229	0xbcf3c666	-0.02975769
230	0xbbbb7547	-0.0057207677
231	0x3be60631	0.007019781
232	0xbc411538	-0.011784844
233	0x3c1af195	0.009457012
234	0x3c5b1a52	0.0133729745
235	0xbb7fe61d	-0.003904707
236	0x3b773e0c	0.0037726192
237	0x3c7b3afb	0.015333886
238	0x3c7f37b1	0.015577243
239	0xbb0099e8	-0.0019622985
240	0xbc8d9554	-0.01728312
241	0xbd487811	-0.04894263
242	0x397486b6	0.00023319837
243	0xbc91f7a8	-0.017818287
244	0x3b6afccc	0.0035856245
245	0xbd8aa1c4	-0.067691356
246	0xbc801609	-0.015635507
247	0x3c61af73	0.0137747405
248	0x3ca6d1c7	0.020363702
249	0x3d2b551b	0.04182921
250	0x3c11b598	0.008893393
251	0x3d742714	0.05960758
252	0x3c83ad15	0.016073743
253	0xbc4778a4	-0.012174759
254	0x3b8c611a	0.0042840363
255	0x3c9d7838	0.019222364

weight f4 [256, 4]
0	0xbde7bf92	-0.11315836
1	0xbd9a0d0a	-0.07522018
2	0xbe248ef0	-0.16070151
3	0xbdaf090e	-0.08546649
4	0xbe0c295d	-0.13687654
5	0x3de2ae2f	0.11068379
6	0xbc86388b	-0.016384384
7	0x3dbf3c42	0.09337665
8	0x3e59899d	0.21243902
9	0x3d8fd2aa	0.07022603
10	0xbcccd195	-0.02500228
11	0xbdd71c82	-0.10503484
12	0xbb949f20	-0.0045355707
13	0xbd40b67e	-0.047049038
14	0xbe032b8b	-0.12809579
15	0x3e4eedee	0.2020795
16	0xbdb04a8b	-0.08607968
17	0x3df14bc8	0.11782032
18	0xbd83f22e	-0.064426765
19	0x3e059e26	0.1304861
20	0xbd29a02e	-0.041412525
21	0xbd989320	-0.07449937
22	0xbe56612a	-0.20935503
23	0x3bef623e	0.0073054126
24	0x3e288810	0.16458154
25	0x3d38e311	0.045138422
26	0x3e0ccbf5	0.13749678
27	0xbdcc6993	-0.09981074
28	0x3bf30ef9	0.0074175564
29	0x3d8c0e3d	0.06838653
30	0x3e59c256	0.2126554
31	0x3acfbeb9	0.0015849686
32	0x3c705001	0.014667512
33	0x3d6d075d	0.05786835
34	0x3e5aee81	0.21380045
35	0x3cf5a62d	0.029986465
36	0xbe36c92b	-0.17850177
37	0xbda14493	-0.078744076
38	0x3dceaa8c	0.10091123
39	0x3c290b67	0.01031766
40	0xbe182ea3	-0.1486154
41	0x3d2c0a1e	0.042001836
42	0xbe0d94d6	-0.13826308
43	0x3c60515e	0.013691274
44	0xbe3846a9	-0.17995705
45	0xbc9f9a9a	-0.0194829
46	0x3db850f4	0.089998156
47	0xbd5a0eae	-0.053236656
48	0xbdba0a62	-0.090840116
49	0xbd8ba339	-0.068182416
50	0xbe4612bd	-0.19343086
51	0x3d90d799	0.07072372
52	0x3e2b6c23	0.1674047
53	0xbb0cf1c9	-0.002150642
54	0xbd19e0dd	-0.037567962
55	0x3dea764a	0.11448343
56	0xbd61cd31	-0.055127326
57	0xbd715f5f	-0.058928844
58	0xbe55883a	-0.20852748
59	0xbd19dbdc	-0.03756319
60	0xbc60a548	-0.013711281
61	0x3e05068f	0.12990783
62	0x3df34d86	0.11880021
63	0xbe0fdf23	-0.14049964
64	0xbe2bdefc	-0.1678428
65	0xbcfe82b5	-0.031068185
66	0xbe075455	-0.13215764
67	0xbb94bc1e	-0.004539027
68	0xbc315d98	-0.010825537
69	0xbd92eb9c	-0.07173845
70	0xbde21dc9	-0.11040837
71	0xbe490cec	-0.19633836
72	0x3d9a6126	0.07538061
73	0xbd3e8ce3	-0.04652108
74	0xbb73925e	-0.00371661
75	0x3e4a523e	0.19757935
76	0xbe32db6b	-0.17466514
77	0xbb7fc63a	-0.0039028064
78	0x3df6a2b0	0.12042749
79	0xbc530d0b	-0.012881528
80	0xbc1c1e3d	-0.009528694
81	0xbe11eed6	-0.14251265
82	0xbe065772	-0.13119295
83	0x3e03574a	0.12826267
84	0xbe17555c	-0.14778656
85	0x3d7ea6df	0.06217086
86	0xbc86ad97	-0.016440196
87	0xbde9b51d	-0.11411498
88	0x3de7dd7c	0.11321542
89	0x3d9e5f9d	0.077330805
90	0xbe16c8c5	-0.14725025
91	0x3d4a5ef0	0.049406946
92	0xbdc7e2ab	-0.0976003
93	0x3dad7d59	0.08471174
94	0x3e306f1c	0.17229885
95	0xbbe75352	-0.007059493
96	0x3df61efa	0.12017627
97	0xbdb2b7d9	-0.087264724
98	0x3e0264a8	0.1273371
99	0x3d375a6a	0.04476396
100	0xbe4070a6	-0.18792972
101	0x3cf51530	0.02991733
102	0xbd472c62	-0.04862631
103	0x3ca8712f	0.020561783
104	0x3e57f516	0.21089587
105	0x3d335958	0.043786377
106	0x3c4ccb46	0.012499636
107	0xbd4564a8	-0.048191696
108	0xbc3158b2	-0.010824369
109	0x3e09be69	0.13451542
110	0xbdc5dd65	-0.09661368
111	0x3dd8b113	0.10580649
112	0xbdcb76b1	-0.09934748
113	0xbc9a86f6	-0.018863183
114	0xbe471d07	-0.19444667
115	0xbc4f5dc7	-0.012656636
116	0x3d874b8b	0.066062056
117	0xbd69eefe	-0.057112686
118	0x3e3f0386	0.18653688
119	0x3a635c85	0.0008673149
120	0xbe1085a1	-0.14113475
121	0xbe0f83d5	-0.14015134
122	0xbdff2bfb	-0.124595605
123	0xbd104601	-0.03522301
124	0xbe41d608	-0.18929303
125	0x3c96de80	0.018416643
126	0x3da2115e	0.07913469
127	0xbc9b4585	-0.018954048
128	0x3d69d4f7	0.057087865
129	0x3d91efd1	0.071258195
130	0x3e54f56e	0.20796749
131	0x3c1ec104	0.009689573
132	0xbd845398	-0.06461257
133	0x3e064b36	0.13114628
134	0x3db30daf	0.08742844
135	0xbdf3fd7c	-0.11913583
136	0x3ba3be86	0.0049970774
137	0x3dad89cd	0.08473549
138	0x3e4a8f1b	0.19781153
139	0xbd7b1f65	-0.061309237
140	0x3e2eae37	0.17058645
141	0xbc9f1a5d	-0.01942175
142	0xbd778ca7	-0.06043687
143	0x3dbaba50	0.091175675
144	0xbc84cc65	-0.016210744
145	0x3da83fb6	0.08215277
146	0xbe0a8171	-0.1352594
147	0x3e12759a	0.14302674
148	0x3d65f19f	0.05613863
149	0x3df7bf3f	0.12097024
150	0x3e44f03f	0.19232272
151	0xbd2afb04	-0.041743293
152	0x3d0720f1	0.0329904
153	0xbdc5a5df	-0.09650778
154	0x3d034ae4	0.032053843
155	0x3e47f9f3	0.19528942
156	0x3e3f849d	0.18702932
157	0xbcad47e5	-0.021152446
158	0xbda9f064	-0.08297804
159	0x3c4380e5	0.011932586
160	0xbe10bc47	-0.14134322
161	0x3da6274d	0.08112965
162	0xbde53e93	-0.11193576
163	0x3d22fd54	0.039792374
164	0x3b70fed8	0.0036772992
165	0x3d99d973	0.07512178
166	0x3e541617	0.20711552
167	0xbcf2689e	-0.029590901
168	0x3e36d33b	0.17854016
169	0x3d6ad412	0.057331152
170	0xbdba9353	-0.09110131
171	0xbe1795d5	-0.1480325
172	0xbe1adca5	-0.15123232
173	0x3d38f484	0.045155063
174	0xbc1ef90c	-0.009702932
175	0xbdfcd28d	-0.12344847
176	0xbd4dff02	-0.050292023
177	0x3e259d5a	0.16173306
178	0x3dd2447c	0.102669686
179	0xbd80cda2	-0.06289221
180	0xbd8deb8f	-0.06929695
181	0x3ce2070d	0.027591253
182	0x3e42ab02	0.19010547
183	0x3dd1cc99	0.10244102
184	0xbe07cc60	-0.13261557
185	0x3c8440a0	0.016144097
186	0x3d895aa7	0.06706744
187	0xbe1bd00c	-0.15216082
188	0xbb4b3409	-0.0031006357
189	0x3cadbb9d	0.021207625
190	0xbdc06ab2	-0.093953505
191	0xbe5cc01e	-0.21557662
192	0xbdfaed2c	-0.12252268
193	0xbd72b3d1	-0.059253518
194	0xbe3941ff	-0.18091582
195	0x3d6df60f	0.058095988
196	0x3c17e163	0.009270045
197	0xbcf0c0de	-0.029388841
198	0xbe5c953d	-0.21541305
199	0x3b97305c	0.004613919
200	0x3df3deec	0.11907753
201	0x3c672aa5	0.014109288
202	0xbe3bf603	-0.18355565
203	0x3c498bd3	0.012301403
204	0xbe050729	-0.12991013
205	0xbc9bbc76	-0.019010764
206	0xbe343b7e	-0.1760082
207	0x3c759d39	0.014991098
208	0xbdc09bc9	-0.09404714
209	0xbdbb236a	-0.09137614
210	0xbd4240c5	-0.04742505
211	0xbe2ff15e	-0.17181918
212	0xbe0d68a7	-0.13809453
213	0x3cb76e5c	0.02239149
214	0x3e2800c4	0.16406542
215	0xbcc83be0	-0.024442613
216	0x3e325158	0.17413843
217	0xbd405121	-0.04695237
218	0xbdad61f8	-0.08465952
219	0x3d24ea9e	0.04026281
220	0x3e342be0	0.17594862
221	0x3cf1c686	0.029513609
222	0xbdfb6187	-0.12274461
223	0x3be2fa1e	0.006926789
224	0xbe3398c9	-0.17538752
225	0x3d438e67	0.047743227
226	0x3d902a4f	0.0703932
227	0xbd36185b	-0.04445682
228	0x3e243370	0.16035247
229	0x3c084ffc	0.008319851
230	0xbe172ad5	-0.14762433
231	0x3c94081a	0.01807027
232	0xbca88a09	-0.020573633
233	0xbe0e974f	-0.13924907
234	0x3dad2b12	0.08455481
235	0xbddaeb34	-0.10689393
236	0xbd798774	-0.060920194
237	0x3c54053e	0.012940703
238	0x3e562423	0.20912223
239	0xbbc35dc9	-0.005962108
240	0xbdd9cd7d	-0.10634897
241	0x3dbd8039	0.09252972
242	0xbdfb5a17	-0.12273043
243	0xbd9525d2	-0.07282604
244	0xbcf8bfa6	-0.030364823
245	0xbe279a4f	-0.16367458
246	0xbbbff7ec	-0.005858412
247	0x3e2f1c02	0.17100528
248	0xbd95c351	-0.07312644
249	0xbc9fc494	-0.019502915
250	0xbe451b5f	-0.19248722
251	0xbd8d9622	-0.06913401
252	0xbe064e5c	-0.13115829
253	0x3ccc060a	0.024905223
254	0x3d31962f	0.043356117
255	0x3e574087	0.21020709

bias f4 [256]
0	0x3b92747f	0.004469454
1	0xbb453452	-0.0030091
2	0xbb99ab9b	-0.0046896464
3	0xbc52319a	-0.012829209
4	0xbbde5c7a	-0.0067859264
5	0xbb7ca120	-0.0038548186
6	0x3aa10560	0.0012284927
7	0x3b946323	0.0045284196
8	0x3b5cbe15	0.0033682634
9	0x3c320716	0.010865947
10	0xbb0b0b07	-0.002121629
11	0x3c3dc3cf	0.011582329
12	0xbb88470d	-0.0041588605
13	0xbc5b6076	-0.013389697
14	0xbae67c4f	-0.0017584654
15	0x3c19937c	0.009373542
16	0x3b2653af	0.002537947
17	0x3be6bc70	0.0070415065
18	0xbc472512	-0.012154834
19	0x3c0d8c26	0.008639371
20	0xbc034865	-0.008012866
21	0x3c00e0e8	0.007866122
22	0xbc590c94	-0.013247628
23	0x3bbf9ecc	0.0058477875
24	0x3b72622d	0.0036984787
25	0x3b29c859	0.002590677
26	0xbba8eb3e	-0.005154996
27	0xbc4445da	-0.011979545
28	0xbb025860	-0.0019889101
29	0x3bdeb6e2	0.0067967037
30	0x3be9dc8b	0.0071368865
31	0x3c08dd2e	0.008353515
32	0x3b268d7f	0.0025413928
33	0x3c029279	0.007969492
34	0x3bfc1e7e	0.0076940646
35	0xbc44a201	-0.012001515
36	0xbc3069c6	-0.010767406
37	0x3b8bafcb	0.0042628995
38	0xbbc0077a	-0.0058602663
39	0xbc0047b6	-0.007829597
40	0xbb806386	-0.003918114
41	0x3bca2d5b	0.0061699576
42	0xbb8e7461	-0.0043473695
43	0x3c1e874d	0.009675813
44	0x3b69e152	0.003568728
45	0x3b41ed0d	0.0029590756
46	0x3c752f4c	0.01496489
47	0x3b6ad98b	0.0035835232
48	0xbb0fbb75	-0.0021931801
49	0xbbb714de	-0.0055872044
50	0xbc0565a4	-0.008141909
51	0xbaaa3bdf	-0.0012987814
52	0x3c61b0a4	0.013775025
53	0x3c075145	0.008259122
54	0xbc0e479b	-0.008684064
55	0xbc1714f1	-0.009221301
56	0x3c0e5c15	0.008688946
57	0xbc115b3e	-0.0088718515
58	0x3c6b163a	0.014348561
59	0x3bd65833	0.006541276
60	0xbb73b296	-0.0037185303
61	0xbaac6210	-0.0013151783
62	0xbadfc09e	-0.0017070954
63	0xb9c4f2ef	-0.00037565033
64	0x3b67e148	0.003538208
65	0xbc09d53b	-0.0084126545
66	0x3bc0516d	0.0058690817
67	0xbb3fa0dd	-0.002924017
68	0x3c2888dc	0.010286536
69	0x3afee910	0.001944812
70	0x3a46b56d	0.0007580135
71	0xbbbac492	-0.0056997025
72	0xbacff2e0	-0.0015865229
73	0xbc0a2154	-0.008430798
74	0xbbfd615f	-0.007732555
75	0x3c2c2f87	0.010509378
76	0xbb86872f	-0.0041054706
77	0xbb41d8d8	-0.0029578712
78	0xbc12bbac	-0.008955877
79	0x3c0c6021	0.008567841
80	0xbbb263ff	-0.0054440494
81	0x3c119cca	0.008887479
82	0xbc10025e	-0.008789627
83	0x3bc2d149	0.005945359
84	0x3bb452ad	0.00550302
85	0xbbb71eea	-0.005588402
86	0x3bba2254	0.0056803618
87	0xbc0e9b32	-0.008703994
88	0x3bffe7ac	0.0078096
89	0xbbc25282	-0.005930246
90	0x3c0233a7	0.007946885
91	0xba14b1ba	-0.0005672235
92	0xbbf81c0e	-0.0075717038
93	0xbb951635	-0.0045497664
94	0xba9313d4	-0.0011221119
95	0xbc0a3246	-0.008434838
96	0x3baac415	0.005211363
97	0xbb879b8a	-0.0041384147
98	0xbc1d817d	-0.009613392
99	0x3c52042d	0.012818378
100	0xbbc3d1f4	-0.005975956
101	0xbc103c97	-0.008803508
102	0x3b4abb36	0.003093434
103	0x3c758d19	0.014987254
104	0x3b916097	0.0044365632
105	0x3bf42f0a	0.0074518966
106	0x3b0d8b6d	0.0021597997
107	0xbba98c6f	-0.0051742117
108	0x3c025162	0.0079539735
109	0xbc3e4c85	-0.011614923
110	0xbc3dece6	-0.0115921255
111	0x3c4f26b7	0.012643508
112	0xbbe4fcb5	-0.006988133
113	0x39a94f55	0.000322933
114	0xba40f69f	-0.0007360968
115	0xbb4c4465	-0.0031168696
116	0x3c10a68b	0.008828769
117	0xbbe4a931	-0.006978177
118	0xbc0bd409	-0.00853444
119	0x3b48bbb4	0.0030629458
120	0xbb19cc89	-0.002346786
121	0xbbaff64d	-0.0053699375
122	0xbc229bbb	-0.009924824
123	0xb6e6c12d	-6.8770228e-06
124	0x3c2c75da	0.010526145
125	0xbba6dd8b	-0.005092328
126	0xbbd51771	-0.0065030386
127	0xba7363c1	-0.0009284579
128	0xbbea16ec	-0.007143846
129	0xbc221056	-0.00989159
130	0x3b74711b	0.0037298861
131	0xbbe168d9	-0.006878954
132	0xbc4acb59	-0.012377583
133	0xbc1ac51a	-0.009446407
134	0xbbd43ef7	-0.0064772326
135	0xbc04867f	-0.008088707
136	0x3b2396c1	0.0024961683
137	0x3bd9ec7b	0.006650505
138	0x3be003ef	0.0068364064
139	0x3c13f349	0.009030172
140	0x395bb545	0.00020952996
141	0x3ba9be0d	0.0051801265
142	0xbacdbade	-0.001569595
143	0x3bb2e319	0.005459201
144	0x3c232b83	0.0099591045
145	0x3c0f2c2e	0.008738561
146	0x3bbab450	0.0056977645
147	0xbbc40140	-0.0059815943
148	0x3c2d2357	0.010567508
149	0xbbb7c434	-0.005608106
150	0x3c0df008	0.008663185
151	0x3af46788	0.0018646577
152	0xbaad2ccc	-0.0013212203
153	0xbc3d7b4b	-0.01156504
154	0x3c4c69bd	0.012476382
155	0x3b1738fc	0.0023074737
156	0xbb07db59	-0.0020730107
157	0xbc58752d	-0.013211531
158	0x3ae70a0c	0.0017626896
159	0xbbd6be1b	-0.006553424
160	0xbc11b39a	-0.008892918
161	0xbc2435ad	-0.010022563
162	0x3c03eec2	0.00805253
163	0x3a5d652a	0.00084455556
164	0x3bd31891	0.0064421375
165	0x3c6b54fa	0.014363522
166	0xbc7b5ef5	-0.015342464
167	0x3c0f64f4	0.008752096
168	0xbb46535f	-0.0030262095
169	0x3c05c2ed	0.00816415
170	0x3ab9d985	0.0014179206
171	0xbc094c3e	-0.008379994
172	0x3a48feea	0.00076673797
173	0xbba5a152	-0.0050546313
174	0xbb105ca8	-0.0022027884
175	0xbb70b4da	-0.003672889
176	0x3c3c782e	0.011503262
177	0xbb833920	-0.0040046126
178	0x3c688497	0.014191768
179	0xbbf74d22	-0.0075470367
180	0x3a806b4d	0.0009797603
181	0xbb9f5d46	-0.004863414
182	0xba2fbd8e	-0.0006703966
183	0xbbf012ce	-0.0073264604
184	0xbba4094a	-0.00500599
185	0x3be44b65	0.0069669955
186	0xbc2bb35c	-0.010479774
187	0x3c15f18a	0.009151826
188	0x3bc72362	0.006077216
189	0xba0d5c3c	-0.0005392467
190	0xb907a718	-0.0001293685
191	0x3c11c1b8	0.008896284
192	0xbb539ee4	-0.003229075
193	0xbc0ffa0a	-0.008787641
194	0xbc1811ea	-0.009281615
195	0x3c175b23	0.009238037
196	0xbb64c422	-0.0034906943
197	0x3bf5f4c4	0.007505985
198	0x3a904563	0.0011007007
199	0x3b71172e	0.0036787498
200	0x3c26aa11	0.010172383
201	0x3accaf81	0.0015616269
202	0x3c185e9f	0.009299903
203	0xbbda1349	-0.006655131
204	0xbc0bd0c6	-0.008533662
205	0x3a9296b8	0.0011183834
206	0x3b69a12e	0.003564905
207	0xbc386096	-0.011253497
208	0xbb8fffde	-0.0043945154
209	0xbb224081	-0.0024757686
210	0x3ae58aea	0.0017512713
211	0xbc771cea	-0.015082577
212	0xbc49caa7	-0.0123163825
213	0xbc4a0b36	-0.012331774
214	0xba92965c	-0.0011183727
215	0x3b591d52	0.0033129049
216	0x3b9480e7	0.004531968
217	0xbb3ad988	-0.0028511006
218	0x3a5fe3cd	0.000854072
219	0x3c1ccd0f	0.009570374
220	0xbc11c359	-0.008896672
221	0xbb886640	-0.00416258
222	0xbba712e5	-0.005098688
223	0x3a8e8636	0.0010873738
224	0xbc01be63	-0.007918927
225	0x3c15a791	0.009134189
226	0x3c043899	0.008070135
227	0xbb6bfb95	-0.003600811
228	0xbc07e9b3	-0.008295464
229	0x3c0edd4b	0.008719753
230	0x3b4a9c1d	0.0030915805
231	0xbbabb43f	-0.005239993
232	0xbc03471d	-0.00801256
233	0xbbe296e3	-0.0069149598
234	0x3c73b2dd	0.014874187
235	0x3c166dd2	0.009181457
236	0x3bee1677	0.0072658616
237	0xbb28f837	-0.0025782713
238	0x3c1aca65	0.009447669
239	0xbc0d5734	-0.008626748
240	0xbbe3516b	-0.006937196
241	0xbc05310c	-0.0081293695
242	0xbc075c73	-0.008261788
243	0x3be7e9be	0.007077425
244	0xbbc8451d	-0.0061117546
245	0x3c159bd4	0.009131391
246	0xbbede770	-0.0072602555
247	0x3bd49889	0.00648791
248	0x3b0fa790	0.0021919943
249	0x3b89b526	0.004202503
250	0x3c5e7b0b	0.01357914
251	0x3b908f4d	0.004411614
252	0xbb87336f	-0.0041260044
253	0x3c322998	0.010874175
254	0xbbf9995d	-0.0076171593
255	0xbc11a2a6	-0.008888876

weight f4 [128, 512]
0	0xbbcf7c08	-0.0063319243
1	0xbcd91372	-0.02649853
2	0xbdbed85d	-0.09318612
3	0xbc0350ad	-0.00801484
4	0xbc28f7ea	-0.010313014
5	0xbd109229	-0.03529564
6	0xbdf60352	-0.12012352
7	0x3ca6e799	0.020374106
8	0x3d31819f	0.043336507
9	0x3c4329bd	0.011911807
10	0xbc1fc554	-0.009751637
11	0xbd7701cb	-0.060304444
12	0x3c6cf5f5	0.014462938
13	0xbd493dbb	-0.049131136
14	0x3cd6b96d	0.026211465
15	0xbc9abd18	-0.018888995
16	0xbcadacc3	-0.021200543
17	0x3cb3ab5f	0.021932302
18	0x3d63ec09	0.055645023
19	0xbc1fcedc	-0.009753909
20	0xbc451ce2	-0.012030812
21	0x3c10ab3f	0.008829891
22	0xbd1ac39b	-0.0377842
23	0x3c352095	0.011055131
24	0xbc18e984	-0.009333018
25	0x3d03cea1	0.03217948
26	0xbc02c718	-0.007982038
27	0x3d98ff01	0.07470513
28	0x3c846474	0.016161181
29	0xbbb9cd4b	-0.005670225
30	0x3c31e9d0	0.010858968
31	0x3ba0408c	0.004890507
32	0xbc081991	-0.008306877
33	0xba0d6135	-0.0005393208
34	0x3af759ab	0.0018871328
35	0xbb85cec9	-0.0040834886
36	0xbcb065fa	-0.021533001
37	0xbd26f152	-0.040757485
38	0xbc7beeb2	-0.015376734
39	0x3b43445e	0.0029795389
40	0xbbbfbd3c	-0.005851416
41	0xbcb5bb52	-0.022184048
42	0xbc2362bd	-0.0099722715
43	0x3d34d1ab	0.044145267
44	0x3c86a498	0.016435906
45	0x3d1f8342	0.038943537
46	0xbcc9005f	-0.02453631
47	0xbb659d67	-0.0035036446
48	0x3cd4ede2	0.025992338
49	0xbca252c5	-0.019814858
50	0x3d30c3f0	0.04315561
51	0x3d585fd7	0.052825775
52	0xbd4a648f	-0.049412306
53	0x3c6c83b1	0.014435695
54	0xbd8528fd	-0.065019585
55	0xbd349d36	-0.04409524
56	0x3d096594	0.033544138
57	0xbd2af448	-0.04173687
58	0xbcb31ae1	-0.021863403
59	0xbbb7fb71	-0.005614691
60	0xbcacfae5	-0.02111573
61	0xbc107b7f	-0.008818506
62	0xba1daac1	-0.0006014519
63	0xbaf856ea	-0.0018946801
64	0x3cbded9b	0.023184588
65	0x3c951aa0	0.018201172
66	0x3d1d933b	0.038470488
67	0xbc1158fe	-0.008871315
68	0x3c05f7b9	0.008176737
69	0xbc95260d	-0.01820662
70	0x3c80b4d9	0.015711235
71	0x399c8ebb	0.0002986098
72	0x3d1f4850	0.038887322
73	0xbc4a08f4	-0.012331236
74	0x3aeb2df4	0.0017942772
75	0xbc2caba3	-0.010538968
76	0xbc01cef6	-0.0079228785
77	0xbbdc68c9	-0.0067263586
78	0xb8fad507	-0.000119606084
79	0xbc2aa166	-0.010414457
80	0x3cdbdf5a	0.0268399
81	0xbd14d166	-0.03633251
82	0x3c27beef	0.010238393
83	0x39ab85c3	0.00032715322
84	0x3c554471	0.013016806
85	0xbd7417c1	-0.059592966
86	0x3cd81e9d	0.026381785
87	0x3d23f21d	0.04002582
88	0x3d830cc1	0.06398917
89	0xbbe9ec25	-0.0071387463
90	0x3d97ed59	0.07418317
91	0xbcb865a5	-0.022509405
92	0xbbc024c1	-0.0058637564
93	0xbc9fc332	-0.019502256
94	0x3a7526fb	0.0009351817
95	0xbdd18ab2	-0.10231532
96	0x3c41b9e2	0.011824103
97	0x3c759249	0.01498849
98	0x3b1e5862	0.0024161567
99	0x3afef309	0.0019451092
100	0x3cd52ad0	0.026021391
101	0xbc338fa3	-0.010959539
102	0x3bccc9ec	0.006249657
103	0xbd42fc21	-0.04760373
104	0x3cbc1fa9	0.022964315
105	0x3c586a22	0.013208898
106	0xbc965c57	-0.018354578
107	0xbd249905	-0.040184993
108	0xbd5863b8	-0.052829474
109	0x3b979bd6	0.0046267314
110	0x3c57bedc	0.013168063
111	0xbb958098	-0.0045624487
112	0xbcbc343a	-0.022974122
113	0xbba7738c	-0.00511021
114	0x3b34aa1b	0.002756721
115	0xbd63c4a5	-0.055607457
116	0x3d0ac3e7	0.033878233
117	0x3c89c901	0.016819479
118	0xbd48b878	-0.049004048
119	0x3cc12d56	0.023581188
120	0xbddc0ba7	-0.1074441
121	0xbd379789	-0.04482225
122	0x3cac8726	0.021060538
123	0xbd09a012	-0.03359992
124	0x3be5ac95	0.007009099
125	0xbc47bb1c	-0.012190606
126	0x3e02391b	0.12717097
127	0xbd0d8eef	-0.03456014
128	0x3d033f07	0.03204253
129	0xbdb7cb5a	-0.08974333
130	0xbafc1f18	-0.0019235341
131	0x3ce353a2	0.02774984
132	0x3ca105ee	0.019656148
133	0x3cc08e1b	0.023505261
134	0x3ba1858e	0.004929251
135	0xbaca7369	-0.0015445772
136	0xbc2ec19a	-0.010666275
137	0xba8e3671	-0.0010849965
138	0xbcb70dd3	-0.02234546
139	0xbca00803	-0.01953507
140	0xb9af7d0b	-0.00033471765
141	0x3c49bd4e	0.0123132
142	0x3b9cbd0b	0.004783278
143	0xbc33201b	-0.0109329475
144	0xbcc0f461	-0.023554029
145	0x3b750af8	0.003739057
146	0xbd845b50	-0.06462729
147	0x3c2b4675	0.01045381
148	0xbda7620b	-0.08172997
149	0x3d4666a7	0.04843774
150	0x3dc3a263	0.09552457
151	0xbd029355	-0.031878788
152	0xbb9b865b	-0.004746241
153	0xbcb4ef89	-0.022086876
154	0x3d2f41cc	0.04278736
155	0x3c9e5247	0.019326342
156	0x3bd2d108	0.00643361
157	0xbc905fa9	-0.01762374
158	0xbc134e77	-0.008990875
159	0x3b4f5d16	0.0031641177
160	0x3c780a13	0.015139121
161	0x3a9a693f	0.0011780633
162	0x3c77a695	0.0151154
163	0x3b6da9df	0.003626458
164	0x3c46f95f	0.012144416
165	0x389d0061	7.486414e-05
166	0x3c2f31c7	0.01069302
167	0x3cff0b73	0.03113339
168	0xbcf8a7ea	-0.030353505
169	0xbd87643f	-0.06610917
170	0xbcc7c41a	-0.0243855
171	0xbbde55c1	-0.006785125
172	0x3d5a39ec	0.053277895
173	0xbc3eb4b7	-0.011639765
174	0x3d4680b3	0.04846258
175	0x3c87cc2c	0.016576849
176	0x3c3a7724	0.011380944
177	0x3ca63d20	0.020292819
178	0x3c0472ba	0.008083994
179	0xbd86dd1b	-0.06585141
180	0x3cd2d378	0.025735602
181	0xbc006b09	-0.007838019
182	0xbbcb13d6	-0.006197433
183	0x3c867e73	0.016417718
184	0x3a84a755	0.001012067
185	0xbd7b5f2e	-0.061370067
186	0xbc91f2ea	-0.017816026
187	0x3c01e8bf	0.007929026
188	0xbc4d10dd	-0.012516228
189	0x3c730cb6	0.0148345735
190	0x3b996d14	0.0046821926
191	0x3d046937	0.032326903
192	0xbb331575	-0.0027326022
193	0xbc4733fd	-0.012158391
194	0xbd95cf80	-0.07314968
195	0x3b6a6e6e	0.0035771388
196	0xba84c689	-0.0010129969
197	0x3caaeb2b	0.02086409
198	0x3d43e06c	0.047821447
199	0x3d3c19b8	0.045922965
200	0x3c760d5b	0.015017833
201	0xbc1c1324	-0.009526048
202	0x3c028c70	0.007968053
203	0x3d37cff2	0.044876046
204	0x3ccb1077	0.024788124
205	0x3c8727d5	0.016498486
206	0x3b595126	0.003315994
207	0xbc6d1d3f	-0.014472305
208	0xbd8594eb	-0.065225445
209	0x3bd8be7c	0.0066145044
210	0x3c30d8b4	0.010793854
211	0x3d6d8d42	0.057996042
212	0xbc4583ae	-0.012055321
213	0x3cd9d3cb	0.026590249
214	0x3da57dd2	0.08080639
215	0x3b699a8a	0.003564509
216	0xbda71c26	-0.08159666
217	0x3c8ceae1	0.017201843
218	0xbb45e3e3	-0.0030195646
219	0x3b19d562	0.0023473133
220	0xbccff509	-0.025385397
221	0xbc9dbf5a	-0.019256283
222	0x3c732d10	0.014842287
223	0x3b835003	0.004007341
224	0x3e0815bc	0.13289541
225	0xbd08c56b	-0.033391397
226	0xbc7c9600	-0.015416622
227	0x3a844b16	0.0010093178
228	0x3cd47c52	0.025938187
229	0xbb3af5ee	-0.0028527933
230	0xbd4c2f9e	-0.0498501
231	0xba35d883	-0.0006936865
232	0xbd1394ac	-0.036030456
233	0xbc99cf40	-0.018775582
234	0xbbca534f	-0.006174482
235	0x3ccf5bdb	0.025312355
236	0x3d6c9991	0.05776364
237	0xbc17d970	-0.00926815
238	0xbd1986d1	-0.037482087
239	0xbc610d19	-0.013736033
240	0xbc42595b	-0.011862124
241	0xbbe58b22	-0.0070051113
242	0xbc11eca5	-0.008906518
243	0xbc8a2375	-0.01686261
244	0x3c6614e5	0.014043068
245	0x3ab96773	0.001414521
246	0x3bdac3a9	0.0066761565
247	0x3d17fbdc	0.037105426
248	0x3bfe7480	0.0077653527
249	0xbd97ca63	-0.07411649
250	0xbcd7dc15	-0.02635006
251	0xbdca580b	-0.09880074
252	0x3d050800	0.032478333
253	0x3c7b737d	0.015347359
254	0xba272c1d	-0.0006377118
255	0x3ca15eb7	0.019698484

bias f4 [128]
0	0xbd10755d	-0.035268176
1	0xbb1bceb7	-0.0023774335
2	0x3d40a7f7	0.047035184
3	0xbca1da5c	-0.019757442
4	0xbb9e8fa8	-0.0048389025
5	0xbba60beb	-0.0050673387
6	0xbc24ac5b	-0.010050858
7	0x3da9841c	0.08277151
8	0xbd17fae5	-0.037104506
9	0x3d1ef587	0.038808372
10	0x3b783e37	0.003787888
11	0x3cb08871	0.021549435
12	0xbd15484a	-0.036445893
13	0x3d6c983f	0.05776238
14	0xbda8dbe0	-0.08245063
15	0xbd45649c	-0.04819165
16	0xbd8e73fc	-0.06955716
17	0x3d1884c6	0.037235998
18	0xbd289784	-0.04116012
19	0x3ce16f89	0.027519004
20	0x3c9fb322	0.019494597
21	0x3cbe6e8d	0.023246074
22	0x3a86062c	0.0010225228
23	0xbcd46df4	-0.025931336
24	0x3d171a37	0.036890235
25	0x3c96aada	0.018392015
26	0x3d456ee8	0.04820147
27	0xbbd8782b	-0.006606122
28	0xbde2bf32	-0.11071624
29	0xbbbf60f9	-0.0058404175
30	0xbcd76fcd	-0.026298428
31	0xbda77415	-0.08176438
32	0xbd8ccd92	-0.06875147
33	0xbce4143f	-0.027841685
34	0x3c24a63c	0.010049399
35	0xbc961f03	-0.018325334
36	0x3cd4c752	0.02597395
37	0xbd15aade	-0.036539905
38	0x3d5e0717	0.05420598
39	0xbcc0ef0d	-0.023551488
40	0x3d984fc9	0.07437093
41	0x3cd7b08a	0.026329298
42	0xbcad2cce	-0.021139529
43	0x3ccb7bb4	0.02483926
44	0x3c953fb1	0.018218847
45	0x3da48b9a	0.080344394
46	0xbd47ea5d	-0.04880749
47	0x3cdd0400	0.026979446
48	0x3ccddffd	0.02513122
49	0x3b12664b	0.0022338803
50	0xbc480531	-0.012208269
51	0xbdcd4e96	-0.10024755
52	0xbc530b1b	-0.012881066
53	0xbcc49ec4	-0.024001487
54	0xbd12a895	-0.035805304
55	0xbdd337c1	-0.103133686
56	0x3c4d561d	0.012532738
57	0x3d02d573	0.031941842
58	0x3d38a6a0	0.04508078
59	0xbc0be820	-0.00853923
60	0xbb6ae9c2	-0.0035844897
61	0x3ce36ded	0.027762378
62	0xbd8be9e1	-0.06831718
63	0xbca32383	-0.019914394
64	0x3d1ec2e2	0.038760073
65	0x3d68549f	0.056721326
66	0x3d7fbda1	0.062436704
67	0xbc03773c	-0.008024033
68	0xbc4e1e61	-0.012580485
69	0xbc5b94e0	-0.013402194
70	0xbc1bcdb6	-0.0095094945
71	0x3d841981	0.06450177
72	0xbc23db9f	-0.010001092
73	0x3d130eb2	0.035902686
74	0x3c21691f	0.009851723
75	0x3ce5552b	0.027994713
76	0xbd224887	-0.03961995
77	0xba95ff34	-0.0011443854
78	0x3c9966f2	0.018725846
79	0xbc77ae03	-0.015117171
80	0x3d60676c	0.05478613
81	0xbcd10784	-0.025516279
82	0x3cdc7fbe	0.026916381
83	0xbd2864d3	-0.04111178
84	0xbcc38530	-0.02386722
85	0xbc721c44	-0.014777247
86	0x3d189a47	0.037256505
87	0xbb9ca56b	-0.0047804615
88	0xbba6b1fd	-0.005087136
89	0xbd3f8c9b	-0.04676495
90	0xbbf58ba3	-0.0074934526
91	0xbaf480e2	-0.0018654133
92	0xbb8b6ea0	-0.004255131
93	0xbc832ebf	-0.016013501
94	0xbb00fa70	-0.0019680522
95	0xbce8a6ec	-0.028399907
96	0x3cad4e07	0.02115537
97	0xbd5ab8d6	-0.05339893
98	0x3bbb8cb2	0.0057235593
99	0x3cb0f8de	0.021603044
100	0x3a314585	0.00067623734
101	0x3ab5d450	0.0013872478
102	0xbcb2ee54	-0.02184216
103	0x3cda963b	0.026682964
104	0xbd132fbc	-0.035934195
105	0xbc071eb3	-0.008247065
106	0x3b8dfd50	0.0043331757
107	0x3b4ad947	0.0030952261
108	0xbbb2329b	-0.0054381615
109	0x3d21753c	0.039418444
110	0x3bcd850d	0.0062719644
111	0x3d2c6a1a	0.042093374
112	0x3d4e41e4	0.050355807
113	0x3ba2c16f	0.0049669067
114	0xbd08fd33	-0.033444595
115	0xbcd03b01	-0.02541876
116	0x3d2296bd	0.039694536
117	0xbd47def9	-0.048796628
118	0x3d228c0e	0.039684348
119	0xbc8377bc	-0.016048305
120	0xbd172605	-0.036901493
121	0xbcbd665e	-0.023120102
122	0xbc930af2	-0.017949555
123	0xbc569cad	-0.013098878
124	0xbd178843	-0.036995184
125	0xbd03a1aa	-0.032136597
126	0xbbd86406	-0.0066037206
127	0x3a2db31d	0.0006626116

weight f4 [64, 128]
0	0x3e266ecd	0.16253205
1	0xbd9a0d7b	-0.075221024
2	0xbdaf701c	-0.08566305
3	0x3e0ea004	0.13928229
4	0x3d9be4cc	0.07611999
5	0x3db47d07	0.088129096
6	0x3d23794d	0.039910603
7	0xbded8070	-0.11596763
8	0x3da6b1b9	0.08139367
9	0xbb0cffc0	-0.0021514744
10	0xbd3ed8a2	-0.046593316
11	0xbe4cc383	-0.19996457
12	0x3dd9dac7	0.106374316
13	0x3da66ca8	0.08126193
14	0x3ddf8b1a	0.109152034
15	0x3db7416c	0.08948025
16	0x3de5f327	0.11228018
17	0xbd249d34	-0.040188983
18	0x3e12f27c	0.14350313
19	0xbdc8e817	-0.098098926
20	0xbd8dcf78	-0.06924337
21	0xbdba5b98	-0.09099501
22	0x3c5b4925	0.013384138
23	0x3d1b5586	0.03792336
24	0xbce1d5ba	-0.027567733
25	0x3d361049	0.044449124
26	0x3bcbdd3f	0.006221443
27	0x3e17c77b	0.1482219
28	0x3e3266c5	0.17422016
29	0xbd25072a	-0.040290035
30	0xbe075afe	-0.13218305
31	0x3e165bf9	0.14683522
32	0x3dc1cf85	0.09463409
33	0x3d868bb7	0.06569617
34	0xbc5ef272	-0.013607608
35	0x3dde4913	0.108537816
36	0xbcdef5c7	-0.027216805
37	0xbd32a2d2	-0.04361231
38	0xbdfee6c7	-0.12446361
39	0x3d2be6a6	0.04196801
40	0xbd2f43d1	-0.042789284
41	0xb95ad900	-0.00020870939
42	0x3dc2f818	0.095199764
43	0xbd1c0a68	-0.03809586
44	0x3d05e259	0.032686565
45	0xbcadf072	-0.021232817
46	0x3dbdd44d	0.09269009
47	0x3bbd6552	0.0057799006
48	0xbd135e2f	-0.035978492
49	0xbd8aa7d4	-0.06770292
50	0x3d8f5804	0.069992095
51	0x3d8df0d0	0.06930697
52	0xbe217689	-0.15767874
53	0x3d8e6cbd	0.06954334
54	0x3d57858c	0.052617595
55	0x3d3ecb5b	0.046580654
56	0xbd8827ec	-0.066482395
57	0x3b737b31	0.0037152285
58	0xbcbafca9	-0.022825556
59	0x3e0ec196	0.13941035
60	0xbce08e26	-0.027411532
61	0xbd6d465f	-0.05792844
62	0x3e72bcc0	0.23704815
63	0x3da8328a	0.082127646
64	0xbde6bce1	-0.112664945
65	0xbe158295	-0.14600594
66	0xbd985382	-0.07437803
67	0x3be62f27	0.007024664
68	0x3d8ddf1a	0.06927319
69	0x3e7899c0	0.24277401
70	0xbca3831b	-0.019959977
71	0xbde802e0	-0.11328673
72	0xbd9929d0	-0.07478678
73	0xbdb70edb	-0.0893838
74	0xbe154bbb	-0.1457967
75	0xbd50b604	-0.050954834
76	0x3d33a549	0.0438588
77	0x3dfb33c8	0.12265736
78	0xbda78205	-0.08179096
79	0x3caa65f8	0.020800576
80	0xbd40a998	-0.047036737
81	0x3e05050d	0.12990208
82	0xbe0b4830	-0.13601756
83	0xbc0f10c0	-0.008732021
84	0x3da5623a	0.08075376
85	0x3d264d55	0.040601093
86	0xbdd9466e	-0.106091365
87	0x3d595806	0.05306246
88	0xbd37c4e0	-0.04486549
89	0xbd423be8	-0.047420412
90	0x3da4ce90	0.08047211
91	0xbdda052b	-0.10645517
92	0xbd20f2d8	-0.039294094
93	0xbaea0995	-0.0017855639
94	0xbe248dd3	-0.16069727
95	0xbc730ce0	-0.014834613
96	0xba8b9ae5	-0.001065102
97	0x3e85c6ac	0.26128137
98	0xbc9a812c	-0.018860422
99	0x3ca6a818	0.020343825
100	0x3dd46870	0.10371482
101	0x3dafd03a	0.08584638
102	0x3ded8c49	0.11599023
103	0xbdef1e07	-0.11675649
104	0x3d4b9460	0.04970205
105	0xbd19830a	-0.037478484
106	0x3e216a9c	0.15763324
107	0xbd807905	-0.06273083
108	0xbcca35e2	-0.024683896
109	0xbdcdfe0c	-0.10058221
110	0xbd10f624	-0.035390988
111	0xbd00db52	-0.03145916
112	0x3d2e0e20	0.04249394
113	0xbdd6f59a	-0.104960635
114	0x3dc4003b	0.095703565
115	0x3dd3a540	0.10334253
116	0xbde1bb96	-0.11022107
117	0x3c959db2	0.018263672
118	0xbd8834c7	-0.066506915
119	0x3e104959	0.1409048
120	0x3ca2ff80	0.019897223
121	0xbdebf1f8	-0.11520761
122	0x3d122c96	0.03568705
123	0x3e23bb75	0.15989478
124	0x3caf13d5	0.021371761
125	0x3de115c8	0.109904826
126	0x3d80eda7	0.062953286
127	0x3d171d79	0.03689334
128	0x39ad6e11	0.00033079137
129	0xba2f43b0	-0.00066858064
130	0x3aa258d4	0.0012386092
131	0x3a60240c	0.0008550293
132	0x3ab79591	0.0014006366
133	0xba55ea75	-0.0008160242
134	0xba06fd54	-0.0005149443
135	0x3ad3a7ba	0.0016148009
136	0xbac95fda	-0.0015363649
137	0xbb076963	-0.002066218
138	0x3a04faed	0.0005072791
139	0x3a6c7f96	0.00090216973
140	0x381fde0e	3.811536e-05
141	0x3a834a46	0.0010016642
142	0x39fb6653	0.00047950688
143	0xb9afd519	-0.0003353737
144	0x383d863d	4.518613e-05
145	0x39c88f28	0.00038253632
146	0x38d96074	0.00010365332
147	0xba056c6d	-0.0005089704
148	0xb9a71827	-0.00031870717
149	0x3aadba21	0.0013254323
150	0xb90c7222	-0.00013393958
151	0xba77a6cc	-0.0009447157
152	0x3abfdc94	0.0014637881
153	0xba3cf885	-0.0007208663
154	0xb93c6972	-0.00017968359
155	0xb995bca4	-0.00028560043
156	0xb918f04c	-0.00014585367
157	0x389cb56e	7.4724536e-05
158	0xbaa28529	-0.0012399304
159	0xba84a4f7	-0.0010119964
160	0x3aa30ca6	0.0012439683
161	0x3925834e	0.00015784541
162	0xb8048f63	-3.160479e-05
163	0xb8ca730f	-9.653542e-05
164	0xba16a35b	-0.0005746388
165	0x3a9d9f9e	0.0012025719
166	0x38267a0f	3.969116e-05
167	0x3a5c0c47	0.00083941635
168	0x3a5e77c3	0.0008486474
169	0x38052eb7	3.1753178e-05
170	0xb99824de	-0.00029019167
171	0xba4d8c08	-0.00078409957
172	0xba623b1e	-0.0008630025
173	0x3a5a9c30	0.0008339314
174	0xbac96aaa	-0.0015366871
175	0xbab29cd3	-0.001362706
176	0x3a186261	0.00058129994
177	0xbac486fa	-0.001499384
178	0xba6e2ccf	-0.00090856565
179	0x3681501c	3.8538255e-06
180	0x3b1ac024	0.002361306
181	0xba8f4cd6	-0.0010932933
182	0xba7bad79	-0.00096007396
183	0x39e2d336	0.00043263444
184	0xb7e37475	-2.7114738e-05
185	0xbb1ded45	-0.0024097722
186	0x3a570231	0.00082019257
187	0x39cf154e	0.0003949799
188	0xb997bc1a	-0.0002894111
189	0x38826076	6.21685e-05
190	0xb9eb7eb5	-0.00044917097
191	0x394d4358	0.00019575411
192	0xba3d4d05	-0.00072212546
193	0x3a5ebc32	0.0008496671
194	0xb88edc17	-6.8120826e-05
195	0xb9926d82	-0.0002792888
196	0x35f4ec8c	1.8248261e-06
197	0xba23b710	-0.0006245235
198	0x3a34401c	0.0006876008
199	0x3833db8b	4.288139e-05
200	0x38b12f95	8.4488805e-05
201	0xbb1b9432	-0.0023739454
202	0x39a68aad	0.0003176531
203	0xba08d2a8	-0.00052193785
204	0xb963cfd2	-0.00021725826
205	0xba5bd268	-0.000838554
206	0xba005998	-0.0004896163
207	0xb9ca7886	-0.0003861824
208	0x3a59d901	0.0008310229
209	0x3abafe64	0.0014266488
210	0xb9f692e5	-0.0004703022
211	0x3a110df0	0.0005533388
212	0xb70f854c	-8.5545e-06
213	0x3af82ebf	0.001893483
214	0x39f4593c	0.0004660579
215	0x3a3b50b5	0.000714551
216	0xb89b56ea	-7.407165e-05
217	0xbaf6e4d4	-0.0018836507
218	0x3a97d1af	0.0011582876
219	0x3a846e25	0.0010103626
220	0x395cbe39	0.00021051698
221	0x3ab6b3d3	0.001393909
222	0xba144a2c	-0.00056568044
223	0x37d747a6	2.5663361e-05
224	0x3b091560	0.0020917282
225	0x37e259b4	2.698307e-05
226	0xba9967c4	-0.0011703898
227	0xba7983de	-0.0009518246
228	0x3a2d1130	0.00066019874
229	0xba753116	-0.00093533227
230	0xba81914f	-0.0009885224
231	0x3a934ab6	0.0011237476
232	0x3b023307	0.001986684
233	0x35a32022	1.2153798e-06
234	0xba577166	-0.0008218497
235	0x39dff13f	0.00042713617
236	0x3a8b88a6	0.0010645583
237	0x3ab8dfcb	0.0014104781
238	0xb92cd91d	-0.00016484079
239	0xb9abe280	-0.00032784417
240	0x3999f764	0.00029366754
241	0xb9b3f217	-0.00034321912
242	0x38959d91	7.134223e-05
243	0xb91631e8	-0.00014323706
244	0xbb0dc593	-0.0021632656
245	0xba0986aa	-0.0005246202
246	0xbb2debb0	-0.0026538186
247	0x392a866b	0.00016262538
248	0x39c491df	0.00037492716
249	0xbb3ccadb	-0.0028807435
250	0xba8d9f27	-0.0010804877
251	0x39c996b9	0.00038450005
252	0x39b445d3	0.00034384298
253	0x38e0c989	0.00010718691
254	0x3a0f3ad2	0.0005463782
255	0x39eb61c9	0.00044895548

bias f4 [64]
0	0xbddf12f9	-0.108922906
1	0x3929f6c9	0.0001620903
2	0xbc9f0ab4	-0.019414283
3	0xb8a14ad9	-7.69102e-05
4	0xb7f5132c	-2.9215204e-05
5	0xbd3aed4d	-0.045636464
6	0xbb9d9406	-0.0048089055
7	0x3a851fbc	0.0010156552
8	0xbc526a2a	-0.012842694
9	0x39ac0e9e	0.00032817287
10	0x390d1845	0.00013455849
11	0xbd99477c	-0.07484338
12	0xbcbe3da4	-0.023222752
13	0xbc58ea31	-0.013239429
14	0x37a416e8	1.956099e-05
15	0xb89f3457	-7.59146e-05
16	0xbdbe1381	-0.09281064
17	0xbc285ed7	-0.010276518
18	0xbdd29247	-0.102818064
19	0xb9312efb	-0.00016897537
20	0xb93cdba7	-0.00018010904
21	0xb98c66ea	-0.00026779558
22	0x3920a5e1	0.00015320584
23	0xb9a11675	-0.00030725045
24	0x3b85fd7a	0.0040890547
25	0xbc5fec28	-0.013667144
26	0x369bcdb1	4.6433056e-06
27	0xbe50377a	-0.20333663
28	0xb91ceeb1	-0.00014966239
29	0xbd49c9f5	-0.049264867
30	0xbc5ff385	-0.013668899
31	0xbddb86eb	-0.10719093
32	0x39ad5be1	0.00033065586
33	0x38988449	7.272565e-05
34	0xbcd462ea	-0.025926072
35	0xb9432791	-0.00018611389
36	0xb9c5ce08	-0.00037728273
37	0xbcaadb68	-0.020856574
38	0x3aaa71cf	0.0013003888
39	0x3cbbf636	0.022944551
40	0x3c3def0e	0.01159264
41	0x3c426f96	0.0118674245
42	0x3b8634bf	0.0040956433
43	0x390de7be	0.00013533139
44	0xbce55290	-0.02799347
45	0xb948d66d	-0.00019153366
46	0xb938184c	-0.00017556659
47	0xbdb6068e	-0.08887969
48	0xb9bbd9ee	-0.0003582979
49	0xbd7b569b	-0.06136189
50	0xbb897f5d	-0.004196091
51	0x3cc35655	0.023844877
52	0xbb84d148	-0.0040532686
53	0xbdae38c6	-0.085069224
54	0xbd8badc5	-0.06820253
55	0xb9067ff5	-0.00012826904
56	0x38b832a0	8.783233e-05
57	0xbcb03ba9	-0.021512823
58	0x3c93fdbe	0.01806533
59	0x3c00831f	0.007843762
60	0xb9c5274b	-0.00037604044
61	0x396dd198	0.00022680161
62	0xb72e6d88	-1.039671e-05
63	0xbe021d85	-0.12706573

weight f4 [1, 64]
0	0x3e4d3986	0.20041475
1	0xb741dc5a	-1.1555001e-05
2	0xbd3c6ec5	-0.046004076
3	0xb7a60b89	-1.9794114e-05
4	0xb756f45b	-1.2812287e-05
5	0x3eb4dec2	0.353262
6	0x3e7d5f20	0.24743319
7	0xbe11bb55	-0.14231618
8	0x3cf78a5c	0.030217342
9	0xb5134b3b	-5.487124e-07
10	0x36a3448c	4.8657585e-06
11	0xbebfb996	-0.37446278
12	0xbe40b835	-0.1882027
13	0xbc4672e0	-0.012112349
14	0xb6a3a35a	-4.876795e-06
15	0x35da2460	1.6252852e-06
16	0xbcddfedc	-0.027099065
17	0x3db5b506	0.08872418
18	0xbe8ea3d4	-0.27859366
19	0x377fbe3c	1.5243477e-05
20	0xb7086a7a	-8.131023e-06
21	0xb60cd713	-2.0986815e-06
22	0x374eebd7	1.2333468e-05
23	0xb7731547	-1.4488883e-05
24	0x3e869b2e	0.26290268
25	0xbc5124b7	-0.012765101
26	0xb79ab565	-1.8442699e-05
27	0xbe98fddc	-0.2988118
28	0x364f0ac1	3.0851663e-06
29	0xbd201075	-0.039078195
30	0xbc84b15b	-0.01619785
31	0xbe354c6c	-0.17704934
32	0xb6b87787	-5.497542e-06
33	0xb7858cea	-1.5920454e-05
34	0xbd28dceb	-0.04122631
35	0x36385e45	2.7473009e-06
36	0xb2a6bc31	-1.9410523e-08
37	0x3e00fd6f	0.12596677
38	0x3dfee663	0.124462865
39	0x3db31bd9	0.08745546
40	0xbdce9f71	-0.10089005
41	0x3d5dacfa	0.05412004
42	0xbd8204ba	-0.06348558
43	0x3d9eaded	0.077480175
44	0x3dfeaaff	0.12434959
45	0xb699d53c	-4.584579e-06
46	0xb6be4d09	-5.6714093e-06
47	0xbe3de42f	-0.18544076
48	0xb6e76f8c	-6.8973222e-06
49	0xbe8af90f	-0.27143142
50	0x3d3781b0	0.044801414
51	0x3d3a6b20	0.04551232
52	0xbe349c44	-0.17637736
53	0xbe551ea1	-0.20812465
54	0xbdd2b19d	-0.10287783
55	0xb7b2e7e3	-2.1327234e-05
56	0xb6a97fde	-5.051478e-06
57	0x3d826cc7	0.06368404
58	0x3d4a6a3b	0.049417716
59	0xbe14b6ca	-0.14522853
60	0xb694eb17	-4.438112e-06
61	0xb7703b55	-1.4318929e-05
62	0xb74686b2	-1.1833081e-05
63	0xbe84f2ae	-0.259664
